notebooks/lightning_logs/version_2/checkpoints/epoch=49-step=499.ckpt (torch, 71752 bytes, 27 tensors)

lstm.weight_ih_l0 f4 [80, 1]
00000000: 3d66 61be 0a4b dc3d ae3d 923e dcba 83be
00000010: f678 69be 28cd d1be 2261 303e fdb3 a23e
00000020: 8cf9 6fbd 6c05 1c3e 9ee8 a5be 7c06 b4be
00000030: a836 c4be 5bb9 3d3d 3f40 a1be 2579 513e
00000040: c4e4 353e 2a8a 973e 8e96 dfbd c124 693f
00000050: 3fed 8fbe ea6c b3bb a9df 593e 1d5a e1bd
00000060: a8d6 bbbe eabf 2cbf 90c5 fd3d cc4a e93e
00000070: d7b3 0dbe ca22 9c3d 3b6b 39bf fc7d 37bf
00000080: 14d8 b0be b6f4 c23e 23cd 28bf d196 f33d
00000090: a23b 423d cf13 b53e ba60 9f3e d101 103f
000000a0: 76de f73e 064e 253f 0b22 163e 0578 4f3e
000000b0: 06e6 15bf 1b66 163f ddef 273f 47ce 0f3f
000000c0: 8e23 44be f3bd 90bd 5d9b 29bf 28d2 e13e
000000d0: 1d72 d33e 888d 06bd b8b1 173f 6968 9f3e
000000e0: 3d53 9a3e 68de b4bd b436 f7be 19f2 42bf
000000f0: a627 b0be bd19 9abd e037 bd3d 1762 c9be
00000100: 2500 cdbe 642f f6be 4d8f 923e e5d7 c33d
00000110: 6c22 c0bd c1d3 083d f0fa f9be 669c 25bf
00000120: 8971 4fbe a9c1 ca3c cb4a a2be 02a2 d1bc
00000130: 89aa 11be c2fe 7d3e 805d a83d 3433 463f
-0.22011657 0.107565 0.28562683 -0.257285 -0.22800049 -0.40976834 0.17224553 0.31777945
-0.058587596 0.15236443 -0.32404035 -0.35161197 -0.3832295 0.046319347 -0.31494328 0.20456369
0.17763048 0.29597598 -0.10917388 0.91071707 -0.28110692 -0.00547563 0.21276726 -0.11003516
-0.36687207 -0.6748034 0.12391198 0.45564878 -0.13838135 0.07623823 -0.72429246 -0.7167661
-0.34539855 0.38077325 -0.65938014 0.11894 0.04742015 0.35366675 0.31128484 0.5625277
0.48411912 0.6457218 0.14661424 0.20260628 -0.5855411 0.5874955 0.6560038 0.5617413
-0.19154188 -0.0706748 -0.6625269 0.4410565 0.41298 -0.03284982 0.5925555 0.31134346
0.3014163 -0.08831483 -0.48283923 -0.7615066 -0.3440525 -0.075244404 0.09239173 -0.3933265
-0.40039173 -0.4808303 0.28624955 0.09562663 -0.093815655 0.03340507 -0.48824263 -0.6469177
-0.20258154 0.024750547 -0.31697688 -0.025589947 -0.1422521 0.24804214 0.08220959 0.7742188

lstm.weight_hh_l0 f4 [80, 20]
00000000: b179 d3bc 9002 eabe 8b1f ec3d 7c7b 8a3e
00000010: a895 ae3d a143 8d3d 345b cbbe 3db6 08be
00000020: 9f16 153e 2318 dc3d f00f 92bd dc19 4d3d
00000030: 5a1a 043c 26f6 483e e8ba d9bd a4f0 ecbd
00000040: 1114 733e cd91 893d 11f1 43bc e9c6 473e
00000050: 0c1b 49be d836 5b3d 49fe 8c3d 2b4f 7cbe
00000060: 0912 e33e 54d9 adbe 595d 0f3e 22ab bcbb
00000070: 1374 5ebe a930 0f3e 67d7 5f3e 9985 e9be
00000080: dbcf 89be f6a6 d33d ccd8 ea3d ff29 5d3e
00000090: 948c 92bd d4ed 2abe 4c89 26be 4650 b8be
000000a0: 2241 a03e 11f8 ab3e 76e0 23be ee11 ae3e
000000b0: f90a 57be 1eae 2c3e 9e74 3e3e 7b78 71bc
000000c0: 22f9 743e 7c22 89be fd8d 9ebd 87ac 9c3d
000000d0: 5b00 723e c1af a2bd da06 1a3e 3a09 5d3e
000000e0: a12f 803e bebb 3cbe 6b88 193d 81c5 c03c
000000f0: a581 49be 9d7e 1bbe 8690 c1be a15e ef3b
00000100: c998 54bd 6f4a 4a3c 64d5 803c d725 01bd
00000110: 772a 27bd 6a4e f03c 574f 9cbb 6168 eebd
00000120: c605 913d f188 2b3e 3295 9a3a 0ebc 38be
00000130: b294 51bd e1ec 0dbe 1a4d 373e ebc8 0b3e
00000140: 1971 1fbc fe84 0dbe 77eb 83be 866a 5c3d
00000150: bea7 f13c ac12 44be ee2b 30be 8ced 85be
00000160: 815f 7b3d 6693 263e f7f3 59bc 71da 743c
00000170: abe7 09be 4d7c c7bd 0fa2 bebe dcc9 db3c
00000180: 11a4 febd 0370 123e 94c9 ce3e 7287 dd3d
00000190: f96f a9be b154 d1be 6647 8fbe 0667 8e3d
000001a0: 297b a53d 1a57 1cbe 3efe bebe 5541 a5be
000001b0: cbd2 383c ccdf 75bd 2448 bc3c e2c0 d93d
000001c0: 19f7 50be afb9 0cbe b346 51be 52a8 9abd
000001d0: b4ad fa3d 8ef4 3e3d 25e6 5e3e bc3c d63d
000001e0: 6e4d 7bbe 60aa 25b9 85c9 90bc 8828 67be
000001f0: 72ca 653c d88d 893d 0188 913e 01ae 663e
00000200: 7c99 77be 62b7 3bbd 647a 623e fb30 a1be
00000210: 3295 10be f0ff 023e 04c8 4b3d a5f7 b93d
00000220: 1ba9 ce3c d308 a1be 9392 6cbe 6871 fdbe
00000230: 67ef 483c 09a3 90bd 1f25 21be b356 a13e
00000240: 3398 0a3d 71de 4c3e 2154 a6bd d350 4e3e
00000250: c257 babd de4d 993e c8cd 8d3d 0fef 163e
00000260: e5d6 993e 3a5e f2bc 62d2 283e a9d1 923d
00000270: 5ba6 24bd 271b 67be 8c87 c9bd 0468 b8be
00000280: 0e86 f03c a431 0dbe c34b ed3d 534a 793e
00000290: 49d3 51be 3b61 4f3e c7bd adbc 31e0 63be
000002a0: e567 79be 1d6b 2c3e 39b1 a93d 813e 213e
000002b0: 8c80 193e 72ea c0bd ad9a 473e d606 ae3e
000002c0: 8d13 9d3d 093d 76be 10bf 11bd 9fcd 1a3e
000002d0: da22 14be 39a2 0bbe 6265 a1be 9072 fdbc
000002e0: ae96 bbbd fd02 993d 8c9e 69be bc6f 3f3c
000002f0: e113 563c 9825 163e dc0a 89be 73dc d3bd
00000300: a62a b13e 1288 33be d751 763e 0d54 3fbe
00000310: 9943 c33c 52be b2bc 4894 363e 52ce a63e
00000320: aa02 a7be a186 efbe 2c9a eb3c 98c0 073e
00000330: f763 dd3d d43a 9abd acd7 e43b b027 63be
00000340: f8e2 073e 7edc 01bd cbbf 9e3e 7286 84be
00000350: 6dc6 9cbd cd9a 4dbe c2e1 1dbe 7ea0 413d
00000360: 38fb 89bc a4bc c33c 2b68 963e 8067 813d
00000370: 9d7b febd 7929 03be 100c c4bd 3650 c03b
00000380: 2eab 4bbd c532 b13d 682f 47bd 8a76 b1bd
00000390: a71a 2b3e 4aca d83d b540 9e3d 00de 2abe
000003a0: 5869 6abe 601f ef3d f607 5ebe 21e6 8abd
000003b0: 6858 c03d a967 79bd 153c 8e3e ded1 3c3d
000003c0: e69c 4ebe 45f0 98be e31e a0bd 5cdf 25bd
000003d0: d47f 55be 6fdd e83d 1667 8cbe 90fb 9bbe
000003e0: db94 c33d 667b 683e 747d 2dbe c174 fe3d
000003f0: 82c3 893e 5305 7ebe 06a1 c7ba 4d0b 6dbe
-0.025814863 -0.4570508 0.11529454 0.27047336 0.085246384 0.06897665 -0.3971802 -0.13350768
0.1455941 0.10746791 -0.07131946 0.05007349 0.008062923 0.19625148 -0.10631353 -0.11569336
0.23738123 0.067172624 -0.01195933 0.19509472 -0.19639224 0.0535191 0.068844385 -0.24639575
0.44349697 -0.3395487 0.14000453 -0.0057577053 -0.21723966 0.13983406 0.21859513 -0.4560974
-0.26916394 0.1033458 0.11467132 0.21598051 -0.071557194 -0.16692287 -0.16263312 -0.35998744
0.31299692 0.33587697 -0.16003594 0.33998054 -0.2100028 0.16863295 0.18599173 -0.014738197
0.23923162 -0.26784122 -0.07741926 0.076500945 0.23632948 -0.07943679 0.15041676 0.21585551
0.25036338 -0.18430993 0.037483614 0.023531677 -0.19678362 -0.15185018 -0.37805575 0.007304982
-0.05190352 0.012346848 0.015726753 -0.031530228 -0.040811982 0.029334266 -0.0047702002 -0.116410024
0.07081179 0.16751458 0.0011793731 -0.18040487 -0.051167198 -0.13859893 0.17900506 0.13650863
-0.009731554 -0.13820264 -0.25765583 0.053812526 0.029498931 -0.19147748 -0.17204258 -0.26157796
0.061370376 0.16267166 -0.013302795 0.014944659 -0.1346728 -0.09740505 -0.37233016 0.026829652
-0.12433637 0.14300542 0.40388167 0.1081685 -0.3309324 -0.40884927 -0.2798416 0.06953244
0.080801316 -0.15267602 -0.37303346 -0.32276407 0.011280726 -0.060027882 0.022983618 0.106324926
-0.2040676 -0.13742708 -0.20437126 -0.07551636 0.122401625 0.046619944 0.2176748 0.10460803
-0.24541256 -0.00015799096 -0.017674217 -0.22574055 0.0140253175 0.06716508 0.28424075 0.22527315
-0.24179643 -0.045829184 0.22117001 -0.31482682 -0.14119413 0.12792945 0.049751297 0.090804376
0.02522712 -0.31452045 -0.23102789 -0.49500585 0.012264109 -0.070623465 -0.15736817 0.3151146
0.033836555 0.2000673 -0.08121515 0.2014802 -0.0909877 0.2994222 0.06924015 0.14739631
0.30046764 -0.029585946 0.16486505 0.07168896 -0.04019771 -0.22568952 -0.09840307 -0.36016858
0.029360797 -0.13788468 0.11586716 0.24344759 -0.20490755 0.20251934 -0.021208657 -0.22253491
-0.24356039 0.16837735 0.08285756 0.157465 0.14990443 -0.09419717 0.19492598 0.3398959
0.07669745 -0.2404672 -0.035582602 0.151175 -0.1446642 -0.13636102 -0.3152266 -0.030938417
-0.09159599 0.07471273 -0.22814387 0.011684354 0.013066263 0.14662778 -0.26766098 -0.10344782
0.3460285 -0.17532375 0.24054657 -0.18684407 0.023835944 -0.021819267 0.17830002 0.32579285
-0.3261922 -0.467824 0.028760038 0.13257062 0.108100824 -0.07530752 0.006983718 -0.22183108
0.13270175 -0.03170442 0.310057 -0.25883824 -0.07655034 -0.20078583 -0.15418151 0.047272198
-0.016843423 0.023893662 0.2937635 0.06318569 -0.12425921 -0.1280879 -0.09572613 0.005868937
-0.049723797 0.08652262 -0.048629194 -0.08665188 0.16709386 0.105854586 0.07727186 -0.16686249
-0.22891748 0.11675906 -0.21682724 -0.06782175 0.09391862 -0.060889874 0.27780214 0.046098582
-0.2017704 -0.2987081 -0.07818391 -0.040496215 -0.20849544 0.1137036 -0.27422398 -0.30465364
0.09549876 0.22703323 -0.16942388 0.12424613 0.26906973 -0.24806719 -0.0015230484 -0.23148842

lstm.bias_ih_l0 f4 [80]
00000000: 31dc 8bbe 3769 823e 1c4f 28be b795 c1bd
00000010: abe8 88be ca3a b5be db96 2abd 4672 79be
00000020: 8a36 cbbe b830 d9be 8007 8abd 2cff 48be
00000030: b253 d1bd 2af1 00bf f4ba 77bd 8167 9ebe
00000040: 14c2 74be c5e9 25bd 1afb 9dbe cb41 7cbe
00000050: b5b8 06be 3c8d 3d3d 160a afbd b6be d9bc
00000060: c190 28bd 6e58 96be b137 963c ae45 0c3e
00000070: 7864 38be da27 34be 8270 873d 7aae ed3d
00000080: 5179 a8be 581c afbe bc8b 043e 4268 efbe
00000090: ba42 bbbe d9e9 cabe 64c8 dc3d 1348 193e
000000a0: 2687 173e 01dd d53d 30a5 643e 8a1a 833d
000000b0: 6ba5 7e3c 6290 0dbd cfd0 51bd a0c2 4e3c
000000c0: 8022 e33d 57f1 44bd 65fb 42be b433 6d3c
000000d0: 00ad 9f3d 493a 013c af37 363c 95d9 98bd
000000e0: d98e 1638 8587 ba3d e205 15bc b1aa c23d
000000f0: 1db6 d9be ac28 303e 885d 0fbe c5d8 89bd
00000100: 8038 6cbe b659 91be c0ca 2bbc 7abd 0abe
00000110: 4018 3ebe b995 e8be e01e 49be b625 b6be
00000120: 2389 02be 6d3a bbbd 849c b23d 7e65 6fbe
00000130: 511b 19be 6b97 7dbe aa78 583c f45d 40be
-0.2731643 0.25470898 -0.16436428 -0.09452384 -0.26740012 -0.35396415 -0.041647773 -0.24359998
-0.39690048 -0.42419982 -0.06739712 -0.1962859 -0.10221042 -0.5036799 -0.060481027 -0.30938342
-0.2390216 -0.040506143 -0.30855638 -0.24634473 -0.13156398 0.04627727 -0.085468456 -0.026580196
-0.041153673 -0.29364341 0.018337103 0.13698456 -0.18007076 -0.17593327 0.06613256 0.116055444
-0.32905057 -0.34201312 0.1294393 -0.4675923 -0.36574346 -0.39631537 0.10780409 0.149689
0.14797649 0.10442544 0.22328639 0.06401546 0.015542368 -0.034561522 -0.051224526 0.012619644
0.11090565 -0.048081722 -0.19041212 0.014477659 0.07796669 0.007887431 0.011121674 -0.074633755
3.5895824e-05 0.091078795 -0.009095641 0.09505213 -0.42521754 0.17203015 -0.14000523 -0.06730799
-0.23068428 -0.28388757 -0.010485351 -0.13548842 -0.18563938 -0.4542673 -0.19640684 -0.35575646
-0.12747626 -0.09142003 0.08721259 -0.2337856 -0.14951827 -0.24764793 0.013212362 -0.1878584

lstm.bias_hh_l0 f4 [80]
00000000: aeee 61be ec10 943e e036 bebe 0a9b 5abe
00000010: d737 89be 16df 4bbe 3401 c93d cb6d 05be
00000020: 9896 96be f1f5 54be 6554 a3be 956a d2bd
00000030: 5853 12be 9e66 c3be ee85 dfbd c21f a7be
00000040: 4b8a 92be de57 10be 6691 85be 8cb2 7ebe
00000050: 5dad f2bd a543 a73e 1871 1ebe 505e 123d
00000060: 8084 ccbe 1b10 40be 2090 cbbd 1462 d23d
00000070: b2e5 2cbe eaac 7dbe bb99 5cbe 28fa 8ebc
00000080: fc5c eabd cc8e 9bbd 2c5c c83e 349a 6dbe
00000090: cf95 08be fc09 68be 7830 c2bc 4284 963e
000000a0: f11a d13d 4e9b b23d d7bd 43be 938d 44bd
000000b0: f7ed b0bd 2c64 ff3d c53f 2d3e 1a78 0a3d
000000c0: 4da3 a3bd 8714 55bc 3e5e 50bc 4af8 303d
000000d0: bd33 3c3b 9756 8e3d a225 2a3d 152c 873d
000000e0: c9d6 e63c f299 d13d 36de f4bc 8a93 a7bd
000000f0: dc3d 94be fe99 293d 9c1b 58be 9c8b 09be
00000100: 705a 53be 70e2 ddbd 6add 87bc 0314 063d
00000110: 8a3a 48be 89d0 1cbe c706 35be 2bd9 f1bd
00000120: 9c00 a1be 855d 18be 9479 473e d7d8 98be
00000130: fd5d b8be 4af4 9cbe d280 d23d 63d8 34be
-0.22063705 0.2891916 -0.3715124 -0.21348205 -0.26800415 -0.1990932 0.098146826 -0.13030164
-0.2941177 -0.20796944 -0.31900325 -0.10274235 -0.14289606 -0.38164228 -0.10914217 -0.32641417
-0.28621134 -0.14096019 -0.26087493 -0.24872798 -0.11849473 0.32668796 -0.1547283 0.035734475
-0.3994484 -0.18756144 -0.09939599 0.10272613 -0.16884497 -0.24772993 -0.21543019 -0.017453268
-0.114435166 -0.07595596 0.39132822 -0.23203355 -0.13338397 -0.22660059 -0.023704752 0.2939778
0.10210217 0.08721028 -0.19115387 -0.04798658 -0.08639138 0.12470278 0.16918857 0.033805944
-0.079901315 -0.013005382 -0.012717782 0.043205537 0.0028717362 0.069501095 0.041539796 0.06600205
0.02817859 0.10234441 -0.029891115 -0.08182438 -0.28953445 0.041406624 -0.21104282 -0.13432163
-0.20639968 -0.10834205 -0.01658507 0.03273393 -0.19553581 -0.15313925 -0.17678367 -0.11809
-0.31445777 -0.14879425 0.19479972 -0.29852936 -0.36009207 -0.30655128 0.10278477 -0.1766067

lstm.weight_ih_l1 f4 [80, 20]
00000000: f884 453e 9b19 313d 7e02 69bd d79b 733e
00000010: d20d 32be b40b 253e 3e45 b9bd 1fd0 193d
00000020: fea2 05be 71fe 82bd f4be 56bc e171 07be
00000030: d6ac 593e 2923 1dbe 08d8 bf3c 9f2c 3f3c
00000040: 0da4 013e 7def 88be 913d 2dbe a9cb b3be
00000050: a0f3 8ebc b51e 13be 087d 8fbd 59a1 16be
00000060: 9532 13bd 17db e1bd 46c5 463c 253f 9dbd
00000070: 78e9 723e 4dc0 9f3d d2f8 ecbd cd7e 3abe
00000080: 51cd 883e 5f24 b1be 1606 21bd 5058 0b3e
00000090: be5f 733e 458f 253e bdbc a93c 94f4 58bd
000000a0: 0119 aabd f3b5 093e 9367 04be 003e 733e
000000b0: 4e6e 96be 6820 983c 092f d33d 3809 8abd
000000c0: 5707 6dbd 8ba9 243e ef6d f93c eb97 943c
000000d0: 4756 363e bd74 293d 8dc4 bdbd bb1c 0e3e
000000e0: 9f5e 833e 22f8 42be 8603 383e ffcc 163e
000000f0: b91a 103c 43e4 f63c a732 4ebe f8ec 1dbc
00000100: 2a80 28be 916e ed3d 534b 28bd e9aa 9f3d
00000110: 1eeb 9b3e a224 7e3c 1c9f 18be 5c3e 533e
00000120: 9c9b 24bd cae1 2ebe 64e6 743b e3b2 05bc
00000130: 8d25 ae3c 4011 513e 033d e23d 7b11 0bbe
00000140: f382 263e 4cdd 8b3e d186 22be 2ddf da3d
00000150: 7fe6 75bd 4583 d03c 5d78 403d a047 0d3d
00000160: 0ce3 2ebd 3a5c 1f3e c1e8 8a3d 55f1 ec3d
00000170: bba0 753e 38e8 66be 8463 3a3e b0e9 683e
00000180: 586e 7d3d 1d5d b1bd 9b1e 4bbd 666e 6dbe
00000190: e9e5 16bd b84b 8fbd b79d 82bb 2078 903d
000001a0: 580f bcbc 88ee 933e f6a4 2a3e e989 733e
000001b0: 4277 a23c 25ce aabd 920f 3b3d d471 b83e
000001c0: c5a0 843e 109b 11be 7069 eabc 3c22 473e
000001d0: 4cd2 433d 6a38 a9be 2782 87bd f966 f33c
000001e0: 70fb 34be c399 b7be 6f6d a3bd f267 8abd
000001f0: 91bb 763c ac45 45be 0b4d 84be 634f 46be
00000200: aa49 543e 07a4 0e3e 28de 6f3e f1c3 debd
00000210: 6bf4 f5bc c651 72be 627f 03be 6aa7 b1be
00000220: 9d8f 3d3e 6305 013e 76bc 6b3e 05c8 8f3d
00000230: e2ec 4c3e 7faa 283e 5f1f 3a3d 6cc5 723e
00000240: 8b40 523c 7e4d c4bd bb18 ce3d f544 613e
00000250: 7c80 87bd 553b 4fbd d0cb 45be d48c 14be
00000260: 4016 0cbe 6f49 70be f20e 24be cb25 293e
00000270: c60d 4b3d 71c9 383e c56d 02be 9e73 6bbd
00000280: 47cd 2bbd 42ea 5ebe 5ce6 313c bc53 c5bd
00000290: 2bfe 9f3e 374b a4be 7fa1 0fbd 2b17 0a3e
000002a0: 2f20 393e 8bd8 18be 9560 e03e 9eac eebd
000002b0: 1ddb 0fbe 2d18 60bd 3ea3 9ebe 32ff e63c
000002c0: 53f3 f8bc 0040 903d 7c58 b93d 82f2 673d
000002d0: eb60 80be afd6 82bd 25b2 d7be fa7e 1d3e
000002e0: e514 3ebe c47a efbc 7e2c 803d b3b4 86bc
000002f0: 49af 56be b6ec 28be 8af9 d6bd 66ac f2bd
00000300: 2bdf 13be 9be9 02be 39fe fabd 1332 f8bc
00000310: 7510 7e3e ddb3 9bba f8eb 1f3c affb 663e
00000320: 91db 2abe 9efb bdbe 8996 55bd 0207 893e
00000330: 1901 243e d8cd b2bd d618 93be b317 a6bd
00000340: aa76 5abc c775 fabd 1f46 7dbe 8fec 0cbe
00000350: 6d3c d73d 24ba 5bbe 9c51 dd3d d092 963c
00000360: 851e 4b3e eb30 e4bc dea3 ef3d c122 af3e
00000370: cb0e 123e 78c3 f3bd 6f1d 3dbe 68a9 873e
00000380: 500a 313d 8bcf e23d 182f 1c3e ddc6 52bd
00000390: a79e 933d 5b4b 14be 71b6 3f3d b038 0a3d
000003a0: 8dcb e23d 9bbc 80be 7cac e53d 9ce5 4bbe
000003b0: 958b 243e efa5 9e3e 120f 233d 44f8 a5be
000003c0: 6cbc 8ebd 3d2d 92be 3297 f53a b412 95bb
000003d0: b72e 413e 7d18 aebe bdc0 60be ddf6 8d3d
000003e0: f825 a23b 73b5 debd f830 2c3d 2241 91be
000003f0: 9a0a c0bc 186f afbe bb95 33be 030a cc3c
0.19289005 0.04323731 -0.056887142 0.23789917 -0.17388085 0.16117746 -0.0904641 0.037551995
-0.13050458 -0.06396187 -0.01310705 -0.13227035 0.21257338 -0.15345444 0.023418441 0.011668353
0.12660237 -0.26745215 -0.16918017 -0.35116318 -0.017450154 -0.14367183 -0.0700627 -0.14709987
-0.03593691 -0.11028116 0.012131995 -0.076780595 0.23721874 0.0780035 -0.11570896 -0.18212433
0.26719144 -0.3459806 -0.039312445 0.13607907 0.23766991 0.16167934 0.02071988 -0.052967623
-0.0830555 0.13448314 -0.12930135 0.2375412 -0.2938103 0.01857014 0.103117056 -0.067400396
-0.057868328 0.160803 0.030447928 0.018138846 0.1780635 0.041371096 -0.09266005 0.13878147
0.25658128 -0.19039968 0.17970094 0.14726637 0.008795434 0.03013814 -0.2013651 -0.009639017
-0.1645514 0.115933545 -0.04108746 0.077962704 0.30452818 0.015511664 -0.14904445 0.20629257
-0.040187463 -0.17078319 0.0037368769 -0.008160326 0.02125814 0.20416737 0.11046793 -0.13580887
0.1626089 0.27317274 -0.15871741 0.10687099 -0.06003427 0.02545322 0.046989787 0.034492135
-0.042696998 0.15562525 0.067826755 0.11569468 0.23987095 -0.22549522 0.18202025 0.22745395
0.06187281 -0.08660338 -0.049589735 -0.23186645 -0.036840353 -0.06996864 -0.003986086 0.07054162
-0.022956535 0.28892922 0.1666449 0.23783077 0.019832257 -0.083401 0.045669146 0.36024344
0.25903907 -0.14219308 -0.02861473 0.19446653 0.047807977 -0.33050853 -0.066166215 0.029712187
-0.17674041 -0.35859498 -0.07979857 -0.06758107 0.015059368 -0.19264859 -0.2584003 -0.19366221
0.20731226 0.13929759 0.2342459 -0.108772166 -0.030023774 -0.23664007 -0.12841561 -0.3469804
0.18511815 0.12599711 0.23021111 0.070205726 0.20012239 0.16471289 0.045440074 0.23708123
0.012832771 -0.09585093 0.10063311 0.21998961 -0.06616303 -0.050593693 -0.1931603 -0.14506847
-0.13680363 -0.23465513 -0.16021326 0.16518323 0.049573682 0.18045594 -0.12737186 -0.057483308
-0.041943815 -0.2176905 0.010858145 -0.09635112 0.31248602 -0.32088634 -0.035066124 0.134854
0.18078683 -0.14926355 0.43823686 -0.11654018 -0.14048429 -0.054710556 -0.3098392 0.028197858
-0.030389464 0.07043457 0.0905008 0.056627758 -0.25073943 -0.06388604 -0.421281 0.15380469
-0.18562658 -0.029233344 0.06258486 -0.016443586 -0.20965303 -0.16496548 -0.104968145 -0.11849289
-0.144406 -0.12784426 -0.122555204 -0.030297315 0.24810965 -0.0011879165 0.009760849 0.22556947
-0.1668532 -0.3710603 -0.052145515 0.2676316 0.16016044 -0.08730668 -0.28729886 -0.08109989
-0.013333956 -0.122294955 -0.2473378 -0.13762115 0.10509572 -0.21457726 0.108065814 0.018380553
0.19835861 -0.027855357 0.11701177 0.34206203 0.14263456 -0.11902517 -0.1846826 0.26496434
0.043222725 0.11074742 0.1525234 -0.051459182 0.07207995 -0.14481871 0.04680485 0.033745468
0.110739805 -0.25143895 0.112145394 -0.19911808 0.16068871 0.30985972 0.039809294 -0.32415974
-0.06969532 -0.2855014 0.0018737076 -0.0045493487 0.18865477 -0.34003058 -0.21948524 0.06931851
0.004948374 -0.108744524 0.042038888 -0.28370005 -0.023442555 -0.34264445 -0.17537586 0.024907118

lstm.weight_hh_l1 f4 [80, 20]
00000000: d682 3ebe b5bf 59bd 042b 18be 7f86 053e
00000010: d2ba 76be 84b1 07be 9ba9 a0be e696 81bd
00000020: 1a13 44be 44af c7bd 3fcc 033e 20e6 10be
00000030: 5c53 d1bc e473 8abd 2e5c e23a 9d16 54bd
00000040: 8915 5ebd b141 a7be 20db 67be b9fc 4ebe
00000050: 4157 a1be 018f cc3c dea8 633c eb09 d9bd
00000060: ed55 b2bd 9160 973e bec6 a7bd 2d4c 1ebd
00000070: 4d35 a23d f4da 5bbd 5958 193c dc60 91be
00000080: daea c8bd bb02 59be 253b ae3d d572 113c
00000090: ae0c 803b 643c 0e3d 877a 9ebd ad08 72bb
000000a0: 2ad2 1abe 5b8d e3bd 95c4 31bd 1131 02be
000000b0: d7ff 91be 9565 e0bd c32d 943d 46a1 f6bd
000000c0: 09ba 93be a0e2 323d 732b 39be e891 f7bb
000000d0: dbd8 ac3c 0bdf acbd d59f 41be 3dbf 46be
000000e0: 0d14 9d3d 490c 5dbe 4a02 813d 6323 67be
000000f0: 77a4 56be cb77 033c 089f 683d 512b 0fbe
00000100: d9d2 fc3d 4134 993e 8e9f d9bc d29f 643c
00000110: 3363 5dbe e4db 503d 71de 78be a7b0 0cbd
00000120: bc46 333d 59b8 783d 2f55 713e f5ab 19bd
00000130: 7d05 0bbd 9348 003e b071 f6bc 6ae9 72be
00000140: 9384 113e e9e1 2cbe 3371 df3d 5515 963d
00000150: 91fa 81bd 159c aa3d c5af a7be 6a16 2ebd
00000160: bf77 18be c2cc 513e 332d 1c3e 8444 4fbd
00000170: 58e8 83bd d49e 10bd d7db 8e3d ff8e 973d
00000180: d969 50be 1108 a8bd e1a4 ef3d 52b5 313e
00000190: e3e9 a0bd eaf3 c93d 6189 883c c422 913c
000001a0: 1c90 2e3e 4869 1f3e 6862 d8be be89 f9bd
000001b0: 0aec d4be ad25 d13d df60 97be ae57 fc3c
000001c0: 0cc2 e43d 64c0 0cbe 93df a23e 12a4 5d3d
000001d0: bd39 a1be f357 88be 2e16 b43d 52eb 583e
000001e0: c860 29bd be6a 293e feb2 08be 5c81 003c
000001f0: d9f3 113e 7450 55bc 8333 0a3e f3c1 5bbe
00000200: e1d8 6bbe 2165 0c3e 1f12 df3d b197 0f3e
00000210: a95f 90bb 76e6 953d 59fd 703e 552b 01bd
00000220: 4d52 273d ce6f 5abe 4d8f 44be 7f4a 073e
00000230: c3df 993b c025 47be 9b71 123e 2e14 953d
00000240: 5c4a f6bd ce75 11bc 7ec9 acbe 4d26 443e
00000250: f91e 5fbe c116 b0bd c693 d63d 2a3c b3be
00000260: 45be dd3d 1fd5 9abc 884d 09be 7c88 153e
00000270: 464e 123e e296 6a3d 3018 083b 64b5 b73d
00000280: 99bd d0bd 5e49 273d 1be3 233e e299 c6bd
00000290: e920 dc3d 4202 793e 2224 b43d edf7 2b3e
000002a0: 34e7 0f3e ab3b 103e 132e ccbc b27c c6bb
000002b0: 6eef f03d fe74 57bd 51d1 ccbd 68f8 babc
000002c0: a8a9 88bc 9e7a 17be a8d1 0e3d 3bd7 f5bd
000002d0: b02b ea3d da5f b83e 11e2 a2be 8a81 eebc
000002e0: dd6f b6be fcbd ce3d f6de acbd bf31 75be
000002f0: c1a3 96be 7655 f83d 2d01 d83d 44bd 72be
00000300: ffed 9dbe 6061 91be 3c1a cf3d 050f 98bd
00000310: a54a 92bc 06d6 44be 5dac 743b e14f 14bd
00000320: 4949 8cbc 0f30 333d 9bf9 673d 0861 7d3c
00000330: 76d3 61bd a7d7 243e 6eb2 d8bd f2f9 cebc
00000340: 35f6 2f3d 58a8 8abb 48ee 43be 2725 47be
00000350: 55f7 8fbe c005 ca3d ecd3 2f3e 47d8 ee3d
00000360: bcda b33d 67d8 8abe de99 e4bd c9cf 6fbe
00000370: a603 80bc d61f 293e fa8d 03be 5670 a43d
00000380: be8c 763d 51cf 723e 8408 673d b6a1 c3bc
00000390: a89d 07b9 b077 c7bd 7189 05be 1fa9 78be
000003a0: 4aeb 34be a736 d53d 6942 bcbd ffdb 1b3e
000003b0: 1868 283e a8b7 fabd 51ea 01be 521f 56be
000003c0: 45fb 813e 1cad 9a3d 662d 62be 902b 56bd
000003d0: 1cb5 43bc 86a3 e33d fe7c 6d3d 9d2e 2a3d
000003e0: c538 313e db7d 46be 5701 023e 0c5e 59be
000003f0: ed57 59bc 30e2 ebbd cca5 d9bd 9126 fb3d
-0.18604597 -0.05316134 -0.14860159 0.13039587 -0.24094704 -0.1325131 -0.313794 -0.0632761
-0.19147912 -0.09750226 0.12870882 -0.14150286 -0.025552444 -0.06760386 0.0017269903 -0.05177938
-0.054219756 -0.32667306 -0.22642183 -0.20213594 -0.31511882 0.024970533 0.013895242 -0.10597595
-0.08707795 0.29565862 -0.08192204 -0.038646866 0.079203226 -0.053675607 0.009359443 -0.2839421
-0.098104194 -0.21192448 0.08507375 0.008877476 0.0039077615 0.03472556 -0.07738214 -0.003693144
-0.15119234 -0.11110946 -0.043400366 -0.1271403 -0.28515503 -0.10956875 0.07235291 -0.12042479
-0.2885287 0.043673158 -0.18082981 -0.007555235 0.021099498 -0.084409796 -0.18908627 -0.19408889
0.0766984 -0.21586718 0.06299265 -0.22572093 -0.20961176 0.008024166 0.05679229 -0.13981368
0.123449035 0.2992268 -0.02656534 0.01395412 -0.21619873 0.050990954 -0.24303605 -0.034348156
0.04376863 0.060722683 0.23567651 -0.037517507 -0.03394078 0.12527685 -0.030083507 -0.23721853
0.1421073 -0.16883053 0.10910263 0.073282875 -0.0634662 0.083305515 -0.3275129 -0.042501844
-0.1488943 0.20488265 0.15251617 -0.05060245 -0.064408004 -0.03530772 0.06975525 0.07400321
-0.20352878 -0.082046635 0.1170137 0.17354324 -0.0785711 0.09860976 0.01666707 0.017716773
0.17047161 0.15567505 -0.42262578 -0.12184475 -0.41586334 0.10212264 -0.29566094 0.030803528
0.11169824 -0.13745266 0.318112 0.054111548 -0.31489363 -0.266296 0.08793293 0.21183518
-0.041352063 0.16544625 -0.1334953 0.007843342 0.14253177 -0.01301967 0.13496213 -0.21460705
-0.23031951 0.13710453 0.10892128 0.1402271 -0.004405935 0.073193476 0.23534144 -0.031535465
0.040849973 -0.21331713 -0.1919529 0.13212012 0.004695864 -0.19447994 0.1430115 0.072792396
-0.12025902 -0.0088781845 -0.33747476 0.19155236 -0.21789159 -0.0859809 0.10477404 -0.3500684
0.10827307 -0.018900452 -0.13408482 0.14602846 0.14287671 0.0572728 0.002076637 0.089701444
-0.10192413 0.040841453 0.16004603 -0.096973196 0.107484646 0.24317268 0.08795954 0.16793795
0.1405304 0.14085262 -0.024924314 -0.0060573453 0.117644176 -0.052601807 -0.100008614 -0.022823527
-0.01668246 -0.14792868 0.034867913 -0.120039426 0.11434114 0.3601063 -0.318131 -0.029114503
-0.3563222 0.100948304 -0.08440964 -0.23944758 -0.2942181 0.121256754 0.10547099 -0.23705012
-0.3084564 -0.28394604 0.10112426 -0.0742474 -0.017857859 -0.19222268 0.0037334182 -0.03620899
-0.017124789 0.043747004 0.056634527 0.015465029 -0.055133305 0.1609789 -0.10580908 -0.025265668
0.04295941 -0.004231494 -0.19133866 -0.19447766 -0.28118387 0.09864378 0.17170686 0.116623454
0.08781955 -0.27118227 -0.1116216 -0.23419107 -0.01562674 0.1651605 -0.12847129 0.08029239
0.060192816 0.23711897 0.056404606 -0.02388082 -0.00012933335 -0.097396255 -0.13040711 -0.24283265
-0.1766788 0.10410815 -0.09192354 0.1522064 0.16445959 -0.12242061 -0.12687041 -0.20910385
0.25387016 0.07552549 -0.2208763 -0.05228764 -0.011945035 0.11115174 0.05798053 0.04154836
0.17306812 -0.19383948 0.12695824 -0.21227282 -0.013265592 -0.11517751 -0.10627326 0.12263215

lstm.bias_ih_l1 f4 [80]
00000000: e72b 85be 0318 1ebd 4178 8cbd 7c94 90bd
00000010: 1bf6 7ebe a32d ecbe 210f 5fbd e1d5 47bd
00000020: 8f4e c73c 768c 833d 8c21 40be 47b8 813c
00000030: de01 473e 6150 8cbe 08af 35be 21a6 a2be
00000040: 64f9 72be fe5b 09be 71bb 62be 6e5b d4be
00000050: ad23 103c 2351 4d3d 7523 04be dcbd 1cbe
00000060: 2074 3838 23b0 d9bd ea16 3ebe 021f 9e3c
00000070: dd4a c23d 03e2 93be 90d5 76be e2cd 04be
00000080: a3e7 043e 10bf a13d 6340 bbbe a51d cfbe
00000090: 17a8 f6bd 6f26 d2bd 4b31 7dbe 7e72 b1be
000000a0: 88e8 d83d 171e a0bd 198e 123e 6789 3a3d
000000b0: b565 b53d e7dc c8bd 5492 a03d 7eb2 443d
000000c0: f8fb 1e3e 7949 2abe 6ddc f3bb 8142 a83d
000000d0: 181c d7bd df1a ce3d bf3e 153e 15ea 043d
000000e0: c152 733d 98b4 1a3c fbad 2a3c 84d3 79bc
000000f0: 1ccb c5be 364e e53c 533e 523d 230e 9c3d
00000100: 239b 5cbe 5787 e2be 28ad ae3c 743c 10bd
00000110: e714 0fbd d612 3fbd 4697 ce3d 5a4d 61be
00000120: 8f4c c63d f277 1d3e 72b9 83be 6992 9b3b
00000130: 2dc2 c9bc 88d5 ecbd 7871 f1bd 684b 0cbf
-0.26010057 -0.038597118 -0.06858874 -0.07059571 -0.2489857 -0.46128568 -0.054457787 -0.048787955
0.024329452 0.06423275 -0.18762797 0.01583494 0.19434306 -0.27405074 -0.1774255 -0.3176737
-0.23727947 -0.13413998 -0.22141816 -0.41476005 0.008797568 0.050126206 -0.12904151 -0.153068
4.397717e-05 -0.106292985 -0.18563429 0.019301895 0.09486935 -0.2888337 -0.24104905 -0.12969163
0.12978987 0.078977704 -0.3657256 -0.40452304 -0.12043779 -0.10261237 -0.24725835 -0.34657663
0.10591227 -0.07818239 0.14312018 0.045541193 0.0885729 -0.09807759 0.0784041 0.048021786
0.15525806 -0.1662959 -0.0074420483 0.082158096 -0.10503405 0.10063719 0.14574717 0.0324498
0.059405092 0.009442471 0.010417457 -0.015248183 -0.38631523 0.027991395 0.05132897 0.07619884
-0.21543555 -0.4424388 0.021322802 -0.035213903 -0.034932043 -0.046648823 0.10087447 -0.22002164
0.09682571 0.15377787 -0.2572742 0.004747678 -0.024628723 -0.11564165 -0.117892206 -0.5480256

lstm.bias_hh_l1 f4 [80]
00000000: 248f 7abd 5a0c 82bc a27e eabc 0415 56be
00000010: 0bdb 11bd 7591 c4be f527 77be 921d 3b3c
00000020: c97c 893d c75b 9cbe 95ad 8139 3c70 8d3d
00000030: 5b61 593e 89a2 d0bd b1c9 82be 2728 1abe
00000040: cff0 07be 5239 5cbd aa20 31be ff26 b2be
00000050: 28e8 bc3d e1ad 01be 052c 91bc 0a85 a2be
00000060: 38e8 85be 7a6e 5abe 0fd6 b03d c7b2 65be
00000070: eca9 103e 5f8b 983d b91b 60be cfd4 263e
00000080: af78 493e 2d3e 0e3e 79c1 8abe 6708 9fbe
00000090: a02d a5be 2b8d 7bbe ba7b efbd 3364 bcbe
000000a0: 0a2f 9e3c 010d df3b b387 17be 6c34 30bd
000000b0: 042c 823d 6759 bfbd 5ab7 8f3b 6f9b 68bd
000000c0: b8e5 dd3d c79f 6c3d 65a1 c03d fcbb 41bd
000000d0: 165b fd3c 0f62 cf3c f3f3 e0bd 5917 4a3a
000000e0: de64 a03c e9c5 323e 0727 cd3c 5ee3 77ba
000000f0: 909b 1bbe 8846 e0bb ea4b 463d 6fd5 5e3d
00000100: 2953 9ebe 6656 37be c630 df3c a147 24be
00000110: ff41 36bc 9eba d23c edcd 0fbd 68e5 a6be
00000120: a8d1 5f3c 14ec 2e3e 7bd8 bfbe 164e 8ebd
00000130: a4c6 04be 9d13 a6bd 09e0 8bbe 07a3 f1be
-0.061171666 -0.01587503 -0.028624836 -0.20906454 -0.035609286 -0.38392225 -0.24136336 0.011420624
0.06713254 -0.3053877 0.00024734126 0.06906173 0.21228544 -0.10187251 -0.25544503 -0.1505438
-0.13275455 -0.053765602 -0.17297617 -0.34795377 0.09223968 -0.12663986 -0.017721185 -0.31742126
-0.2615373 -0.21331206 0.086345784 -0.2243148 0.1412732 0.07448458 -0.21885575 0.16292118
0.19674943 0.13890906 -0.27100733 -0.31061098 -0.32261372 -0.2456557 -0.11693521 -0.36795196
0.01930954 0.00680697 -0.14797859 -0.043018743 0.063560516 -0.09343224 0.004385871 -0.056788858
0.10834831 0.057769563 0.094057836 -0.047298416 0.030927222 0.025315313 -0.109840296 0.00077091675
0.019579347 0.17458309 0.025043024 -0.00094561826 -0.15196061 -0.0068443455 0.04841224 0.054402765
-0.3092282 -0.17904052 0.027244937 -0.1604295 -0.011124133 0.025723752 -0.035108496 -0.32596898
0.013660826 0.17082244 -0.3746985 -0.069484875 -0.129664 -0.0810921 -0.27319363 -0.47194692

fully_conencted_layer.weight f4 [1, 20]
00000000: 2820 393e e4cc 0f3e 3a2e 6fbd 1082 213e
00000010: fae7 383e 8cf0 db3d e923 40be 6d5a 16be
00000020: f731 48be 5247 99ba 9b82 9abc 6052 1fbe
00000030: a631 8bbe 807b 61be 6e20 183e c35e 0f3e
00000040: b9b3 4dbc d943 8dbd aae5 82bd f03a b2bd
0.18078673 0.14043003 -0.058393694 0.15772271 0.18057242 0.1073924 -0.18763699 -0.14682932
-0.1955031 -0.0011694229 -0.018861106 -0.15558767 -0.27186316 -0.22019768 0.14856121 0.14000992
-0.012555056 -0.068977065 -0.06391461 -0.08702648

exp_avg f4 [80, 1]
00000000: 2a21 07b8 474a 21ba d96a 8b35 7e55 56b7
00000010: ffe6 46b8 7a28 d3b8 a10d e9b9 2a61 2ab9
00000020: 51af bdb7 9222 44b5 20dd 9fb8 0379 d3b8
00000030: 7b9f 90b7 9592 88b8 c1a9 2cba ecb6 04b6
00000040: f4d1 2db8 7e72 1837 a1b6 92b9 3e31 bbb9
00000050: c73b a9b7 d17b 38ba a169 8036 60f8 31b7
00000060: 4463 16b8 580c a6b8 63bb c8b9 3da9 fdb8
00000070: be47 09b7 7066 0535 bc33 b0b8 3b86 c4b8
00000080: c1ee 53b7 515a 25b8 6379 0eba 442f f3b5
00000090: acc8 aab7 3896 a936 271d 3eb9 81d0 61b9
000000a0: ec53 153a 06e9 aa3a 786f 0f37 3e9d 8b39
000000b0: 3712 bab9 c57d 423a 2add 45ba 981a 22ba
000000c0: 9c39 3438 6894 38b9 0ae2 8bba 4477 743a
000000d0: a891 6e39 17e4 d339 f403 453a 5a2e 4438
000000e0: d46b 15b7 b671 de38 88ef 223a 0002 d93a
000000f0: e0bd 07b8 3233 7eba 0145 2c36 c02f 58b7
00000100: 77b0 40b8 8683 d2b8 e8e7 0cba af5f 15b9
00000110: 314e a5b7 e02f 8132 5a2a 92b8 f6df e9b8
00000120: cadf 9bb7 b75b 62b8 86c2 22ba 22c5 11b6
00000130: debc 35b8 e1df 7637 32ea 54b9 76fd 31ba
-3.2217395e-05 -0.0006152731 1.0387404e-06 -1.2775299e-05 -4.742201e-05 -0.000100688034 -0.00044451377 -0.0001624866
-2.2612194e-05 -7.3065996e-07 -7.6228986e-05 -0.00010083804 -1.7240402e-05 -6.5122884e-05 -0.00065865746 -1.9776007e-06
-4.144195e-05 9.086563e-06 -0.0002798336 -0.00035704108 -2.0174206e-05 -0.0007037493 3.826994e-06 -1.0607851e-05
-3.5855235e-05 -7.917796e-05 -0.00038286587 -0.00012095503 -8.18254e-06 4.9695427e-07 -8.40197e-05 -9.371011e-05
-1.2632169e-05 -3.942318e-05 -0.0005434958 -1.8118667e-06 -2.0359024e-05 5.0540802e-06 -0.00018130672 -0.00021535346
0.0005696404 0.0013039417 8.5494175e-06 0.000266293 -0.00035490256 0.0007419254 -0.00075479096 -0.00061837723
4.2968997e-05 -0.00017602893 -0.0010672223 0.00093256333 0.0002275171 0.00040414996 0.00075155427 4.677321e-05
-8.906198e-06 0.00010606965 0.00062155025 0.0016556382 -3.2363343e-05 -0.000969696 2.5670163e-06 -1.2885721e-05
-4.5940713e-05 -0.000100380785 -0.0005375133 -0.00014245392 -1.9705943e-05 1.5039348e-08 -6.969711e-05 -0.00011152022
-1.858165e-05 -5.3968015e-05 -0.0006208796 -2.172143e-06 -4.332966e-05 1.47148685e-05 -0.0002030514 -0.0006789783

exp_avg_sq f4 [80, 1]
00000000: 7375 2334 ca82 9836 2105 fa32 4054 8333
00000010: c3ea fb33 2db1 0a35 d714 c735 0ffe 2234
00000020: 59a8 f633 8c74 b831 7449 d934 d8a9 0435
00000030: f005 da32 6d9c 4933 ef10 ba36 e7be fd31
00000040: 3550 6a33 8ae1 2034 8f0f 0635 574a 4735
00000050: dfae fd33 209d ea36 7327 9f32 b047 9433
00000060: 4d85 c433 7f83 f134 8a1b 7d35 8847 aa33
00000070: d521 8533 b7f3 6c31 3de3 1435 6cdf 3435
00000080: 6468 c632 baae bf32 15b2 d936 fd99 6031
00000090: 573e de32 a616 9233 4397 5234 1616 d334
000000a0: dd3f 5f37 3f86 9639 353b 5e36 9d73 7c36
000000b0: 5666 9136 73e0 9037 fa8a 2238 7e3a 3d37
000000c0: 80fc b436 c58a 1036 5535 8537 e640 0f38
000000d0: f4f9 0d36 e442 cc35 077a e538 6d32 0835
000000e0: bbee e935 3e75 6f36 6653 7d37 4256 8137
000000f0: 1ee4 4c34 2623 2037 8f58 bf32 285e a333
00000100: 74f9 1134 3eb2 1b35 9e8e 0f36 0280 ee33
00000110: 6063 ee33 1061 b831 2d6a ff34 d18a 2c35
00000120: cfa1 2333 45c9 ea32 f0a8 c736 0431 cf31
00000130: 2d0e 6833 7132 8734 66a8 a634 51b1 a035
1.5223286e-07 4.545179e-06 2.9106163e-08 6.115488e-08 1.1730801e-07 5.166683e-07 1.4832721e-06 1.5179852e-07
1.148589e-07 5.3683546e-09 4.0472844e-07 4.9420987e-07 2.538124e-08 4.6941228e-08 5.5452033e-06 7.384972e-09
5.455532e-08 1.4983212e-07 4.994153e-07 7.4241456e-07 1.18130394e-07 6.992035e-06 1.8527976e-08 6.904827e-08
9.1512085e-08 4.4985424e-07 9.428992e-07 7.929253e-08 6.199449e-08 3.4481056e-09 5.546497e-07 6.7380347e-07
2.3097705e-08 2.2314783e-08 6.4878354e-06 3.2683822e-09 2.587255e-08 6.8027745e-08 1.9612803e-07 3.9317882e-07
1.3306705e-05 0.0002871025 3.311504e-06 3.7618222e-06 4.33325e-06 1.7270655e-05 3.8753242e-05 1.1278897e-05
5.393813e-06 2.1538447e-06 1.587967e-05 3.41543e-05 2.115613e-06 1.5218652e-06 0.000109423 5.073733e-07
1.7429333e-06 3.568202e-06 1.5099393e-05 1.5418165e-05 1.9081969e-07 9.544927e-06 2.2275598e-08 7.607406e-08
1.3594928e-07 5.8001376e-07 2.1391675e-06 1.1106023e-07 1.1100815e-07 5.3661395e-09 4.7574704e-07 6.4277e-07
3.809856e-08 2.7332712e-08 5.950329e-06 6.0300653e-09 5.4029602e-08 2.518241e-07 3.1042435e-07 1.1972535e-06

exp_avg f4 [80, 20]
00000000: 97de c035 7e59 95b5 2f52 64b4 b926 09b6
00000010: 6cf5 7936 fb76 9db6 31ef 22b6 5880 85b5
00000020: 007f 3d36 2477 6ab5 3eac 8a36 577d d3b6
00000030: ef07 b1b5 8253 1536 bdd3 7eb7 abd1 bcb4
00000040: b5be 0cb6 045c c036 3a03 8336 741e b536
00000050: d8bc ecb6 cf15 22b9 2049 97b7 8d0b 1ab8
00000060: 09e1 5d38 faa2 64b8 1ee4 17b9 136d 9fb8
00000070: 6467 1e38 4d40 9ab4 7da2 6838 7a67 8fb8
00000080: 44ce 07b8 3e1e cb37 ac76 56b9 68ac 4cb7
00000090: 255d 2db8 1842 e237 b3c8 cb38 4f2f 4b39
000000a0: ff20 5e34 55b2 d036 1369 6e35 bdda 20b2
000000b0: 0583 9332 0bcb 0332 764a d136 3d09 e235
000000c0: 7cf6 52b5 f62d 2e34 9c05 af33 2e0b 6234
000000d0: 8f5d eeb3 d21d 00b6 129a 9636 1e88 16b5
000000e0: 31ee 4035 55f8 0835 3f8a 75b6 7203 0bb7
000000f0: a9bd 7eb3 f308 dcb6 1e56 6cb5 1e1b 32b5
00000100: 4474 a735 fd1a e0b5 b715 d2b6 81fb 10b6
00000110: 4609 bf35 944d c6b4 32bd cc35 6b49 11b6
00000120: d24b 16b5 c4ac 0136 c8d0 06b7 1548 4d34
00000130: 42d5 b2b5 7e92 7e35 790d 8c36 3150 1137
00000140: 5a5d 1cb6 7aa7 99b7 a93b a6b5 7cab 65b6
00000150: 7e7c c536 7a20 08b7 29fe 50b7 99c1 b0b6
00000160: a25d 7b36 45c8 b233 750d 1637 7244 24b7
00000170: b84f 61b6 f832 3236 2b18 cfb7 1b9f eeb4
00000180: 247e 89b6 f9e7 0d36 00c1 1037 b181 5037
00000190: c99d 0ab6 0513 acb7 90d2 4ab5 8af3 efb6
000001a0: 5e36 4e37 bb90 8db7 76e9 51b7 3323 ceb6
000001b0: 26b8 ed36 3c4b e2b4 b998 9337 9f17 a8b7
000001c0: 0480 dfb6 fd9d 8736 2bec 3ab8 94e2 d3b5
000001d0: 76a1 edb6 8fd8 1337 2d3d 4737 02fc 1637
000001e0: 13b9 9db7 00e9 3eb9 319c abb7 3fb5 d4b7
000001f0: bbd4 1338 6721 16b8 6a26 24b9 088b 9bb8
00000200: dde8 e237 fac8 5f36 7af7 3138 1aa5 3bb8
00000210: dd53 cfb7 03d3 a837 87e9 25b9 c3af d8b6
00000220: bdf2 0db8 ad02 a1b6 85f8 bd38 bd5e 5239
00000230: d1f4 03b7 1d12 84b8 4077 e5b6 2436 0ab7
00000240: c2db 4937 745e 58b7 59a7 57b8 aebc ccb7
00000250: 622f 0d37 8b4d b935 8399 8337 55fc 81b7
00000260: 6b4c 14b7 e822 bf36 c39f 59b8 82f1 0cb6
00000270: 2f65 3ab7 3bd6 50b6 a848 f337 b1b0 8138
00000280: 9b72 01b6 c611 88b6 3452 9234 4f6e f2b5
00000290: ac66 4936 286c 89b6 9025 c934 9a84 beb5
000002a0: 4b33 2035 172f 1935 3de3 ab36 c88f 95b6
000002b0: 088b 14b6 7e14 f6b5 23a3 c4b6 5800 97b5
000002c0: 53f4 abb5 96af 7134 704c a0b4 ce6a 6bb6
000002d0: 884e de34 dea2 c635 3c1f 6eb2 cacc 1132
000002e0: e0f0 4534 902c 7fb4 f2c1 4b35 d3de a534
000002f0: 1095 1f34 e5c5 6eb4 5e41 d733 c3b6 acb4
00000300: 12f5 c5b2 33ec b733 f181 cdb4 5d7c 9cb3
00000310: eecc 3db2 7ad0 7835 0a66 2ab4 f1d0 07b5
00000320: 6495 abb5 5328 14b7 f551 7035 c8e4 c5b6
00000330: 7ebf 3637 9063 87b7 783c 75b5 429f 59b5
00000340: c57d bc36 2524 1db5 918c 8e37 686e a2b7
00000350: 8f36 b3b6 5b40 1136 f400 1eb8 c027 a9b5
00000360: 7eb3 aeb6 5852 2437 2fee b136 d992 bab6
00000370: 8538 44b6 4dc1 bab7 1af5 2fb5 6ac9 f9b6
00000380: 7560 5537 c8f0 91b7 db1d 51b7 fd27 e2b6
00000390: d7cf e836 69fd 67b3 e7e4 9a37 9321 adb7
000003a0: 4406 eeb6 5b0a 4e36 82d6 3bb8 851d fbb5
000003b0: f2b2 f3b6 6f45 0537 ff19 3f37 6012 0b37
000003c0: 2b2e 23b5 3cf0 f8b6 a12b 3eb5 4933 8db5
000003d0: 995f f335 ee8a 21b6 36f4 cbb6 d66a 17b6
000003e0: 36bc c735 2f39 c0b3 b86e 2d36 51af 4ab6
000003f0: 297c 7fb5 2f7a d335 3562 1ab7 3d23 0f33
1.4369897e-06 -1.1127411e-06 -2.1264053e-07 -2.043713e-06 3.7246746e-06 -4.6928158e-06 -2.4279109e-06 -9.946625e-07
2.8237118e-06 -8.7345165e-07 4.132772e-06 -6.3028815e-06 -1.3189837e-06 2.2251338e-06 -1.5188879e-05 -3.5170282e-07
-2.0972632e-06 5.732758e-06 3.90448e-06 5.3977656e-06 -7.0553324e-06 -0.00015457648 -1.8034654e-05 -3.672722e-05
5.2900086e-05 -5.451122e-05 -0.00014485462 -7.6020275e-05 3.7766426e-05 -2.873152e-07 5.546444e-05 -6.8380454e-05
-3.2378608e-05 2.4213568e-05 -0.00020452839 -1.2199489e-05 -4.133316e-05 2.6972077e-05 9.7171775e-05 0.00019377212
2.0687365e-07 6.2196436e-06 8.881481e-07 -9.362961e-09 1.7172633e-08 7.67137e-09 6.237354e-06 1.6841001e-06
-7.858978e-07 1.6221733e-07 8.150093e-08 2.1051957e-07 -1.1099757e-07 -1.9090844e-06 4.4882845e-06 -5.607743e-07
7.187219e-07 5.102532e-07 -3.6588315e-06 -8.285848e-06 -5.931148e-08 -6.5575528e-06 -8.804217e-07 -6.634963e-07
1.2476307e-06 -1.6697155e-06 -6.2610156e-06 -2.1604067e-06 1.4233308e-06 -3.693682e-07 1.5254248e-06 -2.1649419e-06
-5.598969e-07 1.932306e-06 -8.035633e-06 1.9118336e-07 -1.33241e-06 9.483555e-07 4.1738936e-06 8.6613445e-06
-2.330015e-06 -1.8317009e-05 -1.2385327e-06 -3.4223476e-06 5.8855503e-06 -8.113793e-06 -1.2456942e-05 -5.2677465e-06
3.7456416e-06 8.3252e-08 8.94383e-06 -9.791098e-06 -3.3574015e-06 2.6553735e-06 -2.4687577e-05 -4.444672e-07
-4.097603e-06 2.1145663e-06 8.628005e-06 1.2427962e-05 -2.0655445e-06 -2.0512854e-05 -7.555727e-07 -7.1511067e-06
1.2291215e-05 -1.6875905e-05 -1.2511728e-05 -6.143376e-06 7.084588e-06 -4.215052e-07 1.7594883e-05 -2.003816e-05
-6.660821e-06 4.041706e-06 -4.4565804e-05 -1.5786668e-06 -7.081947e-06 8.812304e-06 1.1875568e-05 8.999372e-06
-1.880204e-05 -0.00018206611 -2.045752e-05 -2.5356769e-05 3.524565e-05 -3.5793895e-05 -0.00015654569 -7.4168725e-05
2.7049735e-05 3.3346573e-06 4.243057e-05 -4.4738037e-05 -2.4715375e-05 2.012542e-05 -0.00015822622 -6.457763e-06
-3.3843087e-05 -4.7984854e-06 9.058513e-05 0.00020062453 -7.865209e-06 -6.297624e-05 -6.8386144e-06 -8.238047e-06
1.20317e-05 -1.2896595e-05 -5.141585e-05 -2.4406556e-05 8.415287e-06 1.3806142e-06 1.5687901e-05 -1.54955e-05
-8.83928e-06 5.696307e-06 -5.188562e-05 -2.1002202e-06 -1.1110023e-05 -3.1119114e-06 2.900169e-05 6.184111e-05
-1.9289207e-06 -4.055185e-06 2.725443e-07 -1.8062509e-06 3.0011097e-06 -4.095509e-06 3.7466498e-07 -1.4194695e-06
5.9679286e-07 5.7065466e-07 5.122651e-06 -4.4572844e-06 -2.2134645e-06 -1.8334392e-06 -5.860247e-06 -1.1250477e-06
-1.28116e-06 2.2508752e-07 -2.9857938e-07 -3.5079897e-06 4.140786e-07 1.479955e-06 -1.3860525e-08 8.4866745e-09
1.8434685e-07 -2.3764937e-07 7.590562e-07 3.089577e-07 1.4862258e-07 -2.2237471e-07 1.0023608e-07 -3.2170473e-07
-2.3045263e-08 8.564566e-08 -3.827877e-07 -7.2869376e-08 -1.10478435e-08 9.269057e-07 -1.5869605e-07 -5.059547e-07
-1.2783971e-06 -8.830876e-06 8.952623e-07 -5.897691e-06 1.0892631e-05 -1.6139616e-05 -9.1357606e-07 -8.107055e-07
5.617478e-06 -5.8539655e-07 1.6993175e-05 -1.9363317e-05 -5.340967e-06 2.1644144e-06 -3.7671023e-05 -1.260305e-06
-5.2064997e-06 9.794334e-06 5.3027393e-06 -5.5603273e-06 -2.9239175e-06 -2.226294e-05 -6.554925e-07 -7.444226e-06
1.27182475e-05 -1.739747e-05 -1.2464322e-05 -6.73998e-06 6.9383345e-06 -5.4014354e-08 1.8464822e-05 -2.0638841e-05
-7.093682e-06 3.070242e-06 -4.478405e-05 -1.8709549e-06 -7.2627963e-06 7.943584e-06 1.139054e-05 8.289324e-06
-6.0789415e-07 -7.418943e-06 -7.0844004e-07 -1.0520245e-06 1.8132733e-06 -2.4071737e-06 -6.0783013e-06 -2.256294e-06
1.4881432e-06 -8.951098e-08 2.5843456e-06 -3.0202393e-06 -9.517558e-07 1.5756285e-06 -9.201981e-06 3.332683e-08

exp_avg_sq f4 [80, 20]
00000000: cfdd e431 5719 2833 406b 632f ed32 4332
00000010: 4c55 1332 53b9 a632 0cb1 4832 b1d5 b530
00000020: 1588 b131 5dfd b52f e370 9132 94e3 8032
00000030: 6a7f 0232 20d2 0e31 08a8 7733 0385 db2f
00000040: bd28 0a32 4635 aa31 010e ad31 7430 b731
00000050: 5216 ab33 c08b 8035 cf39 0e33 a544 c733
00000060: e8ef f733 9fe9 7434 175a dd34 7d1d c533
00000070: 4b1a 4433 5090 2632 b208 ad34 737a 8234
00000080: f03f ac33 2ed6 e732 f180 8635 cd70 5332
00000090: def3 0634 5381 0734 db50 0c34 d0c5 9734
000000a0: c19a 9530 c635 c232 2161 ac31 329b 3731
000000b0: 92e7 1230 26ed bd30 b915 8b32 8288 c031
000000c0: b3d2 3130 4d02 3630 e69a 0931 07b4 7a30
000000d0: 17c7 1e31 3aa7 0830 3f3d 1b32 e9b7 5d30
000000e0: aff7 0332 06bb 0930 8a06 a031 1890 7732
000000f0: 6bc4 8e30 eb64 2832 b807 3031 0d2c 0b33
00000100: 22bf c831 9efa 3432 88ac d831 66eb 2231
00000110: 2d88 7131 1197 2031 030f b831 6426 f731
00000120: aa35 9432 7e9c 9531 2464 3032 6133 8330
00000130: 5a1d fa31 0bf3 b730 637a 7831 6170 bf31
00000140: 2c72 2431 9579 1033 f7a9 7831 818b 2932
00000150: 01fe cf31 0d12 4232 4a40 9032 d95e 7631
00000160: f1a7 8e31 4803 3030 cc1d 6932 a55a 4d32
00000170: e5d4 c231 516e 9430 b58b 4433 2aff 0a30
00000180: e05e 9131 5845 2a31 f5b1 1832 d77d 5432
00000190: 689e 0632 98e3 8e33 bf4f f130 58f0 cb32
000001a0: 9e6f a332 e38e 2333 777c ab32 f2d1 7631
000001b0: 88e0 2f32 0c3d 7930 7bc8 3733 188f 1a33
000001c0: c199 8232 86c8 2e31 1b40 0934 6fb1 9e30
000001d0: c692 5b32 82e4 1a32 34af 5832 a7e5 fc31
000001e0: 929a 3e33 8b18 3735 4686 2233 0b16 f632
000001f0: 676c 0333 20ca 8233 0757 c534 884b b833
00000200: 5de4 7132 f1c9 0532 f56e d433 0675 9333
00000210: a8a2 ec32 c726 c732 7f8b d134 f23a 1032
00000220: 3d3a ab33 06f3 9433 d5c8 ce33 df73 a934
00000230: 4ca0 a531 bdcd d633 b758 5f32 9d69 7431
00000240: 40b5 2031 d3c4 9731 a009 8b33 cd73 9d32
00000250: adfa 2131 7d32 f930 7162 2632 8e30 d031
00000260: f976 8331 6827 3531 f280 4c33 fc03 0a31
00000270: 1ed7 8c32 c429 d131 cea1 a532 6f45 7333
00000280: 01c0 ba31 ae5c ca32 096a 8430 4d16 7732
00000290: 3bdc 0232 8111 9332 b47e eb31 4762 f230
000002a0: 4030 e331 f832 0430 89e5 1a32 d3fc 2332
000002b0: e72b 0e32 d26a 0031 9191 2533 f7f8 7130
000002c0: 33e3 3d32 9893 4531 9f1d 9a31 f9ed 6b31
000002d0: 4556 e12f 76d8 e231 b1e5 b530 0eb8 9e31
000002e0: 0c89 8830 afb2 ee30 f79b 9c31 dee2 a130
000002f0: 1c5e 8530 a535 d52f 2de3 8830 88a1 c930
00000300: 7b31 2531 5628 1830 86b1 b531 c56c 282f
00000310: 1919 aa30 664e 282f 406d 2131 b23e 8a31
00000320: 0e2a 8f31 2945 9033 d4a7 8e31 a16b f431
00000330: 4ab8 6732 334d ca32 cc77 ea32 23a7 c631
00000340: 07b4 b431 4bdd 0930 1e08 3233 1066 0733
00000350: 3852 c831 20f7 9630 33af f033 8cfa 9630
00000360: bf50 ac31 0be8 0d32 b4db 6b32 130d 8232
00000370: 143b cd31 1d35 ba33 a381 f531 2cf7 cb32
00000380: 1cc9 9532 0f69 0c33 7011 2233 0857 1a32
00000390: c30e 0732 fa9f fb30 6cfe 5133 d5c8 2333
000003a0: 112d 8632 85b5 4531 ecbc 0f34 4e92 e230
000003b0: 1d10 4832 e06c 1532 6e49 9a32 8fa8 cb32
000003c0: a62e 0630 e11b 3731 a0b4 d02f cb2b 2a32
000003d0: d1b4 0231 a864 7231 04fa 7430 1975 0530
000003e0: e000 9230 87ba 3930 2e1b 0731 8902 2131
000003f0: 3eb2 b231 4a9c b830 d263 7e31 ab8f ab2f
6.66089e-09 3.9138595e-08 2.0683633e-10 1.1362073e-08 8.57592e-09 1.940922e-08 1.1681788e-08 1.3230218e-09
5.1668487e-09 3.3103734e-10 1.6931557e-08 1.5004652e-08 7.5959665e-09 2.0783162e-09 5.7661993e-08 3.9930378e-10
8.04192e-09 4.9537077e-09 5.0365547e-09 5.3315095e-09 7.966868e-08 9.577416e-07 3.3114528e-08 9.279146e-08
1.15454725e-07 2.2809262e-07 4.1230007e-07 9.178891e-08 4.565872e-08 9.695285e-09 3.2230088e-07 2.430348e-07
8.021004e-08 2.6989337e-08 1.0021305e-06 1.2307464e-08 1.2568441e-07 1.2619903e-07 1.3067931e-07 2.826987e-07
1.088516e-09 2.2609026e-08 5.016901e-09 2.6718223e-09 5.344357e-10 1.3818962e-09 1.6191608e-08 5.6034546e-09
6.4691646e-10 6.6214484e-10 2.0024173e-09 9.1205304e-10 2.3105196e-09 4.9714155e-10 9.036113e-09 8.0660684e-10
7.68152e-09 5.0106086e-10 4.6573563e-09 1.4410055e-08 1.0387685e-09 9.801833e-09 2.5615758e-09 3.2403523e-08
5.8424954e-09 1.0534363e-08 6.306042e-09 2.3707911e-09 3.5147523e-09 2.3368936e-09 5.3568114e-09 7.1930106e-09
1.7253871e-08 4.354262e-09 1.0267318e-08 9.546107e-10 7.2792945e-09 1.3384079e-09 3.6158319e-09 5.5716076e-09
2.393004e-09 3.363819e-08 3.6185364e-09 9.868814e-09 6.05337e-09 1.12963905e-08 1.6793042e-08 3.5851626e-09
4.1518367e-09 6.403309e-10 1.356916e-08 1.1953181e-08 5.6703464e-09 1.0799771e-09 4.576187e-08 5.056672e-10
4.2308415e-09 2.4777673e-09 8.888027e-09 1.2368637e-08 7.835844e-09 6.653789e-08 1.7557723e-09 2.3741606e-08
1.9026455e-08 3.808135e-08 1.996362e-08 3.5917052e-09 1.0237393e-08 9.0672425e-10 4.2790344e-08 3.5986062e-08
1.5203911e-08 2.5434317e-09 1.278244e-07 1.1546443e-09 1.278085e-08 9.015936e-09 1.2612691e-08 7.3602737e-09
4.4378403e-08 6.820853e-07 3.7840685e-08 2.8648193e-08 3.0599406e-08 6.090363e-08 3.675743e-07 8.581907e-08
1.407997e-08 7.787535e-09 9.892202e-08 6.8665074e-08 2.7547983e-08 2.3184283e-08 3.903078e-07 8.395306e-09
7.9734015e-08 6.935993e-08 9.629154e-08 3.156301e-07 4.8203557e-09 1.0002575e-07 1.300048e-08 3.5566707e-09
2.3386093e-09 4.4170547e-09 6.474443e-08 1.8329866e-08 2.3571076e-09 1.8131484e-09 9.684855e-09 6.0591168e-09
3.8261274e-09 2.6361366e-09 4.7614726e-08 2.0083908e-09 1.6395969e-08 6.0874488e-09 1.9282108e-08 5.6640996e-08
5.435141e-09 2.355804e-08 9.634401e-10 1.4382363e-08 7.6170705e-09 1.7121012e-08 6.8538046e-09 1.763575e-09
6.612055e-09 4.809375e-10 9.01617e-09 9.545334e-09 8.27547e-09 1.8687172e-09 3.8549448e-08 8.802909e-10
1.1052907e-08 2.875117e-09 4.4853574e-09 3.4332273e-09 4.098856e-10 6.6020744e-09 1.3234766e-09 4.61933e-09
9.934253e-10 1.7367564e-09 4.5579287e-09 1.1778771e-09 9.703771e-10 3.878259e-10 9.95987e-10 1.4670585e-09
2.4038787e-09 5.53546e-10 5.2879754e-09 1.5318154e-10 1.2376261e-09 1.5307364e-10 2.3490685e-09 4.0234562e-09
4.166629e-09 6.718103e-08 4.1518238e-09 7.1135706e-09 1.3487872e-08 2.3551001e-08 2.7295663e-08 5.7815597e-09
5.259156e-09 5.0154786e-10 4.1451237e-08 3.1524962e-08 5.8301133e-09 1.0984174e-09 1.12077394e-07 1.0985146e-09
5.0150386e-09 8.260041e-09 1.3728755e-08 1.5139937e-08 5.9730016e-09 8.670961e-08 7.1451765e-09 2.3744711e-08
1.7437337e-08 3.269184e-08 3.7734424e-08 8.983768e-09 7.861391e-09 1.8308122e-09 4.8893e-08 3.813405e-08
1.5620147e-08 2.8770455e-09 1.3386642e-07 1.6485247e-09 1.1645196e-08 8.697697e-09 1.7961352e-08 2.3708962e-08
4.881521e-10 2.6645852e-09 3.796332e-10 9.90526e-09 1.9020272e-09 3.5272851e-09 8.9121976e-10 4.8551524e-10
1.0623147e-09 6.756768e-10 1.9660535e-09 2.3430025e-09 5.2007456e-09 1.3432182e-09 3.7018606e-09 3.12068e-10

exp_avg f4 [80]
00000000: 74e0 1039 a984 473a 862a 1537 3a02 f537
00000010: 54f5 a638 bba3 8639 b326 9e37 6c76 fbb7
00000020: ff3d 9337 5bcb 8f37 80f2 8e39 2d65 7e39
00000030: 0a65 ce37 aacf 06b9 a62d fd39 8bac 91b6
00000040: 5e00 95b6 31cc b538 5dcf 38b9 5cd4 b3b9
00000050: 5ce0 b038 9f6d 343a 01d7 1137 89d5 cb37
00000060: 2d61 9938 1d8c 4039 9828 57b9 8587 e4b8
00000070: 331a c536 d75a 0137 661d 7439 48fc 6139
00000080: 6a81 ea37 990a a8b8 3b25 aa39 017d a8b5
00000090: 7a5a 49b4 7726 5e38 a552 4fb9 6c91 dcb9
000000a0: a858 39ba 0c19 053b 24a0 51b8 82b4 ccb9
000000b0: 528e 103a cdf9 68ba abd2 003b 9473 dd38
000000c0: 71b5 8bb9 8f25 52b8 a085 df3a 3417 92ba
000000d0: cbcc ccb9 b2c0 bf39 eb3c c03a cf9d 75b8
000000e0: 5505 1338 671d fc39 76f1 a039 2882 ddba
000000f0: 01e7 1f39 7909 173a 5dc7 ff36 ee26 d837
00000100: f832 ad38 0a9e 8439 d770 f9b8 bb5c 5ab8
00000110: 57e6 8e37 cd97 8f37 a07b 9239 2bed 8e39
00000120: 7375 ee37 73ba ccb8 da94 9439 abcc 8db6
00000130: 75e8 10b7 5c32 de38 cd25 10b9 b201 8cba
0.00013816525 0.00076110155 8.890993e-06 2.9207313e-05 7.961193e-05 0.0002568046 1.8853088e-05 -2.9976676e-05
1.7552635e-05 1.7141623e-05 0.00027265027 0.00024261019 2.4604164e-05 -0.00012856597 0.0004828993 -4.3414234e-06
-4.440589e-06 8.668786e-05 -0.00017624856 -0.0003429976 8.434124e-05 0.000688279 8.692733e-06 2.429892e-05
7.313709e-05 0.00018362743 -0.0002051912 -0.0001089713 5.8741075e-06 7.7101495e-06 0.00023280605 0.00021551654
2.7955237e-05 -8.012838e-05 0.00032452666 -1.2553356e-06 -1.8752499e-07 5.2964748e-05 -0.00019771846 -0.00042070018
-0.0007070401 0.0020309119 -4.9978626e-05 -0.000390444 0.00055143714 -0.0008887321 0.0019656818 0.00010559629
-0.0002664733 -5.010288e-05 0.0017053373 -0.0011145831 -0.00039062495 0.00036573928 0.0014666592 -5.8559523e-05
3.5052497e-05 0.00048087092 0.0003069748 -0.0016899751 0.00015249477 0.00057616044 7.622801e-06 2.5767335e-05
8.2587765e-05 0.0002529475 -0.00011894263 -5.2061612e-05 1.703498e-05 1.7117616e-05 0.00027939398 0.00027261054
2.8426502e-05 -9.762207e-05 0.00028339663 -4.225954e-06 -8.637192e-06 0.00010595165 -0.00013746992 -0.0010681658
