models/test-mae-error-smaller-parameter-space/LSTM_6.pt (torch, 21987 bytes, 21 tensors)

lstm.weight_ih_l0 f4 [40, 1]
-0.018173419 -0.23581514 0.15514618 -0.19783859 0.2175847 -0.1739182 -0.03348316 0.19115727
-0.062785186 -0.09666974 0.13793378 -0.11672177 0.07672382 -0.29614118 -0.055035666 0.09376329
0.029170236 -0.14709067 0.30993655 -0.26237655 -0.071492545 -0.2999218 0.0070756865 -0.24236186
-0.34853536 0.1702364 0.10039299 -0.28906533 -0.1659707 0.19637357 0.1698028 0.21293741
0.16821049 0.10972996 0.03991545 -0.14964184 0.2397854 -0.09478472 -0.21084662 -0.010744564
00000000: 6ce0 94bc 8679 71be a4de 1e3e 3396 4abe
00000010: 86ce 5e3e 9d17 32be a325 09bd bbbe 433e
00000020: 8595 80bd c9fa c5bd 833e 0d3e d30b efbd
00000030: 6121 9d3d d19f 97be 146d 61bd f806 c03d
00000040: 6bf6 ee3c f09e 16be 01b0 9e3e 3856 86be
00000050: af6a 92bd 5a8f 99be 29db e73b b52d 78be
00000060: 3a73 b2be 7352 2e3e d79a cd3d 5f00 94be
00000070: 39f4 29be 2716 493e c9e0 2d3e 440c 5a3e
00000080: 5f3f 2c3e 1aba e03d 627e 233d b63b 19be
00000090: 4e8a 753e 7e1e c2bd 2de8 57be f809 30bc

lstm.weight_hh_l0 f4 [40, 10]
-0.2928517 0.23690894 -0.023333527 0.21643154 0.15534796 -0.13756672 0.16800667 0.14990123
0.11134414 -0.18431798 -0.1941581 0.03883077 -0.020226367 0.2761619 -0.24600476 0.11855491
0.09038351 -0.2676152 -0.15265328 0.06857812 -0.11961624 0.025571615 -0.16436699 0.08403242
0.022492614 -0.05786428 -0.02273252 0.1095522 0.026129685 0.26456383 -0.30955738 0.022419708
-0.054781847 0.28811893 0.07209312 -0.095479235 -0.15239064 0.24575925 -0.22238833 0.04166926
-0.16077979 -0.015094333 0.2614018 0.14465219 -0.07475259 0.19257905 0.30528727 -0.12515259
0.054219216 -0.10901301 -0.14200813 -0.29355398 -0.31261072 -0.12115565 -0.2416185 -0.24018951
0.05065637 0.117279954 -0.06729509 -0.036662422 0.21497956 -0.14584504 -0.09489968 -0.23902602
0.027871791 -0.034980066 -0.17329767 0.08746909 -0.008438048 0.19377658 -0.23291688 -0.2580906
-0.18778436 -0.106686376 0.18555705 0.22376947 0.20418502 0.22816049 0.24381761 0.19213338
0.15152681 0.008426248 -0.13594411 0.15923055 -0.028164962 0.16107519 -0.20147881 0.26316857
-0.26636124 0.21752538 -0.17928833 0.13058412 -0.1514777 -0.051735945 -0.027372 0.1339224
-0.2682577 0.19807312 -0.2619339 0.15988874 0.064918235 0.02119907 -0.2243896 -0.2780429
-0.13485567 0.228737 -0.20119679 0.10644406 0.20076618 0.024021164 0.30764684 -0.029544532
-0.2730453 -0.0421971 0.06732268 -0.18363 -0.07694141 -0.16106875 0.19266394 0.24327047
-0.24904728 0.19671236 -0.29817837 0.23576027 0.05006313 -0.087422915 -0.20712593 0.04143844
0.052368544 0.054358922 0.15006837 -0.13618669 -0.26786765 0.031540602 -0.23909082 0.069702886
0.15208639 0.23025213 0.0019187919 -0.1425466 0.047571488 0.18726294 -0.30003494 0.10052208
0.22958802 0.1476294 0.27752852 0.08634424 -0.21349798 -0.17438117 -0.024153972 -0.31435677
0.28813055 -0.22462709 0.28077853 -0.19269085 0.01104621 0.20447446 -0.1968472 0.31372198
-0.0075650914 -0.0019803515 -0.10470222 -0.013196048 -0.028401475 0.23545544 -0.15994914 -0.19217613
0.044714488 0.09722126 -0.2331872 0.22758007 0.2677631 -0.31085896 -0.06581117 -0.08239828
-0.07037167 0.18077399 -0.21921636 0.18469496 0.09030706 -0.022566576 -0.17533347 -0.20025662
0.28295663 0.23695862 0.043734733 -0.24982652 0.18744487 0.26823297 0.21243684 0.26485103
-0.102727555 0.16974322 0.20271245 -0.29616633 0.13995144 -0.16754974 0.3008783 -0.059667945
-0.24242786 0.0063602487 -0.067012206 0.12820278 0.11359426 0.13748291 -0.0773289 -0.2959365
0.15563814 -0.07074748 0.045168363 0.23027052 -0.20083527 -0.17584921 -0.21648067 0.0054972447
-0.19147527 0.10492331 -0.037243787 0.2516531 -0.04428877 -0.20768306 -0.26278234 -0.10934984
-0.06519814 -0.28901497 -0.23657143 -0.3020374 -0.026124522 -0.04217968 -0.027527124 -0.08101622
-0.29017475 0.17553863 -0.22661604 0.27888608 0.26458108 -0.21620521 -0.23091997 0.12077008
-0.22336234 -0.24826781 0.17129037 0.028656347 -0.1895227 0.16973889 -0.20992696 -0.312054
-0.12893508 -0.26573908 -0.017306674 0.12625173 -0.20818064 0.3082038 -0.21858802 -0.13607529
00000000: a8f0 95be 4298 723e f425 bfbc 3ba0 5d3e
00000010: 8913 1f3e 4ade 0cbe f109 2c3e b57f 193e
00000020: 6508 e43d dabd 3cbe 62d1 46be 030d 1f3d
00000030: c4b1 a5bc 1865 8d3e ace8 7bbe ebcc f23d
00000040: fd1a b93d dc04 89be 2451 1cbe af72 8c3d
00000050: 5cf9 f4bd 907b d13c d24f 28be 3019 ac3d
00000060: 6e42 b83c 1803 6dbd 8d39 babc e75c e03d
00000070: ec0d d63c e974 873e 4e7e 9ebe 89a9 b73c
00000080: ee62 60bd 5384 933e 8fa5 933d 9e8a c3bd
00000090: 4b0c 1cbe 50a8 7b3e c4b9 63be 63ad 2a3d
000000a0: 75a3 24be 394e 77bc 75d6 853e b41f 143e
000000b0: e317 99bd 7133 453e 9d4e 9c3e 0028 00be
000000c0: f814 5e3d 3742 dfbd 946a 11be b54c 96be
000000d0: 830e a0be 7420 f8bd d76a 77be 3df4 75be
000000e0: 0e7d 4f3d 7930 f03d 02d2 89bd 562b 16bd
000000f0: 9a23 5c3e 6758 15be c35a c2bd 3dc3 74be
00000100: 6253 e43c 4247 0fbd f274 31be ff22 b33d
00000110: bd3f 0abc 5e6d 463e c381 6ebe 7324 84be
00000120: 8b4a 40be 637e dabd ab02 3e3e d323 653e
00000130: e115 513e e7a2 693e 53ab 793e 9dbe 443e
00000140: d829 1b3e 3f0e 0a3c ef34 0bbe 550d 233e
00000150: 35ba e6bc e5f0 243e 7650 4ebe 08be 863e
00000160: 8060 88be f9be 5e3e 5c97 37be d8b7 053e
00000170: f81c 1bbe 12e9 53bd 3f3b e0bc f422 093e
00000180: 1359 89be aed3 4a3e 331c 86be e0b9 233e
00000190: daf3 843d aca9 ad3c 63c6 65be a45b 8ebe
000001a0: 9b17 0abe 083a 6a3e 8806 4ebe 58ff d93d
000001b0: a695 4d3e 08c8 c43c e383 9d3e 6007 f2bc
000001c0: 98cc 8bbe ded6 2cbd 79e0 893d 8109 3cbe
000001d0: 7593 9dbd 35ef 24be b249 453e e51b 793e
000001e0: 4006 7fbe f76e 493e d6aa 98be 246b 713e
000001f0: ff0e 4d3d c90a b3bd d218 54be 5bbb 293d
00000200: 6680 563d 76a7 5e3d 86ab 193e 8674 0bbe
00000210: f325 89be b830 013d 39d4 74be 63c0 8e3d
00000220: 89bc 1b3e 37c7 6b3e f97f fb3a bcf7 11be
00000230: 52da 423d dbc1 3f3e 2e9e 99be 85de cd3d
00000240: 1f19 6b3e 292c 173e 3818 8e3e 40d5 b03d
00000250: 379f 5abe fa90 32be 8dde c5bc 5ff3 a0be
00000260: d985 933e a504 66be 34c2 8f3e c050 45be
00000270: 2afb 343c c161 513e 5092 49be 2ba0 a03e
00000280: 96e4 f7bb c9c8 01bb 1e6e d6bd 3d34 58bc
00000290: 36aa e8bc 3b1b 713e b5c9 23be d2c9 44be
000002a0: 8a26 373d f11b c73d a0c8 6ebe c00a 693e
000002b0: 3f18 893e e828 9fbe 02c8 86bd 6ec0 a8bd
000002c0: 061f 90bd d11c 393e 417a 60be ad20 3d3e
000002d0: e8f2 b83d 8add b8bc 9e8a 33be 1210 4dbe
000002e0: b1df 903e 48a5 723e 3123 333d 86d2 7fbe
000002f0: 8cf1 3f3e d555 893e 0b89 593e 8e9a 873e
00000300: d362 d2bd 2bd1 2d3e da93 4f3e 1da3 97be
00000310: 6e4f 0f3e 2992 2bbe b80c 9a3e 6066 74bd
00000320: 023f 78be a269 d03b b23d 89bd 9747 033e
00000330: 1ba4 e83d 52c8 0c3e 9d5e 9ebd fd84 97be
00000340: 9b5f 1f3e 0ee4 90bd 7602 393d 09cc 6b3e
00000350: c3a7 4dbe d111 34be 1cad 5dbe 3b22 b43b
00000360: 1812 44be 08e2 d63d f18c 18bd add8 803e
00000370: 2468 35bd deaa 54be 688b 86be cff2 dfbd
00000380: 9a86 85bd c5f9 93be c83f 72be a5a4 9abe
00000390: 1803 d6bc 9ac4 2cbd 9080 e1bc d5eb a5bd
000003a0: c991 94be 66c0 333e 090e 68be 28ca 8e3e
000003b0: 2c77 873e e664 5dbe 4976 6cbe 4e56 f73d
000003c0: 19b9 64be eb39 7ebe be66 2f3e b7c0 ea3c
000003d0: 3d12 42be 08d0 2d3e 18f7 56be 8bc5 9fbe
000003e0: 8f07 04be f40e 88be bac6 8dbc 2248 013e
000003f0: 4e2d 55be e3cc 9d3e 8ad5 5fbe 5257 0bbe

lstm.bias_ih_l0 f4 [40]
-0.15296304 0.17674464 -0.13867064 -0.30645803 0.1990997 -0.10479132 0.11694397 0.15439318
0.20605794 0.024876093 0.19329092 0.27133846 0.14730972 -0.24407628 0.11228058 0.27518132
0.0039236844 -0.20428179 0.21557756 -0.06754498 0.23596893 0.13667132 -0.1837837 0.16689551
0.2575723 0.085947886 0.11247593 0.25613806 -0.31490496 0.20322248 0.121308014 0.17400678
-0.025172845 0.038167384 -0.095247865 0.26652205 0.1724392 -0.22728819 0.1296254 0.27725056
00000000: 58a2 1cbe 8cfc 343e adff 0dbe 11e8 9cbe
00000010: cbe0 4b3e d59c d6bd 5280 ef3d 3f19 1e3e
00000020: da00 533e f3c8 cb3c 0eee 453e e0ec 8a3e
00000030: 5cd8 163e 22ef 79be 5cf3 e53d 91e4 8c3e
00000040: 4092 803b 3f2f 51be 5dc0 5c3e 0655 8abd
00000050: d7a1 713e 91f3 0b3e cb31 3cbe a8e6 2a3e
00000060: 84e0 833e 7205 b03d c859 e63d 8724 833e
00000070: 393b a1be 8e19 503e 5670 f83d d52e 323e
00000080: 4837 cebc 6755 1c3d 5011 c3bd 9475 883e
00000090: e793 303e 3cbe 68be 85bc 043e c9f3 8d3e

lstm.bias_hh_l0 f4 [40]
-0.20047845 -0.21621129 -0.30106843 0.018680787 -0.050514843 -0.11666174 0.21855526 0.1760931
-0.18835755 -0.31483307 -0.24254626 0.104635835 0.033386186 -0.07817554 0.10909478 0.13152339
0.23290466 -0.05343711 0.2025473 -0.13655382 0.25346988 -0.25449762 -0.19869931 0.061421227
-0.22436038 -0.22772188 0.21020682 -0.21396442 -0.24977909 0.24024162 -0.22060056 -0.017691543
-0.32103893 0.26862732 0.01117807 0.27381238 -0.2175312 0.10747337 0.2680796 -0.015285442
00000000: 394a 4dbe 7e66 5dbe a425 9abe 7308 993c
00000010: a7e8 4ebd 5aec eebd f3cc 5f3e c051 343e
00000020: cde0 40be cd31 a1be 0c5e 78be 504b d63d
00000030: f4bf 083d 7f1a a0bd 166d df3d 11ae 063e
00000040: 8f7e 6e3e dfe0 5abd 8f68 4f3e c4d4 0bbe
00000050: cec6 813e 834d 82be d577 4bbe d394 7b3d
00000060: babe 65be ed2f 69be 7540 573e 7d19 5bbe
00000070: 17c6 7fbe e601 763e 1de5 61be dbed 90bc
00000080: 375f a4be 8589 893e 3924 373c 2331 8c3e
00000090: 80c0 5ebe 001b dc3d bb41 893e ca6f 7abc

lstm.weight_ih_l1 f4 [40, 10]
0.101027325 -0.23853809 -0.028432012 0.21367937 0.22130522 0.25268334 -0.09388357 -0.03824092
0.059341893 0.17990448 -0.2233599 0.15847166 0.30987945 0.19978127 0.13493301 0.080099106
0.18875033 -0.01071737 -0.29071674 -0.1868272 -0.24977824 -0.23947772 -0.21375224 0.17093162
0.017818548 0.089504346 -0.0894367 0.24104853 -0.03606765 0.03243066 -0.25281966 -0.09484658
0.1767157 -0.2504639 -0.20046976 -0.20846224 -0.04861596 -0.077692226 -0.1916355 0.17955321
0.2522627 0.21749477 -0.18192948 -0.115952566 -0.15106092 -0.2305831 -0.04053972 -0.05716106
-0.124653414 -0.27620825 -0.09507191 0.18494003 -0.27417606 -0.28496018 -0.13023011 -0.18604866
0.03643084 -0.1556639 -0.059389673 -0.19464155 0.22243884 0.14662835 0.1286379 -0.19834271
-0.008799954 -0.23584603 0.2597306 -0.13750055 -0.24394609 0.056707233 0.27328324 -0.30332804
0.22117946 0.25993094 -0.03179958 -0.13411404 0.1326732 -0.041341092 0.31244332 0.19057274
-0.24441953 -0.10766043 -0.2633113 -0.18421374 -0.14170273 0.24024004 0.24560033 0.015553585
0.042162567 0.17696154 -0.22472915 -0.1831161 0.03771467 -0.18848033 -0.08947592 0.22130509
0.19313571 -0.03905298 0.2870955 0.1934525 -0.03235298 0.15851305 0.16206361 0.1391566
0.101741016 -0.21834695 0.08043734 -0.27058545 -0.02319729 0.07146233 -0.021310164 -0.10219165
-0.08616001 -0.023583913 -0.18274216 0.050606534 -0.12651221 -0.27581453 0.061256055 0.09378787
-0.12734102 0.050017852 0.151631 -0.09759096 -0.2691548 -0.045363482 0.30397275 0.048522025
0.07535152 -0.16138227 -0.008815812 0.018157238 0.25379926 -0.20862372 -0.054867838 -0.06346278
0.07586063 0.2649826 -0.24080661 -0.08988594 -0.06938548 -0.13615261 -0.1182643 -0.25005227
0.2564165 0.277522 0.27190587 0.092234895 0.16105902 -0.0961357 0.19423482 -0.04397445
-0.022575095 0.2382032 0.023319995 0.305165 0.098875195 0.024038656 0.100583866 0.15968604
-0.08757928 0.22434138 -0.24654244 -0.24568 0.011775539 0.19958912 0.10821398 0.15836298
-0.10976368 -0.2593709 -0.24838935 -0.0451258 0.07131799 0.19083034 0.029303232 -0.09742166
0.2633577 -0.014176857 -0.13367692 -0.10521298 -0.22515738 0.26770785 0.13071625 -0.15736759
0.08005739 -0.047612954 0.16295938 -0.011124206 0.019780181 -0.20557925 0.17964363 0.20143975
-0.096108854 -0.1939525 -0.29372904 -0.06679801 0.08809577 0.27219716 -0.30161336 0.030835439
-0.25574672 -0.2118498 -0.19049548 -0.114402525 -0.11086845 0.023774905 -0.109478466 0.03266794
0.08504746 -0.19380377 0.043391418 -0.020716893 0.11954009 0.14298707 -0.07429646 -0.20025437
-0.31724542 -0.2346303 0.011524929 0.065206945 -0.2876557 -0.21743345 0.0723335 -0.21777561
-0.10244884 0.08617616 -0.15803663 0.062156614 -0.23669851 0.15756339 -0.0039016078 0.06869059
-0.22967307 0.16377114 0.3073302 0.14881311 -0.03357092 -0.19018511 -0.28922668 0.08569498
0.13045566 0.26878893 0.11397388 0.23831046 -0.3266661 -0.13546486 -0.003118368 0.21858723
0.28640902 0.10120427 0.28286317 -0.28248695 -0.16294587 0.1963681 0.26157087 0.072735794
00000000: 6ae7 ce3d 5443 74be 40ea e8bc c4ce 5a3e
00000010: d69d 623e b65f 813e 0746 c0bd 83a2 1cbd
00000020: 7c10 733d e138 383e 75b8 64be 6546 223e
00000030: 85a8 9e3e 7693 4c3e e12b 0a3e 000b a43d
00000040: c447 413e e897 2fbc d3d8 94be a14f 3fbe
00000050: dec5 7fbe a639 75be dee1 5abe b308 2f3e
00000060: 34f8 913c 0e4e b73d 972a b7bd 6dd5 763e
00000070: acbb 13bd 03d6 043d 9471 81be ec3e c2bd
00000080: f6f4 343e ce3c 80be f247 4dbe 2077 55be
00000090: 8721 47bd 1a1d 9fbd 193c 44be ccdc 373e
000000a0: 9428 813e f3b6 5e3e b94b 3abe 8a78 edbd
000000b0: b7af 1abe fa1d 6cbe fa0c 26bd b721 6abd
000000c0: 4a4a ffbd 2b6b 8dbe 10b5 c2bd eb60 3d3e
000000d0: ce60 8cbe 4de6 91be 0b5b 05be 8a83 3ebe
000000e0: 8138 153d 5b66 1fbe 9642 73bd 1d50 47be
000000f0: 02c7 633e be25 163e a7b9 033e 5a1a 4bbe
00000100: af2d 10bc 9f81 71be 69fb 843e f2cc 0cbe
00000110: 01cd 79be d845 683d c8eb 8b3e d04d 9bbe
00000120: de7c 623e ab15 853e 4740 02bd 3155 09be
00000130: 7cdb 073e 4755 29bd 92f8 9f3e 8025 433e
00000140: 1d49 7abe 127d dcbd bdd0 86be 87a2 3cbe
00000150: 851a 11be 7c01 763e a77e 7b3e 77d4 7e3c
00000160: a8b2 2c3d 6835 353e 661f 66be c982 3bbe
00000170: b37a 1a3d fd00 41be 273f b7bd cd9d 623e
00000180: 5ec5 453e 04f6 1fbd 2efe 923e 6a18 463e
00000190: 8f84 04bd 3f51 223e 01f4 253e 117f 0e3e
000001a0: 985d d03d 5896 5fbe 55bc a43d 2d8a 8abe
000001b0: 3e08 bebc d85a 923d a792 aebc db49 d1bd
000001c0: a974 b0bd 0d33 c1bc c320 3bbe cc48 4f3d
000001d0: 6b8c 01be 9037 8dbe a1e7 7a3d db13 c03d
000001e0: af65 02be 85df 4c3d 2845 1b3e c5dd c7bd
000001f0: a8ce 89be 0fcf 39bd 51a2 9b3e 08bf 463d
00000200: e651 9a3d 6541 25be 3270 10bc 7dbe 943c
00000210: faf1 813e 75a1 55be 19bd 60bd c6f8 81bd
00000220: d15c 9b3d cdab 873e 0296 76be 1f16 b8bd
00000230: f919 8ebd 976b 0bbe 8e34 f2bd da06 80be
00000240: 0649 833e 5d17 8e3e 3f37 8b3e a6e5 bc3d
00000250: a8ec 243e cbe2 c4bd 7ee5 463e 8e1e 34bd
00000260: 68ef b8bc 8aeb 733e 9309 bf3c 963e 9c3e
00000270: 147f ca3d b7ec c43c eafe cd3d bd84 233e
00000280: c45c b3bd bfb9 653e 9f75 7cbe 8a93 7bbe
00000290: 31ee 403c 1761 4c3e 4b9f dd3d e829 223e
000002a0: c8cb e0bd 43cc 84be c759 7ebe d5d5 38bd
000002b0: 2b0f 923d 0769 433e 550d f03c 0285 c7bd
000002c0: d2d6 863e 0c46 68bc 9ae2 08be e779 d7bd
000002d0: a88f 66be 0111 893e 7bda 053e f824 21be
000002e0: 21f5 a33d cd05 43bd d3de 263e 4d42 36bc
000002f0: 0c0a a23c 5e83 52be 80f4 373e 3946 4e3e
00000300: b8d4 c4bd 7c9b 46be a763 96be 65cd 88bd
00000310: 8e6b b43d 6d5d 8b3e 116d 9abe 9a9a fc3c
00000320: 3cf1 82be 27ef 58be 3f11 43be df4b eabd
00000330: ff0e e3bd 97c3 c23c 3f36 e0bd d1ce 053d
00000340: 5d2d ae3d 7f74 46be 33bb 313d 79b6 a9bc
00000350: 6fd1 f43d 346b 123e be28 98bd 7b0f 4dbe
00000360: fe6d a2be ed42 70be 0ed3 3c3c 388b 853d
00000370: 9c47 93be e0a6 5ebe 9623 943d 9200 5fbe
00000380: b3d0 d1bd 207d b03d 5bd4 21be ef97 7e3d
00000390: 1861 72be 4c58 213e 1eb2 7fbb a7ad 8c3d
000003a0: 6b2f 6bbe 9fb3 273e 625a 9d3e 7762 183e
000003b0: a981 09bd e3bf 42be 8515 94be da80 af3d
000003c0: 2b96 053e b49e 893e 236b e93d a807 743e
000003d0: c740 a7be 4db7 0abe 895d 4cbb 55d5 5f3e
000003e0: 34a4 923e 2f44 cf3d 71d3 903e 21a2 90be
000003f0: 48db 26be b814 493e 9eec 853e 81f6 943d

lstm.weight_hh_l1 f4 [40, 10]
-0.23881122 -0.20443021 -0.28881553 -0.11015302 0.2762417 -0.05003444 0.028180117 -0.2787562
-0.11425109 0.14988676 -0.019701658 0.30187976 -0.19777392 -0.13415873 -0.14605504 0.17593253
0.25574824 0.004344235 -0.2265881 0.17448683 -0.2503686 0.2862334 -0.14261147 0.28648448
0.02618431 -0.23132695 -0.31040263 -0.05616323 -0.1774918 0.07055334 0.23294123 0.22277027
-0.18375154 0.016569842 -0.18675636 -0.11617437 -0.044622164 0.29710573 -0.20017485 0.21600127
-0.03381703 -0.288983 -0.13003626 0.16769129 -0.048258446 -0.27903333 -0.08086226 0.25407624
0.255991 -0.21100359 -0.2684244 0.2265662 -0.10775034 0.2395335 -0.29454488 0.3098287
-0.06718791 0.11148181 -0.17001586 0.28085852 -0.07059066 -0.28507605 0.12978753 -0.010988608
0.119618244 -0.010179927 -0.13692586 0.22809698 0.30548963 0.0923565 0.2275821 0.04478287
-0.1612106 -0.165941 -0.13980336 0.08210326 -0.200532 0.084200814 -0.18795596 0.21149863
0.25163177 -0.26843044 0.06257961 -0.27189153 -0.0062543945 -0.025721312 -0.014192463 -0.021268131
0.17828144 0.06219487 -0.04396857 0.05205004 0.044486493 -0.2238409 0.2752203 -0.0153699005
-0.13688262 0.03614254 0.066271566 -0.012074592 0.07611957 -0.18766095 -0.13997304 0.14929253
0.059577886 -0.23242526 0.27143338 0.28342924 0.023013439 0.12883013 -0.29989338 0.31343684
0.06311951 0.045582164 0.10415625 -0.30826148 -0.22448508 0.10720588 -0.18873493 0.3043984
0.07461443 0.13109672 -0.23946026 -0.0304674 0.19167362 0.05902807 -0.24040137 0.13812798
-0.010854821 -0.14033094 -0.1536315 0.12175816 0.19900368 -0.30178744 0.16122055 -0.035700385
0.04161705 0.10236287 -0.21103273 -0.27650926 0.2896091 0.21304268 -0.26412272 -0.1088796
-0.22990656 0.06580032 -0.28600857 -0.15064944 -0.15994152 0.27465144 0.24713904 0.17494938
-0.10798293 0.18569872 -0.303472 0.0024896043 0.1301719 -0.31539226 -0.09299333 0.29871857
0.07248921 -0.14366338 0.24135469 -0.30750993 0.10792123 -0.1879073 0.22463104 -0.18492393
0.31258944 0.2842838 -0.16745931 0.057486553 -0.20605084 -0.06135143 -0.09162118 -0.18087064
-0.17269014 -0.19270499 0.0279476 0.038848486 -0.23819155 -0.23820437 0.13801539 -0.25341237
0.06447235 -0.10760555 -0.021385746 -0.11886437 -0.1327534 -0.28966433 -0.19696102 -0.22178917
-0.030906912 -0.2519453 -0.15140444 0.2908855 -0.02943031 0.21442111 -0.00772097 0.14583181
-0.28394347 -0.27251294 -0.099588916 -0.15709865 0.06608244 0.2419687 -0.0118714785 -0.07856797
0.19449338 0.21649383 -0.16556098 0.088395014 0.022405872 -0.06301211 -0.2683286 -0.1869617
0.27841106 -0.23224665 -0.060228504 -0.26350373 0.11758138 0.28472763 -0.046201944 0.045105822
-0.046628527 -0.07070816 -0.14878444 -0.07451672 0.21970978 0.17975126 0.15756354 -0.17702326
-0.09287571 0.20183282 -0.10814357 -0.19644079 0.049977705 0.1108445 -0.28636122 -0.054252315
-0.20270872 0.28957194 0.041590814 0.13718332 -0.17914866 0.043160792 -0.10658181 -0.15838481
0.18852846 0.22167777 -0.15083653 -0.09546148 -0.06301324 0.23748948 0.06414608 0.16017698
00000000: ee8a 74be 2756 51be a1df 93be e897 e1bd
00000010: 8d6f 8d3e eaf0 4cbd fdd9 e63c 22b9 8ebe
00000020: 7afc e9bd ea7b 193e 5f65 a1bc fc8f 9a3e
00000030: 3f85 4abe e860 09be 748f 15be a827 343e
00000040: 6ff1 823e 165a 8e3b b606 68be adac 323e
00000050: 5030 80be 2f8d 923e be08 12be 18ae 923e
00000060: 7a80 d63c f9e0 6cbe 18ed 9ebe 6a0b 66bd
00000070: 69c0 35be 457e 903d 2588 6e3e e41d 643e
00000080: 5d29 3cbe 7abd 873c 0f3d 3fbe d4ec edbd
00000090: bbc5 36bd 3e1e 983e a3fa 4cbe 702f 5d3e
000000a0: ba83 0abd 94f5 93be 3a28 05be 44b7 2b3e
000000b0: a6aa 45bd 75dd 8ebe 1d9b a5bd 4816 823e
000000c0: 4111 833e 5311 58be ec6e 89be f800 683e
000000d0: 36ac dcbd 4548 753e 96ce 96be dea1 9e3e
000000e0: d199 89bd 9350 e43d a318 2ebe b0cc 8f3e
000000f0: d691 90bd 7df5 91be 06e7 043e 9009 34bc
00000100: 69fa f43d b5c9 26bc 4b36 0cbe 4192 693e
00000110: 2369 9c3e 6825 bd3d 480b 693e 3e6e 373d
00000120: 6414 25be 70ec 29be 9d28 0fbe c125 a83d
00000130: 4358 4dbe 7a71 ac3d 8777 40be 1993 583e
00000140: e1d5 803e b76f 89be bd29 803d 5e35 8bbe
00000150: aaf1 ccbb 80b5 d2bc 8187 68bc 813a aebc
00000160: 698f 363e 0cc0 7e3d 6318 34bd 6c32 553d
00000170: 7837 363d 8d36 65be ade9 8c3e 09d2 7bbc
00000180: f52a 0cbe 330a 143d 63b9 873d 82d4 45bc
00000190: 94e4 9b3d 312a 40be 1855 0fbe 24e0 183e
000001a0: f107 743d e300 6ebe 51f9 8a3e a31d 913e
000001b0: ae86 bc3c 0cec 033e a08b 99be cb7a a03e
000001c0: cd44 813d 5db4 3a3d df4f d53d 73d4 9dbe
000001d0: 6bdf 65be c28e db3d bb43 41be 1bda 9b3e
000001e0: 73cf 983d 383e 063e 1235 75be c596 f9bc
000001f0: 1746 443e 6bc7 713d c72b 76be 6c71 0d3e
00000200: 6bd8 31bc eab2 0fbe 9351 1dbe 585c f93d
00000210: 9fc7 4b3e e283 9abe 0017 253e 913a 12bd
00000220: a476 2a3d a0a3 d13d f718 58be 9f92 8dbe
00000230: a547 943e dc27 5a3e 183b 87be 45fc debd
00000240: a06c 6bbe 51c2 863d b76f 92be d943 1abe
00000250: b6c7 23be 1d9f 8c3e 0412 7d3e ee25 333e
00000260: 2826 ddbd ce27 3e3e af60 9bbe a128 233b
00000270: c84b 053e 187b a1be 4973 bebd a4f1 983e
00000280: 3975 943d 7e1c 13be af25 773e f171 9dbe
00000290: ce05 dd3d c56a 40be ae05 663e b35c 3dbe
000002a0: b90b a03e a58d 913e 747a 2bbe 0577 6b3d
000002b0: fefe 52be a34b 7bbd e3a3 bbbd 2736 39be
000002c0: afd5 30be 7554 45be 5ef2 e43c 971f 1f3d
000002d0: 7ce8 73be d9eb 73be e853 0d3e 44bf 81be
000002e0: 140a 843d 4c60 dcbd 2931 afbc 2a6f f3bd
000002f0: 82f0 07be e24e 94be 26b0 49be b31c 63be
00000300: 7e30 fdbc f9fe 80be c409 1bbe f2ee 943e
00000310: d517 f1bc 3591 5b3e 3100 fdbb ef54 153e
00000320: 0a61 91be d186 8bbe 46f5 cbbd 78de 20be
00000330: 3b56 873d a5c6 773e 9780 42bc 3ee8 a0bd
00000340: 4629 473e 8fb0 5d3e d188 29be 7208 b53d
00000350: 858c b73c 7e0c 81bd 5e62 89be e372 3fbe
00000360: e58b 8e3e 11d2 6dbe 2ab2 76bd f6e9 86be
00000370: 82ce f03d d2c7 913e 403e 3dbd e2c0 383d
00000380: 8efd 3ebd 71cf 90bd f35a 18be 399c 98bd
00000390: 9afb 603e b710 383e 5658 213e 9645 35be
000003a0: 9f35 bebd 43ad 4e3e 607a ddbd c627 49be
000003b0: 6cb5 4c3d 7102 e33d f09d 92be ad37 5ebd
000003c0: e092 4fbe c642 943e 215b 2a3d c979 0c3e
000003d0: bf72 37be 5fc9 303d 9047 dabd a12f 22be
000003e0: 9b0d 413e 7fff 623e e474 1abe 4f81 c3bd
000003f0: 160d 81bd 7130 733e 055f 833d 6f05 243e

lstm.bias_ih_l1 f4 [40]
0.028486323 0.3034852 0.040769216 0.3099179 -0.06613011 -0.12679672 0.0038045854 -0.16932802
0.12415254 -0.157083 -0.18714806 -0.0020398002 -0.25291595 -0.2883907 0.21912502 -0.026405668
-0.21899493 -0.28994733 0.18346746 -0.11960275 -0.07172014 0.08209026 -0.17592663 0.21271923
-0.22690625 -0.2926639 -0.14631128 0.15768388 0.102076516 -0.006732773 0.212977 0.24530807
0.27871105 0.3127029 -0.265415 0.02052405 0.20984459 -0.24953811 0.18151732 0.18813482
00000000: 265c e93c 6a62 9b3e 9ffd 263d 8fad 9e3e
00000010: 396f 87bd 00d7 01be 5a56 793b 5364 2dbe
00000020: b043 fe3d 5eda 20be bea3 3fbe 2bae 05bb
00000030: 337e 81be f2a7 93be 4f62 603e b350 d8bc
00000040: 3540 60be fa73 94be e5de 3b3e 49f2 f4bd
00000050: 02e2 92bd f01e a83d 1c26 34be 12d3 593e
00000060: 1d5a 68be 0bd8 95be a0d2 15be e277 213e
00000070: 7e0d d13d 989e dcbb a516 5a3e 0a32 7b3e
00000080: 37b3 8e3e 981a a03e 7ae4 87be 0d22 a83c
00000090: 80e1 563e eb86 7fbe addf 393e 6aa6 403e

lstm.bias_hh_l1 f4 [40]
0.3238851 -0.24509867 -0.21195519 0.14314963 0.2435638 0.121656284 0.1708927 -0.10325693
0.19220375 -0.24496365 -0.16400604 0.03085979 -0.23718175 0.27027598 0.0007171909 -0.075491115
-0.14147983 -0.11372559 0.094236694 0.08070733 0.090075135 -0.13315059 -0.2924294 0.18028682
-0.22381595 -0.010204563 -0.16619356 0.0019822912 0.19256702 0.26273727 -0.054352105 -0.29908717
0.08287046 -0.24029414 0.17324494 0.28307185 -0.21083975 0.20225544 -0.2517914 -0.15283595
00000000: 45d4 a53e 25fb 7abe c80a 59be d195 123e
00000010: ca68 793e ee26 f93d 7ffe 2e3e 5f78 d3bd
00000020: 0fd1 443e c0d7 7abe 33f1 27be accd fc3c
00000030: c6df 72be 9d61 8a3e de01 3c3a 169b 9abd
00000040: 17e0 10be f6e8 e8bd 2bff c03d e249 a53d
00000050: 5079 b83d a158 08be 4eb9 95be 1c9d 383e
00000060: 0230 65be 0a31 27bc a52e 2abe 54e9 013b
00000070: 4a30 453e 8085 863e 50a0 5ebd f421 99be
00000080: fdb7 a93d ab0f 76be 1f67 313e cbee 903e
00000090: 60e6 57be 0d1c 4f3e cdea 80be 0781 1cbe

lstm.weight_ih_l2 f4 [40, 10]
-0.2677991 0.116432495 -0.18059961 -0.32354367 -0.049028985 0.08340147 -0.12648521 -0.010297928
0.06477902 0.23583816 -0.29734606 0.19012672 -0.010519291 0.14827096 -0.1267436 0.045547016
-0.026840758 0.009933808 0.31152523 0.061330315 -0.22384803 0.14297988 -0.14589758 -0.1712846
-0.038786232 -0.2259991 -0.010814129 -0.022254558 0.19320771 0.067981035 0.18537599 0.28789157
0.21694967 -0.102069266 -0.31365567 0.1138404 0.2027913 -0.055827517 -0.08351959 0.045683306
0.17691159 -0.14522825 0.16266268 -0.05351499 -0.09984967 -0.30665025 -0.022991372 0.2831061
-0.29739758 0.009425393 0.19625925 -0.3155747 -0.15642652 -0.016610153 -0.0517528 -0.22639935
0.10105189 -0.26727375 -0.25075778 0.17295378 -0.1277468 0.25110534 0.15134105 -0.21363124
-0.19004281 0.11490285 -0.26381662 0.19891618 -0.29955778 -0.16347994 0.19930352 -0.2016124
-0.14643165 0.16898096 -0.08320014 0.054056797 0.06588228 0.2626084 0.043919817 -0.23707615
-0.30346972 -0.16723666 0.28018314 0.2979916 0.053472076 0.24275926 0.025852019 -0.08374941
-0.0070004016 -0.26760042 -0.0586536 0.14933026 -0.15614326 0.2900103 0.0010298248 0.03254372
0.0026281374 -0.18688606 -0.27061498 0.07079426 0.062556535 -0.015995035 -0.15428115 0.13317385
-0.03367751 0.13090609 0.11566323 -0.30286294 0.29388267 -0.07463652 0.110769555 0.0484026
0.123007834 -0.22162513 0.29755887 -0.19064197 -0.06511 -0.118903615 -0.144855 0.19853947
0.08788794 -0.2628305 -0.096876375 0.035776835 -0.018354885 0.0015737487 -0.22556414 -0.24591762
0.26760912 -0.12685005 0.22041947 0.049977783 0.18996933 -0.24255449 0.030001687 -0.26270327
-0.055370945 0.16255975 0.20034246 -0.16253151 -0.15282224 -0.27050322 -0.041867588 0.030525604
0.20126468 0.27600992 0.14963746 -0.31089374 0.28610164 0.14871094 -0.30784303 0.16253173
0.15026203 -0.14489624 -0.26943398 0.0901145 -0.2649603 -0.08750524 0.12849478 0.19094113
0.25286207 -0.12989384 -0.09244344 0.21762976 0.28250527 -0.23878846 0.12331563 0.1391924
-0.26932096 0.0021981287 -0.21840572 -0.06586127 0.15236847 0.23515323 -0.2926535 0.2309202
-0.18033108 0.004266918 0.1012934 0.21213172 0.18380365 -0.067807466 -0.083912954 0.19185217
-0.010140306 0.024044197 -0.24231601 -0.13028778 -0.13487607 0.011296331 -0.062240332 0.14286375
0.22347178 0.24917229 0.061467838 -0.29601496 0.028463902 0.3161727 0.25181836 0.26182055
0.019212006 -0.23198271 -0.279986 0.18139452 -0.23058929 0.22758918 0.15305033 -0.25656506
0.07764316 0.33574736 -0.053377315 -0.17430794 -0.052616026 0.21538118 0.25016993 0.063912235
0.09264721 0.3117205 -0.2395192 -0.18679108 0.23359205 0.08174666 -0.016251234 0.011006103
-0.116589926 0.03907139 -0.069667555 -0.09439058 -0.2281058 -0.008704125 0.19047873 0.123534046
-0.18953046 0.32389536 -0.11389648 0.11516654 0.24049951 0.20439434 -0.17664173 0.28431034
-0.30445865 -0.11524568 0.19733886 -0.23565349 -0.24769449 -0.100838035 -0.15126939 -0.23440352
0.2564358 -0.20720416 0.0088685835 -0.09030518 0.08912462 0.05768444 -0.10134475 0.093510814
00000000: f71c 89be 2974 ee3d 1bef 38be 84a7 a5be
00000010: 9ed2 48bd 64ce aa3d 5785 01be a4b8 28bc
00000020: ddaa 843d 8f7f 713e be3d 98be 94b0 423e
00000030: 1b59 2cbc 58d4 173e 13c9 01be 828f 3a3d
00000040: 26e1 dbbc 69c1 223c 3c80 9f3e 7f35 7b3d
00000050: 6b38 65be 5169 123e 2d66 15be 3b65 2fbe
00000060: 50de 1ebd 4f6c 67be bf2d 31bc 314f b6bc
00000070: 3ed8 453e a439 8b3d 34d3 3d3e 8666 933e
00000080: 0e28 5e3e b109 d1bd 7a97 a0be 2825 e93d
00000090: 86a8 4f3e 65ab 64bd 520c abbd 6b1e 3b3d
000000a0: 5028 353e b7b6 14be 0c91 263e 8932 5bbd
000000b0: fc7d ccbd 4301 9dbe 6758 bcbc 48f3 903e
000000c0: 7f44 98be f76c 1a3c 2ff8 483e 0293 a1be
000000d0: 462e 20be 0412 88bc befa 53bd 3bd5 67be
000000e0: 4bf4 ce3d 1bd8 88be 5363 80be cc1a 313e
000000f0: 0fd0 02be e190 803e 26f9 1a3e 26c2 5abe
00000100: 959a 42be 2f52 eb3d f912 87be afb0 4b3e
00000110: a35f 99be 4967 27be 3916 4c3e 7b73 4ebe
00000120: 2ef2 15be 5809 2d3e d664 aabd a96a 5d3d
00000130: 4aed 863d 9c74 863e 44e5 333d 17c4 72be
00000140: 6260 9bbe 1640 2bbe 2a74 8f3e 5b92 983e
00000150: 8905 5b3d e295 783e 9dc7 d33c d084 abbd
00000160: a063 e5bb ec02 89be c23e 70bd 08ea 183e
00000170: 05e4 1fbe 3b7c 943e 30fb 863a 904c 053d
00000180: d43c 2c3b 0f5f 3fbe 0c8e 8abe 95fc 903d
00000190: a41d 803d 0508 83bc e1fb 1dbe ba5e 083e
000001a0: 6ef1 09bd 3f0c 063e d8e0 ec3d da10 9bbe
000001b0: ca77 963e 08db 98bd 26db e23d ce41 463d
000001c0: 88eb fb3d b3f1 62be a359 983e a637 43be
000001d0: 6458 85bd bd83 f3bd de54 14be ee4d 4b3e
000001e0: 98fe b33d b891 86be 1f67 c6bd bb8a 123d
000001f0: fc5c 96bc 3e46 ce3a 49fa 66be d4d1 7bbe
00000200: 1004 893e fbe4 01be a4b5 613e 81b5 4c3d
00000210: 5287 423e 3460 78be 19c6 f53c 0b81 86be
00000220: a5cc 62bd 1076 263e 9326 4d3e a96e 26be
00000230: 6f7d 1cbe 667f 8abe 597d 2bbd d510 fa3c
00000240: 5418 4e3e 2c51 8d3e 903a 193e 772d 9fbe
00000250: ea7b 923e ae47 183e 9a9d 9dbe b86e 263e
00000260: 4ade 193e ae5f 14be 40f3 89be f38d b83d
00000270: e0a8 87be f335 b3bd 2394 033e 1286 433e
00000280: 2377 813e e402 05be fc52 bdbd 56da 5e3e
00000290: 88a4 903e f684 74be e88c fc3d 7488 0e3e
000002a0: 70e4 89be 7b0e 103b c0a5 5fbe 46e2 86bd
000002b0: 7b06 1c3e 02cc 703e aed6 95be 5876 6c3e
000002c0: b6a8 38be 81d1 8b3b ea72 cf3d 0f39 593e
000002d0: 0637 3c3e a4de 8abd 8eda abbd e574 443e
000002e0: 8723 26bc 56f8 c43c b021 78be 296a 05be
000002f0: f41c 0abe 3f14 393c b8ef 7ebd e04a 123e
00000300: c9d5 643e 0527 7f3e b3c5 7b3d 468f 97be
00000310: 212d e93c 63e1 a13e 56ee 803e 580d 863e
00000320: 7f62 9d3c e08c 6dbe 535a 8fbe 7cbf 393e
00000330: 991f 6cbe 230d 693e 3ab9 1c3e 7f5c 83be
00000340: 6103 9f3d 14e7 ab3e 2ca2 5abd c87d 32be
00000350: e783 57bd e28c 5c3e 4616 803e 6be4 823d
00000360: d2bd bd3d d499 9f3e 8544 75be 2946 3fbe
00000370: c132 6f3e cb6a a73d 4f21 85bc f152 343c
00000380: b3c6 eebd 5209 203d ddad 8ebd d94f c1bd
00000390: 9194 69be bf9b 0ebc db0c 433e 6bff fc3d
000003a0: 4614 42be 9dd5 a53e 8f42 e9bd 6fdc eb3d
000003b0: 8145 763e c04c 513e 92e1 34be 2091 913e
000003c0: 01e2 9bbe ed05 ecbd 3313 4a3e 264f 71be
000003d0: a0a3 7dbe 2c84 cebd 5de6 1abe 7a07 70be
000003e0: 8e4b 833e 542d 54be 894d 113c ecf1 b8bd
000003f0: f886 b63d 8546 6c3d d68d cfbd 9982 bf3d

lstm.weight_hh_l2 f4 [40, 10]
-0.04611332 0.2904419 -0.13374862 -0.08490356 -0.19954689 -0.009895124 0.02200417 -0.17019975
0.046903946 0.061440658 -0.064045206 0.2850459 -0.046818785 0.12946323 0.16845022 0.15056771
-0.00068379106 -0.2371358 0.2933543 -0.19854192 0.21496731 0.26997656 0.13769141 0.10108934
-0.011447498 0.24748453 -0.23216805 -0.090032354 0.13682589 -0.30296558 -0.24120307 0.21483329
-0.284768 -0.20311709 -0.08702031 -0.26631498 -0.123064905 0.13467813 0.09591109 -0.19249275
0.31245494 -0.19073667 0.2750562 -0.29406086 0.003277666 -0.042726934 0.1688342 -0.20433946
-0.31536865 -0.27444908 -0.16514541 -0.23561287 0.07157169 -0.055911597 -0.17733227 0.061237093
-0.30325454 -0.26534852 0.21350922 0.16310364 -0.23971727 0.31593922 -0.2656731 -0.039870534
0.14057179 -0.1910607 -0.19230042 0.3134874 -0.14596899 0.27401814 0.09334192 -0.03359081
0.137886 -0.21223214 0.040678125 -0.26674178 0.030036708 -0.20478532 0.24121521 0.20631877
-0.1308517 0.23246926 0.0480536 -0.170094 0.24902688 -0.13087767 0.16680624 0.17119853
0.03670894 0.27707374 -0.013101278 0.0840248 -0.22526251 0.12569441 -0.27320182 0.014056979
-0.0013425889 0.028297054 -0.022106744 0.24749509 -0.28334627 0.1617292 -0.25094953 -0.024326362
-0.17044805 -0.16806032 -0.12557374 -0.24635136 0.1660339 -0.14298905 -0.28837588 -0.2740251
-0.07736162 0.26662898 0.015327038 0.13820466 -0.032034025 0.14191125 -0.23941532 -0.19511521
0.098403074 0.14729649 -0.16518895 0.2154892 0.12764238 -0.24190488 -0.08717577 -0.18179373
0.018080637 0.003827368 0.14858352 -0.20361368 -0.12336132 -0.20004556 0.19260022 -0.3027946
-0.22939666 -0.058279704 -0.23752439 0.11074984 -0.020402638 0.23470177 -0.013287917 0.09474836
0.0023095242 -0.13092563 -0.2505102 -0.13552167 0.2034863 -0.13412386 0.08050757 0.1547523
0.27769828 0.17429571 -0.18715681 0.28123423 0.2229505 -0.03325432 -0.12678397 -0.1527497
-0.2044998 0.18115044 0.1015819 0.18928196 -0.29319373 -0.18080686 -0.2669354 0.18900414
-0.09473189 0.31481105 0.17169094 0.118971206 -0.08292661 0.30357283 0.0042317845 -0.21907142
-0.04476832 0.06493833 -0.14822789 -0.031006094 -0.10272907 0.015619645 -0.108528 0.19895335
0.02084875 0.11562972 -0.19481799 -0.26208216 0.20599069 0.19983988 -0.28614646 0.25032526
0.24860644 -0.2457303 -0.16868918 0.055104762 -0.18885331 -0.21321487 0.14830731 -0.103963085
-0.1940207 0.2243142 -0.0049701235 0.25788352 0.30497482 0.16699359 0.0031799546 -0.28722253
0.2759971 0.24077669 -0.18546115 0.19736327 0.026380826 -0.09051307 -0.12949735 0.076113686
0.2644432 -0.3006594 -0.25184327 -0.15798914 0.15349294 -0.25506353 -0.18252653 -0.03802118
-0.10713407 -0.22292838 0.28610417 0.0411896 -0.239353 -0.14376158 0.2679643 -0.10616061
0.22195466 0.19859976 0.2678288 -0.21861297 0.039930627 0.25726795 -0.063958235 -0.040378053
-0.29079637 0.055878274 -0.035187777 -0.16234578 0.0051924996 -0.13062483 -0.01308699 0.30246928
0.1180673 -0.030101886 -0.23437022 0.08222393 0.18129937 -0.2548066 0.31413597 -0.118068956
00000000: 52e1 3cbd cdb4 943e 66f5 08be ebe1 adbd
00000010: 0556 4cbe 281f 22bc 1742 b43c d848 2ebe
00000020: 5a1e 403d 33a9 7b3d 222a 83bd 89f1 913e
00000030: 0ec5 3fbd 0292 043e 377e 2c3e 6c2e 1a3e
00000040: 7140 33ba bad3 72be 8932 963e 934e 4bbe
00000050: 6420 5c3e 5e3a 8a3e fafe 0c3e ee07 cf3d
00000060: 498e 3bbc 966c 7d3e 76bd 6dbe e262 b8bd
00000070: 161c 0c3e 4e1e 9bbe f0fd 76be 42fd 5b3e
00000080: 1ccd 91be edfd 4fbe b437 b2bd 705a 88be
00000090: 7409 fcbd 10e9 093e 096d c43d d21c 45be
000000a0: 18fa 9f3e 7950 43be 2bd4 8c3e 258f 96be
000000b0: 1cce 563b 7002 2fbd dfe2 2c3e 5d3e 51be
000000c0: 0078 a1be 9784 8cbe e11b 29be 8044 71be
000000d0: 2e94 923d 8f03 65bd 9796 35be bfd3 7a3d
000000e0: 2e44 9bbe c3db 87be 29a2 5a3e a404 273e
000000f0: 7278 75be c9c2 a13e 4e06 88be 494f 23bd
00000100: 0df2 0f3e 6ba5 43be 67ea 44be 6c81 a03e
00000110: e578 15be 1b4c 8c3e 0c2a bf3d 8496 09bd
00000120: fd31 0d3e 6253 59be 1b9e 263d 6192 88be
00000130: 8b0f f63c 3eb3 51be 1f01 773e 3a45 533e
00000140: fdfd 05be 6c0c 6e3e dad3 443d 1f2d 2ebe
00000150: e700 7f3e cc04 06be 41cf 2a3e ab4e 2f3e
00000160: 1d5c 163d 9cdc 8d3e bea6 56bc 3215 ac3d
00000170: 37ab 66be 09b6 003e 1ce1 8bbe 3e4f 663c
00000180: cff9 afba 39cf e73c 3419 b5bc 5a6f 7d3e
00000190: c312 91be 579c 253e 757c 80be 1448 c7bc
000001a0: ef89 2ebe 0118 2cbe 6796 00be 8843 7cbe
000001b0: ca04 2a3e b96b 12be 01a6 93be 054d 8cbe
000001c0: c56f 9ebd 9883 883e 421e 7b3c 8685 0d3e
000001d0: 1c36 03bd 2f51 113e 4a29 75be 48cc 47be
000001e0: 8d87 c93d e4d4 163e 4b27 29be 33a9 5c3e
000001f0: afb4 023e eab5 77be 3689 b2bd 2328 3abe
00000200: d81d 943c 94d4 7a3b 4726 183e 1b80 50be
00000210: dca4 fcbd bed8 4cbe fe38 453e e507 9bbe
00000220: f5e6 6abe b3b6 6ebd 9839 73be d0d0 e23d
00000230: 6f23 a7bc a955 703e 90b5 59bc 6e0b c23d
00000240: 635b 173b 5e11 06be df42 80be 31c6 0abe
00000250: b65e 503e c457 09be 27e1 a43d 6377 1e3e
00000260: 782e 8e3e 937a 323e 09a6 3fbe effd 8f3e
00000270: 234d 643e af35 08bd a8d3 01be 6b6a 1cbe
00000280: 6568 51be 807f 393e 2c0a d03d 21d3 413e
00000290: 7d1d 96be 6f25 39be c2ab 88be 4d8a 413e
000002a0: cb02 c2bd ea2e a13e c0cf 2f3e 2da7 f33d
000002b0: 6dd5 a9bd e66d 9b3e c8aa 8a3b 4254 60be
000002c0: fc5e 37bd 63fe 843d 0dc9 17be 7e00 febc
000002d0: 9e63 d2bd 8ae9 7f3c ee43 debd 6dba 4b3e
000002e0: ffca aa3c 46cf ec3d 5e7e 47be a22f 86be
000002f0: 39ef 523e d3a2 4c3e ca81 92be a22a 803e
00000300: b092 7e3e b9a0 7bbe dbbc 2cbe 88b5 613d
00000310: c362 41be 0055 5abe dfdd 173e 99ea d4bd
00000320: 5dad 46be 9fb2 653e 6bdc a2bb 4f09 843e
00000330: a925 9c3e 5e00 2b3e c966 503b d50e 93be
00000340: 7e4f 8d3e 2a8e 763e 87e9 3dbe 9919 4a3e
00000350: 9a1c d83c eb5e b9bd f49a 04be 7ee1 9b3d
00000360: 1965 873e 07f0 99be 9af1 80be e8c7 21be
00000370: 412d 1d3e b097 82be 3ce8 3abe 19bc 1bbd
00000380: 1b69 dbbd 5647 64be 3f7c 923e 6db6 283d
00000390: f418 75be 3c36 13be 9e32 893e bc6a d9bd
000003a0: 1548 633e bc5d 4b3e db20 893e 14dc 5fbe
000003b0: 4c8e 233d a0b8 833e 89fc 82bd 7563 25bd
000003c0: 43e3 94be 9ee0 643d 0f21 10bd f93d 26be
000003d0: d825 aa3b 84c2 05be d16a 56bc 41dd 9a3e
000003e0: 45cd f13d 3b98 f6bc bffe 6fbe 0565 a83d
000003f0: 8ba6 393e 0376 82be 6ed6 a03e 23ce f1bd

lstm.bias_ih_l2 f4 [40]
-0.27793065 -0.21066885 0.26449102 -0.255565 0.114135176 -0.24630615 -0.3245363 0.18008861
-0.059131857 0.03722656 -0.14616728 0.26535395 0.0117291715 -0.28244707 -0.045037437 -0.068479046
0.12332124 -0.31093505 0.2639728 0.2157634 -0.011568082 0.3470108 -0.057189573 0.17312156
-0.051124237 -0.015991632 0.09361889 -0.049294315 -0.01688562 -0.065950364 -0.19190888 0.22269258
-0.07019478 -0.14005372 0.00031427908 0.12825535 0.2642828 0.08289334 -0.00067372597 0.16373846
00000000: ed4c 8ebe 93b9 57be 5e6b 873e 6ad9 82be
00000010: b4bf e93d ae37 7cbe 9f29 a6be 2669 383e
00000020: 3f34 72bd e17a 183d e0ac 15be 79dc 873e
00000030: b62b 403c e79c 90be 2d79 38bd be3e 8cbd
00000040: d98f fc3d e132 9fbe 7127 873e 15f1 5c3e
00000050: 0d88 3dbc 66ab b13e 9d3f 6abd c746 313e
00000060: a667 51bd e200 83bc 43bb bf3d d6e8 49bd
00000070: b653 8abc fc10 87bd c383 44be 8609 643e
00000080: 48c2 8fbd 3e6a 0fbe d3c5 a439 5f55 033e
00000090: 1350 873e fcc3 a93d fc9c 30ba 0eab 273e

lstm.bias_hh_l2 f4 [40]
-0.32304212 0.26593515 0.119823635 -0.15762874 0.23041455 -0.1194444 0.27142608 -0.30722934
0.1543922 0.25227088 0.0065531456 0.21374324 -0.25205806 -0.01588722 -0.1975693 -0.02745286
-0.21649583 0.19107677 -0.14451869 -0.17096414 -0.17207177 -0.1701041 -0.10986988 -0.18833447
0.12012758 0.06396543 -0.042259183 0.014583898 -0.31605303 0.08360017 -0.10244878 0.28055272
0.094590984 0.17453021 0.24813978 0.17438026 -0.2572566 -0.30916375 0.06579384 0.09058733
00000000: c765 a5be a728 883e 1866 f53d 6e69 21be
00000010: cbf1 6b3e 449f f4bd 5cf8 8a3e 2a4d 9dbe
00000020: fd18 1e3e a629 813e c5bb d63b 82df 5a3e
00000030: c10d 81be ea25 82bc 9b4f 4abe d2e4 e0bc
00000040: 15b1 5dbe a1a9 433e b5fc 13be 3911 2fbe
00000050: 9533 30be c52f 2ebe 7603 e1bd c0da 40be
00000060: 7305 f63d 4f00 833d f717 2dbd 4df1 6e3c
00000070: b4d1 a1be 9136 ab3d aad0 d1bd 9ba4 8f3e
00000080: ebb8 c13d 0cb8 323e 5b18 7e3e bd90 323e
00000090: 23b7 83be b64a 9ebe ecbe 863d da85 b93d

lstm.weight_ih_l3 f4 [40, 10]
0.107791066 0.08217016 -0.29867133 0.22197412 0.25820154 -0.016828753 0.017500214 -0.2606275
0.15347475 -0.11914468 0.15523776 -0.08492357 0.24246377 -0.01509805 -0.12744386 0.019360801
0.187118 0.15805514 -0.15986754 -0.21408622 0.3288594 0.25860944 0.14724287 0.124981426
0.08654267 -0.110561974 -0.09726456 0.16425866 0.2781862 -0.20035931 -0.23302837 0.08484526
-0.10864783 -0.18676062 0.05483953 -0.057561837 0.10413802 0.06463606 -0.024264222 -0.2462597
-0.32319364 0.16673492 0.28381848 -0.10036969 0.14299592 -0.019890469 0.11602754 -0.04390543
0.12970525 0.22844277 -0.23181334 -0.0829363 -0.08688565 -0.017887581 -0.015064828 -0.13689075
-0.27505177 0.28229722 0.2552879 -0.002027464 0.15137103 0.23296583 0.177552 -0.15285523
0.18170597 -0.070056625 0.10032046 0.1317611 0.13289651 0.079119466 0.121174216 0.057115674
-0.16951056 0.048200198 -0.30745396 -0.032456372 -0.0279178 0.26613197 0.20603302 0.24258049
-0.24250822 0.29223722 -0.018035844 0.2884845 -0.1538117 0.23643965 -0.19561365 0.27551037
0.026234528 0.1665413 0.05932881 0.14423485 -0.10338143 0.050178483 -0.29506212 0.1175416
-0.089099884 -0.067810304 -0.03333796 0.0641135 -0.17248295 -0.07976444 0.094804645 0.27253705
-0.041879915 -0.024957791 -0.3122204 0.006228798 -0.28778508 0.04552117 0.2977707 0.27490038
0.104337305 -0.09102753 0.25288996 0.28999433 -0.026751654 -0.2311259 -0.24719457 0.20982483
0.19556554 0.17845763 0.15326816 -0.05285009 0.082127646 0.114885725 0.030000443 0.31175354
0.23965444 0.095034406 0.012458463 0.019981824 0.10274351 -0.2759141 0.06549071 0.16094385
-0.089497164 0.20357096 -0.14094427 -0.10129672 -0.2292314 0.1705961 0.05840026 0.15368396
0.23874374 0.28785363 0.0029338668 -0.1788428 -0.19755931 0.060974307 0.23419733 0.06537995
0.26489872 -0.031089028 0.17064461 -0.29304844 -0.1324202 -0.2596067 0.14068793 0.1603733
0.039359435 -0.27674842 0.04841195 0.31600708 0.012579019 -0.123604275 0.25405976 -0.017055534
0.01521979 0.24116866 -0.27531445 -0.028426921 -0.25964844 -0.024236113 0.1628188 -0.076714434
-0.11248158 -0.3027666 -0.27727142 -0.30562192 -0.29389164 -0.164103 0.06544332 -0.22591664
0.028495831 0.10738758 -0.016656848 0.123932585 -0.07517759 -0.25074935 -0.23694682 0.07349214
-0.028222676 -0.0020571786 -0.1940469 -0.05236677 -0.004161931 0.26073107 0.04506726 -0.117355876
-0.15595727 0.006005172 -0.24828747 0.1110984 0.072789274 0.27309632 0.030935166 -0.07329416
0.080990516 -0.33895466 -0.10632777 -0.199986 -0.29982355 0.17347413 0.008161133 0.22203867
-0.2633499 0.052766766 -0.028663864 0.288626 0.27000096 0.23292293 0.031954546 0.10834558
0.02555356 0.076152585 0.07427389 0.05459568 0.15287766 0.0908105 0.31559646 -0.24891528
0.070499524 0.11741332 -0.19966766 -0.06641948 0.023943126 -0.09328231 -0.07359092 -0.25861052
0.030996246 0.2406584 0.22609027 -0.04031996 0.29999992 0.03521862 -0.13089734 0.19655637
-0.15659301 0.015983729 -0.015385621 0.037197337 -0.18161558 -0.10660329 0.22987072 -0.15210743
00000000: 90c1 dc3d d448 a83d 73eb 98be 2f4d 633e
00000010: fe32 843e 74dc 89bc 9c5c 8f3c f870 85be
00000020: 7c28 1d3e 2002 f4bd a6f6 1e3e 69ec adbd
00000030: 6c48 783e d05d 77bc a580 02be 8b9a 9e3c
00000040: dc9b 3f3e 35d9 213e 51b4 23be 6b39 5bbe
00000050: 4260 a83e 7568 843e d6c6 163e 43f6 ff3d
00000060: 493d b13d 516e e2bd a432 c7bd 6c33 283e
00000070: 6c6e 8e3e fe2a 4dbe fd9e 6ebe 5ac3 ad3d
00000080: c182 debd 2d3e 3fbe 6a9f 603d f6c5 6bbd
00000090: 5046 d53d e95f 843d c3c5 c6bc 812b 7cbe
000000a0: a379 a5be 8fbc 2a3e a850 913e a08e cdbd
000000b0: 866d 123e 56f1 a2bc d99f ed3d 2ed6 33bd
000000c0: 74d1 043e e7ec 693e 7a60 6dbe 82da a9bd
000000d0: 1bf1 b1bd fa88 92bc 78d2 76bc 172d 0cbe
000000e0: 96d3 8cbe 4389 903e 18b5 823e 34df 04bb
000000f0: 0201 1b3e 988e 6e3e 31d0 353e 1586 1cbe
00000100: 2111 3a3e d979 8fbd d074 cd3d 62ec 063e
00000110: 0616 083e 6309 a23d 302a f83d 20f2 693d
00000120: 2d94 2dbe 926d 453d 9b6a 9dbe f9f0 04bd
00000130: dfb3 e4bc 7342 883e 52fa 523e 0567 783e
00000140: 1354 78be 1ea0 953e e8bf 93bc 3eb4 933e
00000150: d080 1dbe 3c1d 723e f24e 48be b20f 8d3e
00000160: cbe9 d63c cd89 2a3e c402 733d 4db2 133e
00000170: a5b9 d3bd f487 4d3d 6212 97be a6b9 f03d
00000180: 007a b6bd 21e0 8abd 628d 08bd f04d 833d
00000190: 5f9f 30be 8a5b a3bd f028 c23d fa89 8b3e
000001a0: 468a 2bbd 4874 ccbc 5adb 9fbe f21a cc3b
000001b0: 9158 93be 6874 3a3d 6775 983e bebf 8c3e
000001c0: ccae d53d a46c babd cb7a 813e 237a 943e
000001d0: 4926 dbbc 45ac 6cbe 9320 7dbe 52dc 563e
000001e0: 5542 483e 99bd 363e 54f2 1c3e 5679 58bd
000001f0: 8a32 a83d 3549 eb3d 7dc3 f53c 299e 9f3e
00000200: f967 753e 66a1 c23d 951e 4c3c ecb0 a33c
00000210: 306b d23d 9d44 8dbe fe1f 863d 77ce 243e
00000220: 4a4a b7bd e874 503e b253 10be a874 cfbd
00000230: a3bb 6abe beb0 2e3e 1c35 6f3d 545f 1d3e
00000240: 3d79 743e 8d61 933e 1e46 403b 9122 37be
00000250: fd4c 4abe 32c0 793d 6dd1 6f3e ece5 853d
00000260: cea0 873e 6bae febc 76bd 2e3e 720a 96be
00000270: 2999 07be 2beb 84be 7f10 103e e638 243e
00000280: 5c37 213d f8b1 8dbe 9c4b 463d aecb a13e
00000290: 3b18 4e3c 3d24 fdbd 1f14 823e 0cb8 8bbc
000002a0: 6d5c 793c ebf4 763e 04f6 8cbe 93df e8bc
000002b0: a4f0 84be d08a c6bc f9b9 263e 751c 9dbd
000002c0: be5c e6bd 3904 9bbe 85f6 8dbe 7a7a 9cbe
000002d0: f778 96be 9e0a 28be 2607 863d b156 67be
000002e0: 1770 e93c 05ee db3d f173 88bc 5ed0 fd3d
000002f0: b5f6 99bd 3862 80be 30a2 72be 0c83 963d
00000300: 3e33 e7bc bbd1 06bb 3bb4 46be 8a7e 56bd
00000310: cf60 88bb 8b7e 853e 7298 383d 4758 f0bd
00000320: 43b3 1fbe 09c7 c43b 123f 7ebe 8f87 e33d
00000330: 8b12 953d 48d3 8b3e bf6b fd3c 401b 96bd
00000340: 5bde a53d 778b adbe 60c2 d9bd 21c9 4cbe
00000350: 7982 99be 34a3 313e 46b6 053c 1b5e 633e
00000360: ccd5 86be f721 583d 7bd0 eabc c9c6 933e
00000370: 913d 8a3e 5983 6e3e c5e2 023d 4ae4 dd3d
00000380: b355 d13c e3f5 9b3d e91c 983d b89f 5f3d
00000390: f68b 1c3e dbfa b93d dc95 a13e a6e3 7ebe
000003a0: 0e62 903d 6576 f03d ae75 4cbe f006 88bd
000003b0: 6024 c43c cc0a bfbd d6b6 96bd 9968 84be
000003c0: d7eb fd3c 286f 763e 3584 673e 8b26 25bd
000003d0: 9799 993e 6641 103d f409 06be 1346 493e
000003e0: eb59 20be 4ff0 823c f913 7cbc 3c5c 183d
000003f0: 6ff9 39be d352 dabd 3b63 6b3e 0dc2 1bbe

lstm.weight_hh_l3 f4 [40, 10]
-0.29740533 0.26170528 0.113452174 -0.27852178 0.292085 0.25663662 0.04186544 -0.13992336
0.21922982 0.029637342 -0.19038008 0.27697885 0.24153817 0.018003432 -0.29610863 -0.21562366
0.25479928 0.2646551 -0.098590806 -0.19079943 0.14880574 -0.21303302 0.17632586 -0.12165299
0.038810037 0.14509498 0.21779895 0.118522875 -0.24903306 -0.30485818 -0.09990233 0.03828367
0.01741019 0.16948278 -0.2309631 0.29413316 -0.10425592 -0.054351233 -0.27989268 0.14932555
-0.124769196 -0.2598145 0.11749468 -0.1014135 -0.31469345 -0.08463546 -0.27706972 -0.13692446
-0.06295843 -0.1611378 0.08771416 -0.075122364 0.16286752 -0.114227116 -0.079139985 0.044946097
-0.005744614 0.26231262 0.31037802 -0.21915585 -0.09409895 0.19015002 -0.25198188 0.102628976
-0.20246965 -0.15663117 0.01684081 -0.057011567 0.13141176 0.25291154 -0.29459915 -0.08049558
-0.11746324 -0.08552387 -0.052315652 -0.06279165 0.04043415 0.043635476 -0.051060826 -0.17777427
0.0022286258 -0.033826075 -0.08399868 -0.059206456 -0.20551725 0.27758378 0.29410696 -0.3038287
0.29220614 -0.22996669 -0.10628068 0.17157456 -0.08655248 -0.28539085 -0.19126232 0.010743162
0.07551441 0.15269332 0.30674398 0.19324285 -0.06537026 -0.074674934 -0.07419105 0.19894001
-0.1934362 0.015476055 -0.005882473 0.18615818 0.31311786 -0.037108004 0.07893457 0.11822861
-0.12906745 0.23918438 0.27820092 -0.011112783 -0.13640036 0.2706703 -0.1246759 0.1677038
0.291608 0.16594994 -0.26375732 0.027858935 -0.02683195 0.021571482 0.066769324 -0.23236446
0.032240417 -0.11363478 0.24253824 -0.16066651 0.24920395 0.25822306 -0.29329526 -0.021306356
-0.04991053 0.12934926 -0.3120518 0.017887777 0.2522084 0.11049516 0.18545641 -0.04839397
0.09149746 0.030546565 0.25112462 -0.27929896 -0.109285645 0.06639156 -0.18326269 -0.12598257
-0.057257015 -0.15523867 0.04023782 -0.020351106 -0.24032609 -0.27818173 0.053347807 0.110381275
0.05165512 -0.26248568 0.008118563 0.26372188 0.281097 0.17641693 -0.11095043 -0.16088697
0.2171459 -0.14416185 0.052754037 0.055267803 -0.087985314 -0.043454908 0.23976436 0.039310995
0.26435348 0.26267633 0.25332117 0.054171942 0.14943951 0.054938708 0.19151488 0.0820872
0.17571226 0.043352745 -0.10486145 -0.23831882 -0.15307428 0.029936923 -0.04244884 -0.1334908
0.12174546 0.059141126 -0.07696742 -0.086688004 -0.07593644 0.15697584 0.24537154 0.016939277
0.12694365 -0.13684861 -0.28392655 -0.060585532 -0.09510637 0.051174633 -0.30379957 0.22427681
-0.25242078 0.3059964 -0.29013345 0.13053489 0.06885534 -0.27858955 -0.084457114 -0.058096193
-0.028874539 -0.15138458 -0.14815961 0.30389458 -0.24221016 -0.0335003 -0.20390458 -0.02006344
-0.122835405 0.22957271 -0.0877482 0.30808714 0.07569792 0.085163414 -0.08126902 -0.21377754
-0.25856012 -0.2366955 -0.054438613 0.25721657 -0.21130808 0.20372386 -0.16653338 -0.0997402
0.18087988 -0.09132134 -0.17776458 -0.29357395 -0.12735225 -0.17831387 -0.00832782 0.17975205
0.14125027 0.2429825 -0.1547059 0.0015471344 -0.13119859 -0.19129726 -0.22271746 -0.29822817
00000000: 8345 98be 3cfe 853e 9d59 e83d 689a 8ebe
00000010: 2a8c 953e e065 833e 187b 2b3d 1248 0fbe
00000020: c87d 603e 03ca f23c fff2 42be 2cd0 8d3e
00000030: c855 773e ef7b 933c 8d9b 97be 73cc 5cbe
00000040: 0d75 823e e080 873e fae9 c9bd ed60 43be
00000050: 8860 183e 5425 5abe c48e 343e 3425 f9bd
00000060: 46f7 1e3d c793 143e b006 5f3e 1fbc f23d
00000070: 8602 7fbe 5f16 9cbe 9899 ccbd 56cf 1c3d
00000080: d19f 8e3c e58c 2d3e 9781 6cbe 9f98 963e
00000090: 2184 d5bd 669f 5ebd 184e 8fbe cce8 183e
000000a0: fe86 ffbd 6806 85be 0da1 f03d e2b1 cfbd
000000b0: 801f a1be 5b55 adbd 15dc 8dbe ed35 0cbe
000000c0: 59f0 80bd 4f01 25be 7ba3 b33d c1d9 99bd
000000d0: bec6 263e e8ef e9bd 2514 a2bd 6619 383d
000000e0: 513d bcbb d74d 863e dee9 9e3e 646a 60be
000000f0: f3b6 c0bd b0b6 423e c503 81be 242f d23d
00000100: 3454 4fbe ec63 20be bdf5 893c f684 69bd
00000110: ce90 063e 9f7d 813e b3d5 96be deda a4bd
00000120: 9190 f0bd 2427 afbd f048 56bd e998 80bd
00000130: 479e 253d 1dbb 323d 2825 51bd 750a 36be
00000140: 230e 123b 368d 0abd 8007 acbd 7882 72bd
00000150: 1d73 52be 761f 8e3e 3095 963e 6f8f 9bbe
00000160: 0b9c 953e 637c 6bbe afa9 d9bd 3eb1 2f3e
00000170: 6d42 b1bd c01e 92be 45da 43be 1604 303c
00000180: 4da7 9a3d a35b 1c3e 8c0d 9d3e 74e1 453e
00000190: d8e0 85bd 2cef 98bd 7af1 97bd eeb6 4b3e
000001a0: 2414 46be 488f 7d3c c3c1 c0bb 40a0 3e3e
000001b0: fc50 a03e 90fe 17bd 73a8 a13d d721 f23d
000001c0: 422a 04be c0ec 743e 5a70 8e3e 6412 36bc
000001d0: 89ac 0bbe 4c95 8a3e 1456 ffbd 8cba 2b3e
000001e0: a54d 953e c8ee 293e 330b 87be 6c38 e43c
000001f0: adce dbbc adb6 b03c 5bbe 883d f3f0 6dbe
00000200: 870e 043d 5ab9 e8bd f25b 783e c385 24be
00000210: 522f 7f3e d035 843e cc2a 96be ab8a aebc
00000220: fc6e 4cbd 2274 043e 41c5 9fbe 6389 923c
00000230: 7621 813e 494b e23d 49e8 3d3e c138 46bd
00000240: 0563 bb3d ca3c fa3c 6893 803e 4600 8fbe
00000250: 27d1 dfbd 4cf8 873d 37a9 3bbe 9301 01be
00000260: 5586 6abd e3f6 1ebe 6ad0 243d 5db7 a6bc
00000270: 0b18 76be d66d 8ebe 3b83 5a3d 940f e23d
00000280: 5294 533d 8664 86be b903 053c 8e06 873e
00000290: f2eb 8f3e a4a6 343e fb39 e3bd 8ebf 24be
000002a0: 7f5b 5e3e 2a9f 13be 9e14 583d 7e60 623d
000002b0: a531 b4bd c6fd 31bd ca84 753e 9104 213d
000002c0: 5759 873e 837d 863e 50b3 813e 66e3 5d3d
000002d0: ac06 193e 6907 613d 7a1c 443e 551d a83d
000002e0: eaed 333e a692 313d 9ac1 d6bd d909 74be
000002f0: 81bf 1cbe 473e f53c d6de 2dbd d0b1 08be
00000300: af55 f93d f73d 723d 18a1 9dbd 7b89 b1bd
00000310: 9084 9bbd 46be 203e ad42 7b3e 3dc4 8a3c
00000320: 84fd 013e 0b22 0cbe d25e 91be 8928 78bd
00000330: 21c7 c2bd 7e9c 513d 9e8b 9bbe d2a8 653e
00000340: 4c3d 81be 8fab 9c3e 5f8c 94be f0aa 053e
00000350: 0704 8d3d 4aa3 8ebe daf7 acbd 46f6 6dbd
00000360: 4c8a ecbc 8f04 1bbe 27b7 17be 1298 9b3e
00000370: f105 78be 9c37 09bd 5dcc 50be 155c a4bc
00000380: 2191 fbbd 1c15 6b3e 54b5 b3bd 99bd 9d3e
00000390: 8307 9b3d 286a ae3d 5f70 a6bd 80e8 5abe
000003a0: fe61 84be 4e60 72be 06fb 5ebd e4b1 833e
000003b0: 2561 58be fd9c 503e ba87 2abe 9744 ccbd
000003c0: 9338 393e af06 bbbd eb07 36be 534f 96be
000003d0: a168 02be e997 36be 6971 08bc ec10 383e
000003e0: e9a3 103e 68d0 783e 396b 1ebe 37c9 ca3a
000003f0: ec58 06be 6ee3 43be 0c10 64be 5db1 98be
