models/test-optimezers/LSTM_6.pt (torch, 19387 bytes, 14 tensors)

lstm.weight_ih_l0 f4 [52, 1]
000000 a9 a4 18 3e 1a 36 0f be 2b d7 7f 3e 8b 12 1c be
       0.14906563 -0.13985482 0.24984424 -0.15241449
000010 2f 1c 82 3e ce 68 43 3e 10 36 0d 3e d7 cf c3 3c
       0.25412127 0.19082949 0.13790154 0.023902817
000020 cb 68 da bd ae 4e 7a be d2 3b 3f 3e 18 32 a3 3d
       -0.10664519 -0.24444076 0.18675163 0.07968539
000030 e3 55 4d 3d bb ca 96 bd 3f ec 54 be 96 49 58 3d
       0.050130736 -0.073628865 -0.20793246 0.052804552
000040 e9 fc 4f 3d 90 ac 45 be de 51 66 3e fd 5d 18 be
       0.050778303 -0.19304109 0.22492167 -0.14879604
000050 0e df 87 3e bc 46 87 be c2 06 1f 3e 22 67 15 3e
       0.26537365 -0.26421154 0.15529922 0.14590123
000060 63 85 83 be dd 1b 4b be fc 85 b9 3c 8b 77 88 3e
       -0.25687703 -0.19834848 0.022646897 0.26653704
000070 25 f1 88 be d5 7f 3c bd 5f 2d 10 bd e8 1e 23 be
       -0.2674648 -0.046020348 -0.03519952 -0.15929759
000080 d6 51 87 3e ad 91 6d 3e 39 1a f6 bc 71 c7 e8 3d
       0.26429623 0.23200102 -0.0300418 0.113661654
000090 94 66 53 be bc 21 6b 3e b2 89 5e 3e aa ba 74 3e
       -0.20644599 0.22962087 0.21732214 0.23899332
0000a0 64 71 84 3e dc 04 a5 ba 54 81 f3 3d 89 1e 74 be
       0.2586776 -0.0012589949 0.11889902 -0.23839773
0000b0 02 8c a6 3d 07 60 38 3d 05 c7 e6 3d 00 5d b1 3d
       0.08132173 0.045013454 0.11268429 0.086603165
0000c0 e4 5f 2c bd 96 d2 3c bd 31 7f df bd 39 b1 78 3e
       -0.042083636 -0.046099268 -0.10912932 0.24286355

lstm.weight_hh_l0 f4 [52, 13]
000000 92 8e 62 be 04 47 06 be 62 75 53 3e e7 d6 4b 3e
       -0.22124699 -0.13113028 0.20650247 0.19906197
000010 e2 89 85 3e 72 6e 29 3e f8 0c 86 be 26 b2 1b 3e
       0.2608176 0.16546038 -0.2618177 0.15204677
000020 57 83 1c be 9c 07 55 be f3 b7 06 3e 94 32 b8 3c
       -0.15284477 -0.20803684 0.13156109 0.022485055
000030 82 35 7c bd 84 ff 7f 3e 1e db 77 3d b8 c9 35 3d
       -0.061574467 0.24999815 0.0605117 0.044381827
000040 21 6f db bd 02 d0 4a 3d e7 d1 17 3c 83 92 cf bd
       -0.107145555 0.049514778 0.009266353 -0.10135367
000050 77 b7 3e bc 0c a0 ea bb 4f 2c 02 bd 52 08 cc 3d
       -0.011640421 -0.0071601924 -0.031780537 0.099625245
000060 db 56 1e 3e ef af 8d 3d 28 6a 5b 3e d9 0a 7f be
       0.1546282 0.06918322 0.21427214 -0.24906482
000070 f2 ba 6b ba 7b fd 4c be 18 4f ed 3d b2 1b 5c 3d
       -0.00089923956 -0.2001857 0.115873516 0.05373735
000080 ae 5e 36 be e6 16 2d 3e 64 e3 1d 3e bb 02 a1 bd
       -0.17809555 0.16903266 0.15418774 -0.07861849
000090 44 d4 93 bd 5e 20 89 3e 3e 7a 86 be d2 52 76 be
       -0.07218221 0.26782507 -0.26265138 -0.24055031
0000a0 26 1c a6 3b 2f 87 f7 3d 39 b7 33 be 29 34 cc 3d
       0.0050692735 0.12086331 -0.17550363 0.09970886
0000b0 62 67 05 3e 7c 32 11 be 84 0f 75 bd 5c 92 87 3e
       0.13027719 -0.14179415 -0.05982925 0.2647885
0000c0 35 d9 77 bd 23 3e 08 be 14 07 d4 3c 64 78 60 3e
       -0.06050988 -0.13304953 0.025882281 0.21920925
0000d0 e0 14 a5 bd 24 31 f6 3d b2 f9 82 3e 7e e8 85 be
       -0.08060622 0.120210916 0.25581127 -0.2615394
0000e0 1f 47 07 be 55 a4 03 3e 93 5b cd bc 7c 9d 0b 3d
       -0.13210724 0.12855656 -0.02506808 0.034085736
0000f0 6e 85 04 3e bb ad 32 be 6e a6 22 bd a2 f4 71 3e
       0.12941524 -0.17449085 -0.0397095 0.23628476
000100 74 a9 37 3e 1f 4f c8 bd ce 66 21 be 60 3f 36 3e
       0.17935735 -0.09780716 -0.15761873 0.17797613
000110 15 28 0d be 07 a5 3e 3e 0f 24 f5 3d 2b c5 4e bd
       -0.13784821 0.1861764 0.11969768 -0.050481003
000120 53 f0 55 bb dc 51 1d 3e 2c eb 29 3e 0c 05 05 3e
       -0.0032644465 0.15363258 0.16593617 0.12990206
000130 89 6d 70 be 03 a2 0d 3e 8f 8f 89 3d c9 a6 24 3e
       -0.23479284 0.13831334 0.06716835 0.16079248
000140 d3 da 83 bd 70 f3 a7 bd fe 61 cc 3d 82 5e 36 be
       -0.06438222 -0.08200729 0.09979628 -0.1780949
000150 16 f7 7e 3d e3 38 82 be 9b b0 34 3e a7 8a 43 be
       0.06224736 -0.25434026 0.17645495 -0.1909586
000160 09 90 3a 3d 06 b8 30 be 85 3d a6 bd a3 4e 24 be
       0.04554752 -0.172577 -0.08117203 -0.16045623
000170 0f 3e 0e 3e 24 d2 89 be 66 ca a2 bd 2f 82 cf bc
       0.13890861 -0.26918137 -0.07948761 -0.025330631
000180 07 02 5e 3d ab bc 7e 3d ea 12 46 be bf 03 2a 3e
       0.054201152 0.062191647 -0.19343153 0.16602992
000190 6f f6 30 3d 64 54 f7 bc 89 9e 1f be ab 31 0a be
       0.043203767 -0.030191608 -0.1558782 -0.1349551
0001a0 ff 7e ce bd 15 ba 17 3d 98 3e c9 bd 47 3f 90 3d
       -0.10082816 0.037042696 -0.09826392 0.07043319
0001b0 62 c5 cd bc a3 6a fc bd d5 df 65 3e 87 0f 80 bd
       -0.025118534 -0.12325027 0.22448666 -0.062529616
0001c0 34 bf da bc 3b 23 89 3e 31 67 91 bd 46 f2 87 bd
       -0.0267025 0.2678469 -0.0709976 -0.06638007
0001d0 66 34 3b be b2 7f b0 3d 02 ed 0c 3c 76 d7 2e 3e
       -0.18281707 0.08618106 0.008601429 0.1707438
0001e0 f0 7f 8c 3c c9 e6 4a 3d 35 71 4d bc 32 59 d9 bd
       0.01715085 0.0495365 -0.012539198 -0.10612716
0001f0 92 1d 42 be 95 6d 03 3d b8 8c 13 be 50 de 85 bd
       -0.18956593 0.032086927 -0.14409149 -0.06536543
000200 44 1c 95 3d 56 6f 4e be 16 d2 02 be 94 c9 44 be
       0.07280782 -0.20159659 -0.12775454 -0.19217521
000210 45 f1 5f 3d 21 5b 00 3e 91 67 24 3d 20 81 17 3e
       0.054673452 0.12534763 0.04013783 0.14795351
000220 cf 02 2a 3e 46 b9 7c 3e 29 b3 21 bd 79 f9 4a 3d
       0.16602634 0.24680051 -0.0394775 0.049554322
000230 9c fd 4e bd 64 4e 2f be a5 b5 9a bd 13 7e ba 3c
       -0.05053483 -0.17119747 -0.07554177 0.022765195
000240 63 0f 15 3d e0 95 bd bd fe 8f 06 3d 1a 2e 5f be
       0.036391627 -0.09257102 0.032852165 -0.2179493
000250 d1 7e 3c be 75 a2 2f be 82 dc 57 be 5e de b7 bd
       -0.18407752 -0.17151816 -0.21080211 -0.0897796
000260 f3 e7 bb bd c6 1c 2c bd 71 a6 38 3b 26 d2 82 be
       -0.091751 -0.042019628 0.0028175379 -0.25550956
000270 68 eb 01 3d a7 69 81 3e 1f 10 83 3e 0e ed 64 3e
       0.03171864 0.2527592 0.25598237 0.22356054
000280 d3 3f 91 3d 64 a1 01 3e 5f ab 80 be 2d 79 1e 3e
       0.07092252 0.12659222 -0.25130746 0.15475912
000290 20 55 66 be ef 17 75 be a5 47 15 3e a4 ee e7 3d
       -0.2249341 -0.23934911 0.14578111 0.11324814
0002a0 8d dd 6a 3d 10 bd f0 bc 0d 90 8c 3e d1 9f 7e 3e
       0.057340194 -0.029387027 0.27453652 0.24865653
0002b0 0e da a8 3c 2b 4b c5 3d d7 b4 07 bd 0b 55 7e be
       0.02061179 0.09633478 -0.033131447 -0.24837129
0002c0 5c 7a 83 be 1f e4 6b 3e ae 66 42 3e 7f da 63 3e
       -0.2567929 0.2303624 0.18984482 0.22251318
0002d0 3f 37 6b be 26 96 38 bd d2 81 e9 ba 18 5a d1 3c
       -0.22970293 -0.045065068 -0.0017815179 0.025555655
0002e0 b3 b8 5f be b3 c6 41 bc 9c a1 4c 3e 45 f0 29 bd
       -0.21847801 -0.011827159 0.19983524 -0.041488905
0002f0 c2 38 4a be d5 ed 19 be 28 0c 25 3e ce f8 0a 3e
       -0.19748214 -0.15032132 0.16117918 0.13571474
000300 ca 07 54 be 97 81 b8 bd 37 90 59 3e 67 28 f6 bd
       -0.20706096 -0.09009092 0.2124642 -0.12019425
000310 c8 eb e7 3b 04 87 e4 bd f7 e8 64 3e 33 d3 25 be
       0.007077668 -0.11158565 0.22354494 -0.16193847
000320 9d a7 cb 3d 1f 42 0d 3d 3a e9 8b 3e f0 37 94 bd
       0.09944079 0.034486886 0.27326375 -0.07237232
000330 83 b4 9b 3d a2 40 27 be cd 16 22 3d 2d 63 10 3e
       0.07602789 -0.16333249 0.039572526 0.14100333
000340 d6 d5 17 3e 02 fc 8a 3e 48 56 eb bd 41 bb 36 3e
       0.14827666 0.27145392 -0.11491066 0.17844869
000350 09 80 25 bd 50 f1 8b bb 42 2c 06 be 04 45 cb 3d
       -0.040405307 -0.00427071 -0.1310282 0.09925273
000360 d4 c1 25 be 1c a1 25 3e 6e 0d 56 3e ba c5 6c be
       -0.16187221 0.1617474 0.2090356 -0.23122302
000370 b7 dc 35 bd a9 79 05 3e 4f 69 88 be 58 85 4e 3e
       -0.044399943 0.13034691 -0.26642844 0.20168054
000380 a3 f5 05 be 79 ca 48 bd 22 49 f3 bd 7d 9c 21 3e
       -0.13081984 -0.049021218 -0.11879183 0.15782352
000390 86 4b f6 3d 35 3c 66 3e db f4 79 3e 74 19 29 be
       0.12026124 0.22483905 0.24409811 -0.16513616
0003a0 49 09 18 3e 4f cc 60 3d 17 d3 5e be 2d c8 32 3d
       0.14847292 0.054882344 -0.21760212 0.043647934
0003b0 e9 b9 e1 bd d2 a9 d0 bd a0 3f 84 bd ea d6 43 be
       -0.11021788 -0.10188641 -0.06457448 -0.19124952
0003c0 41 a3 de bd f9 31 ea 3d 2f 98 23 be 6f 0e 83 bd
       -0.10870982 0.11435313 -0.15976022 -0.06399237
0003d0 a9 db a6 bc 60 a9 68 be fc b7 35 3e 4a 66 79 be
       -0.020368414 -0.22720861 0.17745966 -0.24355426
0003e0 ef e4 e4 3c dc ea 70 bd 4e 72 a8 bd 98 49 15 be
       0.027941195 -0.05881773 -0.08224927 -0.14578855
0003f0 a7 61 84 3d d2 44 84 be 06 d1 e3 3d 4c 72 d0 bd
       0.06463938 -0.25833756 0.111238524 -0.101780504

lstm.bias_ih_l0 f4 [52]
000000 6d e7 0f 3e 81 45 aa 3d 75 18 f0 bd 22 59 0e 3d
       0.14053126 0.08314038 -0.11723415 0.034752972
000010 68 3e 2e 3e 5b 3f fc 3c 6e 21 1e 3d a0 72 55 3e
       0.17015994 0.030791929 0.0386061 0.20844507
000020 12 7a 0f be e1 af e9 bd b6 a9 71 bc 04 aa 80 3e
       -0.1401141 -0.11410499 -0.014749935 0.25129712
000030 1e 29 8e bc ae 6f d6 bd a8 e9 d7 bd 43 37 20 be
       -0.01735359 -0.1047052 -0.10542613 -0.1564608
000040 ed 58 2d 3e 1a f5 9b 39 ff d9 54 be ac 41 98 bd
       0.16928454 0.0002974652 -0.20786284 -0.07434401
000050 f5 9b c6 3c 54 9a 14 3e 0b c2 ef bd 03 ee 4a 3e
       0.024244288 0.14511997 -0.11706933 0.19817357
000060 6a e0 ae bd 1f d0 6c be 11 78 01 be 0f 16 27 3e
       -0.08538897 -0.23126267 -0.12643458 0.16317008
000070 0f 5e ba 3d d0 bd de bd 65 46 88 3e 21 d5 0f 3e
       0.090999715 -0.108760476 0.26616207 0.14046146
000080 a6 bb 87 3e bb 62 71 be 5d 9f 68 bc 8a d5 29 3c
       0.26510352 -0.23572819 -0.014198151 0.010365853
000090 01 32 24 be 02 45 52 3d dd b1 80 be a8 6f 8a 3e
       -0.160347 0.051335342 -0.251357 0.27038312
0000a0 72 66 8e 3d 56 5d 36 bd 0c 5d 41 be 94 d0 12 be
       0.06953134 -0.044522606 -0.18883151 -0.14337379
0000b0 b7 dd 77 be 5b e6 17 bd 3d 3f 4d be 21 16 1e bd
       -0.24205671 -0.03708492 -0.20043655 -0.038595323
0000c0 a7 82 22 3c 53 43 1a 3b 75 12 06 3d fc 3d be 3c
       0.009918845 0.0023538664 0.032732446 0.023222916

lstm.bias_hh_l0 f4 [52]
000000 0e ee 2e 3d ea 48 0d be 86 fd a4 3d 3a bd 79 be
       0.042707495 -0.13797346 0.08056168 -0.2438859
000010 ff 5d 71 3e f0 74 80 3e 3b 04 55 3e 9e 76 51 be
       0.23571013 0.25089216 0.20802395 -0.20455405
000020 be ed 0e be 02 7d 05 3e cf 27 67 be be a2 30 3e
       -0.13957879 0.13035968 -0.2257378 0.17249581
000030 6e 21 3c 3c 8d a8 74 3d d7 39 b8 bd f6 ce e0 bd
       0.01148258 0.059731055 -0.08995407 -0.10976975
000040 17 a3 4f 3e b3 b6 4d be 28 1c ce 3d 5e c6 8c bd
       0.20277058 -0.20089225 0.10063964 -0.06873773
000050 71 be 0d 3d f5 13 76 be fd 95 4d 3e a2 57 54 be
       0.034605447 -0.2403105 0.20076747 -0.20736554
000060 84 81 2e be 7f a2 ab bc 8a 40 75 be 9e 03 6b bc
       -0.17041594 -0.020951508 -0.23950401 -0.014344124
000070 b7 2c 9b 3c 6b 7d b7 3d d2 7e 09 be 46 bc 4b bd
       0.01894222 0.089594685 -0.13427284 -0.0497401
000080 ba b5 9b 3d d9 33 58 be e3 14 67 3e 6a da 0e 3d
       0.07603021 -0.21113528 0.22566561 0.034876265
000090 88 54 85 3e 60 49 f9 3d c2 52 50 3e 8d e2 08 be
       0.26041055 0.12172198 0.2034407 -0.13367672
0000a0 cb b7 ca bd 09 07 4e 3e b3 7f 48 be 01 34 9a bd
       -0.09898337 0.20119871 -0.19579963 -0.0752945
0000b0 8b ec f9 bd 2c ab 9b bd c7 ef bc 3c d2 66 33 3c
       -0.1220332 -0.07601008 0.023063553 0.010949807
0000c0 43 2b 79 3e 84 76 85 3d 4f 05 e9 3d fe 65 4b 3e
       0.2433291 0.06516746 0.11377966 0.19863126

lstm.weight_ih_l1 f4 [52, 13]
000000 5f 25 d5 3d e5 e8 0e 3e e6 d4 e7 3d 6f 66 63 be
       0.104075186 0.1395603 0.11319904 -0.22207044
000010 97 6a 1a be 51 08 72 be b1 33 8d be 5e e6 09 3d
       -0.15079723 -0.23635985 -0.275785 0.03366696
000020 17 95 a0 3d 76 ea be 3d b2 6e 73 be 80 b8 f7 3d
       0.07840937 0.093220636 -0.23772696 0.120957375
000030 ff 5b 4c 3c 7d 10 b7 3d 46 ee 8c 3e c2 24 43 3e
       0.012473105 0.08938692 0.27525538 0.1905699
000040 e4 8e 06 3e f2 4a bf bc 40 65 c0 3d 0c 4f 08 bd
       0.13140446 -0.023351166 0.09394312 -0.03327851
000050 0e 44 db 3c 7b 3a 62 bd ec 03 35 be 3f 5e 8d 3e
       0.02676585 -0.055231553 -0.17677277 0.27610967
000060 9f e8 9b 3b b0 0e 2b be 7e 78 91 bc a1 5b 14 bd
       0.004757955 -0.16704822 -0.01775765 -0.036220197
000070 41 b2 ab 3d 7e 23 8c 3e a3 56 20 bd a8 da 89 be
       0.083836086 0.27370828 -0.039145123 -0.26924634
000080 0f a7 14 3e d9 f9 2d bd c8 04 79 3d 12 39 87 bd
       0.14516853 -0.0424746 0.060795575 -0.06602682
000090 57 3d 2a bd 13 ae 6b 3e 89 f7 c3 bd cb 76 d5 bd
       -0.041562404 0.23015623 -0.09568698 -0.104230486
0000a0 57 d0 10 3e 8f e6 98 3c 9f 2a 8b 3e d6 c5 f6 3d
       0.14141975 0.018664626 0.27180955 0.12049453
0000b0 a4 54 25 3e 2e a9 73 bd db 94 09 3e 4e 35 bd 3d
       0.16145569 -0.059487514 0.1343569 0.09238683
0000c0 ff ca 52 3e 20 b6 36 be d5 cb 84 3e 72 2f 40 3e
       0.2058525 -0.17842913 0.25936761 0.18768099
0000d0 24 ad 4e 3d c5 20 80 be ce 0e 97 3d 64 96 61 3e
       0.05045809 -0.25025 0.07375871 0.22030026
0000e0 32 18 23 3e 25 56 4f be af b2 5c be 40 5b 4f 3e
       0.15927199 -0.20247705 -0.21552537 0.20249653
0000f0 16 cd 56 be 22 10 d3 bd b9 ed 88 3c 5d 3a 9d 3c
       -0.20976672 -0.103058115 0.016714917 0.019192869
000100 c1 fc 78 3e d5 0d 52 3e b2 7c 4c 3e f9 17 17 be
       0.24315168 0.20513089 0.19969442 -0.14755239
000110 ce 33 8d be f2 40 4f be 2a 24 9c 3d ec 20 50 3e
       -0.27578586 -0.20239618 0.07624085 0.20325059
000120 c1 84 b3 3d fd 60 2a 3e 89 55 2f be fb 1d a1 bc
       0.08765555 0.1663856 -0.17122473 -0.019667616
000130 65 e0 49 be ef f8 81 be 10 6d bb 3d f9 db 04 3e
       -0.19714506 -0.25385234 0.091516614 0.12974538
000140 c3 c5 59 be 78 ac 3c be a3 8a 57 be 60 2d 47 be
       -0.21266846 -0.18425167 -0.2104898 -0.19450903
000150 1b 0a ea 3d 2c a9 10 be e9 f9 4c bd 5d 08 08 be
       0.11427709 -0.14127034 -0.05004302 -0.1328444
000160 39 8a 76 be 98 51 b7 3d 63 77 41 3e 00 7d 34 bc
       -0.24076165 0.0895111 0.18893199 -0.01101613
000170 52 f8 84 3d 5e df c4 3c 03 ce 2a be f4 d4 5e be
       0.06492676 0.024032291 -0.1668015 -0.21760923
000180 ca 3d 52 be 09 4c 4b 3e 87 b4 da 3c 2b a6 94 bd
       -0.20531383 0.19853224 0.02669741 -0.072582565
000190 21 f9 0a 3e 0b 09 50 3e c4 0a 3a be c1 a3 8f 3d
       0.13571598 0.2031595 -0.1816817 0.070136555
0001a0 4f f2 27 be e4 df 3f be ad b3 ae 3d 93 f4 1f be
       -0.16401027 -0.18737751 0.08530364 -0.15620641
0001b0 e4 c5 21 3e 9e ec 8a 3e 6d 08 5f be 62 eb 82 bd
       0.15798146 0.2713365 -0.21780558 -0.06392552
0001c0 1a c5 71 be c4 a1 02 3a ea 69 84 be ce 1f a9 3c
       -0.23610345 0.00049832114 -0.25862056 0.020645048
0001d0 c0 a6 59 3e 4c 49 d4 bd 9f f4 16 3e ae ab 5b bd
       0.21255016 -0.10365543 0.14741753 -0.053630523
0001e0 af 21 81 be 92 67 2f 3e f3 ad b5 bd 7d 3a 4f be
       -0.2522101 0.17129353 -0.08871069 -0.20237155
0001f0 16 1e 8a be 5a 26 a4 3c c4 07 ed b9 07 c6 4f 3e
       -0.2697608 0.020037819 -0.00045209948 0.20290385
000200 e4 eb a8 bd be 92 7a be da 1d 31 be 64 e1 1d 3e
       -0.082481176 -0.2447004 -0.17296544 0.15418011
000210 dc 4f a0 bd c4 30 37 be e6 45 54 3d 2f c7 9b bd
       -0.07827732 -0.17889696 0.051824473 -0.07606351
000220 44 b6 62 3e 5a e2 26 3e 54 e2 0f 3e 00 a7 88 bb
       0.22139841 0.16297284 0.14051181 -0.0041702986
000230 8d 34 fa bc 15 af 51 3e e9 dc 2a be e5 b4 59 be
       -0.030542636 0.20476945 -0.16685833 -0.21260412
000240 92 a8 95 bd b3 e9 ff 3d 4e 3d 6b 3d 56 37 28 3e
       -0.07307543 0.124957465 0.05743151 0.16427359
000250 87 3f 4b be 33 c2 4a be bf 40 09 3e 45 a1 33 bd
       -0.19848453 -0.19800644 0.13403605 -0.04385497
000260 32 54 71 be 73 2b 80 3e ec 38 82 be 38 ac 53 3e
       -0.23567274 0.2503315 -0.25434053 0.20671165
000270 de 74 14 bc b9 3b 9c bd 67 5e a0 bc f0 0d 5b 3d
       -0.009061066 -0.07628579 -0.019576265 0.05348009
000280 3e 0e 4f be 88 6e 7c be 77 fd 87 3e c3 1e 6b 3e
       -0.20220277 -0.2465154 0.26560566 0.22960953
000290 5a 9d 3c be 30 43 80 3e c4 7e 36 be 81 c0 32 3e
       -0.184194 0.2505126 -0.17821795 0.17456247
0002a0 47 d0 4d 3e f6 09 d9 bc ba ff dc bd e5 e1 21 be
       0.20098983 -0.026494008 -0.107909635 -0.15808828
0002b0 86 f2 3b 3d 2d 57 58 be ea 7e 8d be 21 bd 8f bd
       0.045885585 -0.21127005 -0.2763589 -0.07018495
0002c0 55 ed 82 3e 74 f0 5e be 4c aa 3b 3e b3 dd 39 3e
       0.25571695 -0.21771413 0.18326682 0.18150978
0002d0 ad 04 00 be d2 a2 6d 3e 92 7d c9 ba 63 35 a6 3b
       -0.12501784 0.23206642 -0.0015372506 0.005072282
0002e0 bf 65 74 3a 5c 0f b1 3d 69 59 2c 3e e8 e9 44 bd
       0.00093230227 0.08645508 0.16830982 -0.048074633
0002f0 d1 c7 1c 3d 5c 5b 8d be 51 29 7d be d6 dd cb bd
       0.038276497 -0.27608764 -0.24722792 -0.09954421
000300 08 04 aa 3d 73 57 bb 3c 26 de 64 be fa 69 86 be
       0.0830155 0.022868847 -0.22350368 -0.2625273
000310 97 49 47 3e 45 d2 47 be b3 47 b1 bd 5c 64 e8 3d
       0.19461666 -0.19513805 -0.08656254 0.11347267
000320 4c 0b 5d 3e 06 a6 85 3e 54 5e 50 3e 2b 60 4a bc
       0.2158634 0.26103228 0.20348483 -0.01235203
000330 77 d9 47 be de af 83 be 4c 68 ca bd 8d ce 4a bd
       -0.1951655 -0.25720114 -0.09883174 -0.04951339
000340 3b a2 07 3e 57 63 1c be 30 b6 43 be 47 31 0d 3e
       0.1324548 -0.1527227 -0.19112468 0.13788329
000350 54 92 6e be 07 f2 e6 bd 66 5d 3d 3e 77 a2 82 3e
       -0.23298007 -0.11276632 0.1849266 0.25514576
000360 d9 a8 6b bd ad 2e c7 bd eb 47 82 be 38 66 a0 bd
       -0.057534073 -0.097256996 -0.25445494 -0.07831997
000370 94 a8 2e 3c d1 c7 69 3e 06 09 df bd 21 d8 6c bd
       0.010660309 0.2283013 -0.10890393 -0.057823304
000380 e7 a8 28 3e 99 0d 4b 3e 09 72 33 be 48 61 cf 3d
       0.16470681 0.19829406 -0.1752397 0.10125977
000390 4a a8 77 3e 01 fd eb bd 86 28 1c be a3 38 8d 3e
       0.24185291 -0.11522866 -0.15249833 0.27582273
0003a0 d3 0f 91 bd 5a 9e 6f bc 5c f0 7e 3c cc 4b 85 3e
       -0.07083096 -0.014625156 0.015560236 0.2603439
0003b0 48 d4 25 3e 61 95 81 3e 4b 74 c1 bd de 31 38 be
       0.1619426 0.2530928 -0.09446009 -0.17987773
0003c0 a3 4c 7e be da 72 56 3e 0f 8d 27 3e 80 7c e0 bd
       -0.24833922 0.2094225 0.16362403 -0.109612465
0003d0 74 0d cf 3d 08 3e 40 3e 02 59 2f 3e bd 5d 2e 3e
       0.10109988 0.18773663 0.17123798 0.17027946
0003e0 10 e1 15 3e a5 5a 5f 3e 2e de 28 3d 6c 20 42 bd
       0.14636636 0.21811922 0.041227512 -0.0473942
0003f0 dd 50 58 3e 8d 10 6a be a7 d8 b3 bd c3 26 8c be
       0.21124597 -0.22857876 -0.087815575 -0.27373323

lstm.weight_hh_l1 f4 [52, 13]
000000 75 5f 66 be 53 56 6d bd 40 b6 8c 3e d9 19 2d be
       -0.22497351 -0.057943653 0.27482796 -0.16904391
000010 27 51 18 be 43 91 87 be 59 f5 c4 bc 2f 5c 85 be
       -0.14874707 -0.26478013 -0.024042772 -0.26046893
000020 fa 76 18 be d0 01 11 be a9 e5 a6 3d e9 b4 f7 3c
       -0.14889136 -0.14160848 0.08149273 0.030237632
000030 c5 31 28 3c 70 62 41 3b 6f 9b 06 bd b4 da 53 3c
       0.010265772 0.0029508136 -0.032863077 0.012930561
000040 a3 d9 99 3d c1 42 1d 3e 89 d6 72 be 81 2b c4 3b
       0.07512214 0.15357496 -0.23714651 0.0059866314
000050 24 b8 6a be 34 a2 8a 3c f7 f0 68 be 18 81 cb bc
       -0.22921807 0.016923048 -0.22748171 -0.02484183
000060 31 bc 3c be 70 10 07 be 49 89 ca 3c 6b 99 ad 3d
       -0.18431164 -0.13189864 0.024723666 0.08476528
000070 bf 94 46 3c 5f 3e 05 3e d2 60 52 be 0d 0c 99 3d
       0.012120425 0.13012074 -0.20544747 0.07473002
000080 2a 92 37 3e 92 aa e7 bd e2 be af bd 41 5d 69 3e
       0.17926851 -0.113118306 -0.0858133 0.2278948
000090 58 5b 77 be 6f a1 d2 3c 2e 92 ea 3d 5b d5 06 3e
       -0.24155939 0.025711743 0.11453663 0.13167326
0000a0 3a a9 a4 3d 1f 26 9f 3d e2 7d 02 bd 91 46 9d bd
       0.0804009 0.07770943 -0.031858332 -0.07679475
0000b0 14 f8 20 be c3 b3 88 be 14 e3 ac bd 1e c9 6c bd
       -0.15719634 -0.26699647 -0.08441749 -0.057808988
0000c0 d7 7b 40 3e b3 bb c9 ba c0 8c 62 3d 8c 2b 7e be
       0.18797241 -0.0015391022 0.05531001 -0.248213
0000d0 76 c0 23 be 71 07 51 3e 6e 3c a8 bd 7d 4e a0 3d
       -0.15991387 0.20412995 -0.08214651 0.078274705
0000e0 0b f8 8a 3e bc a6 82 3e 08 1d 54 3e b4 19 86 be
       0.27142367 0.25517833 0.207142 -0.26191485
0000f0 bf de 94 3c db fd 83 3e 88 34 c2 bc ab 1f 60 3e
       0.01817262 0.25779614 -0.02370669 0.2188708
000100 98 72 70 3d 44 1a 57 bd 71 6d 4c be 46 f3 1b 3e
       0.058703035 -0.052515283 -0.19963624 0.1522952
000110 12 5d 49 be 24 a3 81 3d 99 9a fd 3d 11 3a 60 be
       -0.1966441 0.06329945 0.12383003 -0.2189715
000120 64 87 5e be 45 49 2f bd 54 8d c9 bd 60 a6 70 be
       -0.21731335 -0.042794485 -0.09841409 -0.23500967
000130 0c ed ac bd 45 92 6c 3d 6e 50 a9 bd 74 e3 21 be
       -0.084436506 0.05775668 -0.08267294 -0.15809423
000140 39 6e cd bc 16 00 5e bd 82 96 78 3e 64 d0 79 3d
       -0.025076972 -0.0541993 0.24276164 0.060989752
000150 ab bc 97 3d 4b 6f 83 3e 73 23 97 bd e1 4b 76 be
       0.074090324 0.25670847 -0.07379808 -0.24052383
000160 b3 4e ba 3d 98 77 22 bd 02 19 0c be 31 bb 7c 3d
       0.09097042 -0.039664835 -0.13681415 0.061701957
000170 42 ce 89 3e 20 7a ec bd c0 e1 8a 3d 34 d2 61 be
       0.26915175 -0.11546731 0.0678134 -0.22052842
000180 bd 3b 88 be 04 8d d8 bb dd 05 79 3e 0e 7e 20 bd
       -0.26608077 -0.0066086072 0.24318643 -0.039182715
000190 84 1a ee 3d 78 64 8b 3d 83 f7 80 be b0 2b ab bd
       0.11626151 0.06806272 -0.25188836 -0.08357942
0001a0 68 83 18 bd 34 2c 3c be d3 e4 62 3e 38 2d 46 be
       -0.037234694 -0.18376237 0.22157602 -0.19353187
0001b0 76 d8 36 3e ed ae 22 be 08 54 0f 3e 17 d6 b3 bd
       0.17856011 -0.15887041 0.13996899 -0.08781069
0001c0 9f a5 88 3e ef 54 86 3e d3 03 77 be 4e 95 f2 bd
       0.2668886 0.26236674 -0.24122553 -0.11844884
0001d0 ca 93 6d 3e bd 5a 53 3e b7 a0 8a 3e f8 c6 e3 3d
       0.23200908 0.20640083 0.2707574 0.11121935
0001e0 ec e1 4d be 74 9f 06 be 56 e2 88 3d cb de 46 3e
       -0.20105714 -0.13146764 0.06683795 0.19420926
0001f0 72 04 4b be d3 bb 3f bd ef 69 60 be ef f4 d2 bd
       -0.19825915 -0.046809983 -0.2191541 -0.103006236
000200 5e ca 26 be 24 4d a5 3d 08 c2 6a be 06 5b 74 be
       -0.16288134 0.08071354 -0.2292558 -0.23862848
000210 85 c2 95 bd 90 45 f0 3d 46 84 1e be 58 2a 76 3e
       -0.07312492 0.11732018 -0.15480146 0.2403959
000220 a9 5b b5 3d 00 34 69 be 87 fd 89 bd a0 39 8c be
       0.088553734 -0.22773743 -0.0673781 -0.27387714
000230 5a 65 81 be e3 9f df 3d 4e 9e 93 bd 1c 61 6e 3e
       -0.25272638 0.10919168 -0.072079286 0.23279232
000240 33 3c 76 bd 98 e3 37 3e da c3 87 bc b6 ec 33 3e
       -0.060116004 0.17957914 -0.016572881 0.17570767
000250 91 66 d8 bd d4 54 62 3d 1c 5d ce 3d 55 40 75 be
       -0.10566438 0.05525668 0.10076353 -0.23950322
000260 22 22 31 be 08 1d 7c be a6 c7 2d 3c c9 1a dd bc
       -0.17298177 -0.2462045 0.010606682 -0.026990311
000270 7f 16 86 bd 3e af 0b be c6 92 69 be 9a af 66 b9
       -0.065472595 -0.13641068 -0.22809896 -0.00021999926
000280 07 27 ce 3d a5 1e 67 be ed 71 72 bd 57 43 73 3e
       0.100660376 -0.22570284 -0.05919068 0.23756157
000290 80 c2 7d be 6f e0 8d 3e dd 59 fb 3d e2 ac b9 3c
       -0.24781227 0.27710292 0.122729994 0.022665445
0002a0 87 6e a8 bd ed 65 67 bd 02 90 8f 3d 24 90 9f 3d
       -0.082242064 -0.05649369 0.07009889 0.077911645
0002b0 8a 2c 4e 3e 04 7a 33 be 1d 00 7d bd ee 3e 13 bd
       0.20134178 -0.17527014 -0.061767686 -0.035948686
0002c0 67 68 64 3e 65 06 32 3e b2 67 b7 bc 1b c9 17 3e
       0.22305451 0.17385252 -0.022388313 0.1482281
0002d0 86 9d 01 3e 7f 88 8b be f0 2e 8d 3e 31 92 68 bc
       0.12657747 -0.27252576 0.27574873 -0.014195011
0002e0 cf 30 83 3c 21 58 3d be 72 da 4b be 33 ee 74 be
       0.016014485 -0.1849065 -0.19907549 -0.23918991
0002f0 00 93 51 be f8 3d 42 be 3f 98 3b be 2f f2 9c bd
       -0.20466232 -0.18968952 -0.18319796 -0.0766338
000300 e7 0f 42 3e 58 8a ed bd da 33 10 be 48 1b c4 bd
       0.18951379 -0.115986526 -0.1408228 -0.09575516
000310 ea e0 9d 3d 98 58 b2 bd 84 74 25 3e a8 8a 7c 3e
       0.077089146 -0.08708304 0.16157728 0.24662268
000320 cb f0 db bd 4a a5 42 3e fe 49 27 3e 08 79 56 be
       -0.10739287 0.19008365 0.1633682 -0.20944607
000330 4b d2 b0 3d 69 85 f8 bc fd c2 28 be 9c 95 f6 3d
       0.0863386 -0.030337052 -0.16480632 0.120402545
000340 7d 2a 31 3e c7 c4 9a 3d cd a2 3e bc 9c 2c 5b 3e
       0.17301364 0.075570635 -0.011635494 0.21403736
000350 08 71 7b 3e 51 fe d7 bd 9a 23 48 be 48 24 40 3d
       0.24554837 -0.10546554 -0.19544831 0.0469096
000360 9a cf 96 bd 87 b5 bd 3c f6 b3 35 3e d9 90 8e bd
       -0.073638156 0.023157848 0.17744431 -0.06961221
000370 4f 00 6c 3e e2 2b 3f be 29 72 41 be 4a 4d 47 bd
       0.23046993 -0.18669084 -0.18891205 -0.048657693
000380 6f db 8d 3e 91 e9 86 3e 49 32 91 bd ab b6 0e be
       0.27706477 0.26350072 -0.07089669 -0.1393687
000390 c6 a2 7f be b6 3d 40 3e 17 18 12 be 14 8a 15 be
       -0.24964437 0.18773541 -0.14267002 -0.14603454
0003a0 55 9f e2 bc ff 89 23 bb d9 fa 0e 3e 13 f5 58 3e
       -0.027663866 -0.0024954078 0.13962878 0.21187238
0003b0 89 56 71 be 63 d3 78 be bf 13 27 be 24 b4 ab bd
       -0.23568167 -0.24299388 -0.16316126 -0.083839685
0003c0 87 5d eb bd 9b ae 69 3e 44 b1 3b be df cc 73 be
       -0.11492448 0.22820513 -0.1832934 -0.23808621
0003d0 fc 5b a1 3d e8 89 80 3d 46 91 83 3e df 32 00 3e
       0.07878873 0.062763035 0.25696772 0.12519406
0003e0 d4 87 53 3e b3 c7 3c 3c 55 30 5a bd 39 b7 61 bd
       0.20657283 0.011522221 -0.05326875 -0.055106375
0003f0 3b fb 75 3d f2 13 8c be 22 83 db 3d f7 4f 46 bc
       0.060054045 -0.27358967 0.10718371 -0.012104026

lstm.bias_ih_l1 f4 [52]
000000 c8 b2 86 be b3 f0 d3 bd bc f5 21 3e a6 70 0f 3e
       -0.26308274 -0.10348644 0.15816396 0.14007816
000010 47 56 56 be b2 cf 44 3c 7e 48 1e 3e be 7c 3a 3e
       -0.2093135 0.012012409 0.15457341 0.18211648
000020 9c 57 62 3e 55 32 6b be 1e 31 21 3e 8d c5 7d bd
       0.22103733 -0.22968419 0.15741393 -0.061955977
000030 6d c9 7d 3e 99 13 18 3d 24 76 33 bd 00 6a 52 be
       0.24783869 0.037128065 -0.04381384 -0.20548248
000040 f7 04 bf bd 2f 3c 61 3d ee 78 cb bd 1f 83 47 3e
       -0.09327119 0.054989036 -0.09935175 0.19483612
000050 5b 14 9f 3c 99 4d 14 3e d5 a0 e3 3d 52 4b 28 be
       0.019418886 0.14482726 0.11114661 -0.16434982
000060 b7 49 64 3e 8d a4 6f be 9e b8 8a 3e 23 34 e2 3d
       0.22293745 -0.23402615 0.27093977 0.110451005
000070 d1 e1 05 3c df d1 b4 bc 1f 38 aa bd 86 65 66 3e
       0.008171515 -0.02207273 -0.083114855 0.22499666
000080 a5 49 67 3e a2 c4 e5 3d a7 c6 9a 3c ad 54 44 3e
       0.22586687 0.11219145 0.018893553 0.19172926
000090 2e 28 79 bd 3c 33 03 3e 2f 1e 4d 3e 43 55 d6 3d
       -0.060829334 0.12812513 0.20031045 0.10465481
0000a0 f6 13 95 bd 30 3c 82 3d ac de 09 bd c2 62 16 3e
       -0.07279198 0.06359136 -0.033659622 0.1468611
0000b0 eb 49 51 3e 14 7a 12 3e 49 aa 33 be ab bc 6b 3e
       0.20438354 0.14304382 -0.17545427 0.2302119
0000c0 40 6f a9 bd 52 d3 f3 3d 36 7f eb bd c5 d6 be 3d
       -0.082731724 0.119055405 -0.11498873 0.09318308

lstm.bias_hh_l1 f4 [52]
000000 3f 2d 78 bd 54 9a 40 be 1b d4 83 be 5e 4d 75 3e
       -0.060590025 -0.18808872 -0.2574776 0.23955294
000010 9c 25 a1 bb 79 c4 90 3d c1 6e 53 3e 83 b9 cc 3d
       -0.0049178135 0.07068724 0.20647718 0.09996321
000020 75 fd 78 3e 75 45 ed bd bc 74 72 3a f5 7e e1 bd
       0.24315436 -0.115855135 0.0009248962 -0.11010543
000030 fc 95 48 3c 40 cb e9 3d 1b 86 4b 3e d4 5d c7 3c
       0.01224279 0.1141572 0.19875376 0.024336733
000040 4e c3 9d 3d f4 43 85 be 3d 27 a4 3d 74 62 27 3d
       0.07703267 -0.26028407 0.080152966 0.040865377
000050 89 65 6e be dd 21 33 3d 1c ec 67 be 17 d3 40 be
       -0.2328092 0.043733466 -0.22648662 -0.18830524
000060 82 93 ad bc 74 ac e5 3d 9e 7a 98 bd 67 e4 a5 3d
       -0.021188501 0.112145334 -0.07445262 0.08100205
000070 d3 25 6e 3e b1 52 60 be 2a 1a 57 be 9b 88 52 3e
       0.23256616 -0.21906544 -0.21006075 0.20559923
000080 37 70 b3 bd b7 68 63 be 02 46 a1 3d 36 c0 73 3e
       -0.08761638 -0.22207914 0.07874681 0.23803791
000090 33 0a 90 3d c7 52 93 bd 45 e1 77 be 02 6d 3d be
       0.07033195 -0.07193523 -0.24207027 -0.18498614
0000a0 11 76 fb ba 6a 47 00 be 9e 0d 84 3e 29 c1 f2 3d
       -0.0019184967 -0.12527242 0.2579164 0.118532486
0000b0 34 0f 17 3d 77 ed 8c be 7b 81 dc bd 59 6b 3b bc
       0.036879733 -0.2752492 -0.10766884 -0.011439168
0000c0 fd a6 1d be a9 7c fa bd 05 81 a9 3c e6 34 98 3d
       -0.15395732 -0.12230808 0.020691404 0.074319646

lstm.weight_ih_l2 f4 [52, 13]
000000 83 22 4c be 39 26 8b be 2c bb 22 3e 6f 31 16 be
       -0.1993504 -0.271776 0.15891713 -0.14667295
000010 b9 b6 24 3e bf a2 25 be f8 3a 44 bd 94 17 66 bd
       0.16085328 -0.16175364 -0.0479078 -0.05617483
000020 ca 3a 64 be 4f e2 17 3e 43 b2 44 3e 75 17 80 be
       -0.22288051 0.14832424 0.19208626 -0.25017896
000030 6e 7a 03 3e 51 8a 04 3d e6 3b 0e be 41 5d 86 3e
       0.12839672 0.03235847 -0.13890037 0.26243022
000040 a4 1b 08 be ca 6e 0a bd a3 03 35 3e c5 c7 20 be
       -0.13291794 -0.033797063 0.17677169 -0.15701206
000050 1e e6 89 be e2 2f ec 3d d4 a1 7e be 27 7b 3a 3e
       -0.26933378 0.115325704 -0.2486642 0.18211041
000060 5e 4d 3a 3e e7 9a 3d bd 2a ac a9 3d 20 10 5c 3e
       0.18193576 -0.046290305 0.08284791 0.21490526
000070 a2 81 14 be a7 30 83 bd a2 8c 01 3e 8e ae c4 3c
       -0.14502576 -0.06405764 0.12651303 0.024009015
000080 77 ae 83 3d 36 2c 4b be 24 87 49 3e f3 dc 06 be
       0.06429761 -0.19841084 0.19680458 -0.13170223
000090 d3 3b 28 bd c7 58 05 be 0a 40 16 3e ad a0 3b 3e
       -0.041072678 -0.13022147 0.14672866 0.18323012
0000a0 84 8d 1a be 04 f0 79 3e af 7b 69 be d9 67 29 be
       -0.15093046 0.24407965 -0.22801088 -0.16543521
0000b0 5d 45 f1 bd 1a d8 86 3c 43 3d 72 3c a9 22 bf 3d
       -0.11780808 0.016460467 0.014785114 0.09332783
0000c0 9e 18 43 3d 90 0d c2 3c fd cd 89 be 6a 57 ea 3d
       0.0476309 0.023688108 -0.2691497 0.11442454
0000d0 8d 2c 15 be 0d 15 73 be c2 53 4b be ec 4d 06 3e
       -0.14567776 -0.23738499 -0.1985617 0.13115662
0000e0 64 3f 52 3c 25 6e 8b 3e 78 8b 4e be a1 6a 0d be
       0.012832496 0.2723247 -0.2017039 -0.13810207
0000f0 85 7f 27 be 9d b6 8a be 74 8f 1b 3d 74 ff 86 3e
       -0.16357239 -0.27092448 0.037978604 0.2636677
000100 dc 3c b8 bd 9b eb 7f bd cb 25 19 3d 1f a2 6e 3e
       -0.08995983 -0.06248055 0.037389558 0.23304032
000110 87 dd 80 be e0 ac 2c be 40 a3 89 3c 5a 90 33 be
       -0.25169012 -0.16862822 0.016801476 -0.17535535
000120 29 b3 02 3e 2e a7 8d bc 20 04 94 bd 60 9a 38 bc
       0.12763657 -0.017291632 -0.07227349 -0.011267275
000130 33 e9 de 3c 02 fe 1a 3e ca 51 04 3e 49 67 33 be
       0.027210807 0.15135959 0.12921825 -0.17519869
000140 e3 cc 1b bc 8d e4 60 be f3 e1 00 bd 0f d7 aa bb
       -0.009509298 -0.21962185 -0.031465482 -0.0052136253
000150 40 32 5e 3d 49 35 55 3d 8d 10 41 be 8f 22 5c be
       0.05424714 0.05205277 -0.1885397 -0.21497558
000160 13 d2 81 be e4 96 bb bb 13 6b 82 bd 30 51 4d be
       -0.25355586 -0.0057247747 -0.06368079 -0.20050502
000170 d8 89 8d be 22 2a 5f 3e 44 16 7d 3e 57 11 5a 3d
       -0.2764423 0.21793416 0.24715525 0.053239193
000180 1a c9 8a bb 7f 11 c8 3d 28 c8 32 be fd 6f 27 3e
       -0.004235399 0.09768962 -0.17459166 0.16351314
000190 43 c6 6e bd cf ba b5 3d 97 17 de bc e9 9e 10 3b
       -0.058294546 0.088735215 -0.027110858 0.0022067374
0001a0 4e 53 32 3e dc b3 88 3e ac 12 c6 bc 99 40 53 3e
       0.1741459 0.26699722 -0.024178825 0.20630111
0001b0 28 b9 36 be 22 3a 7e 3e d7 4c 0d 3e 87 48 17 3e
       -0.17844069 0.24826863 0.13798843 0.1477376
0001c0 4b 08 77 bd b2 6d 25 3b 30 0d f0 bd 93 60 87 bd
       -0.060310643 0.0025242385 -0.11721265 -0.06610217
0001d0 ed 90 4c 3e f7 9e 65 3e c7 eb 75 be d3 01 25 be
       0.1997716 0.22423922 -0.24015723 -0.16113977
0001e0 c9 1d 88 be eb 7f 05 be 16 b2 95 3c 70 4f 9e 3c
       -0.26585224 -0.13037078 0.018273395 0.019324988
0001f0 b5 9d 29 3e fa 85 45 be ed 35 0a 3e d5 51 66 3e
       0.16564067 -0.19289389 0.13497134 0.22492154
000200 de 3e 15 3e a1 f2 05 3d 0d b0 9c bd 99 42 e1 3d
       0.14574763 0.032702092 -0.076507665 0.109990306
000210 53 20 88 be 43 e1 56 be db e5 24 be e5 3e 8d bd
       -0.2658716 -0.20984368 -0.16103308 -0.06896762
000220 97 f8 2f bd b3 94 60 be 50 fe 8b bd 32 82 3b 3d
       -0.042961683 -0.21931724 -0.06835616 0.04577846
000230 04 5f 66 3e 84 28 88 3e 7e 26 43 3e 90 bc 94 3b
       0.22497183 0.2659341 0.19057652 0.00453908
000240 87 4b 43 be 88 f9 69 bd 63 89 89 3c 90 c9 7c be
       -0.1907178 -0.057122737 0.016789144 -0.24686265
000250 ef 6b df bd fa 54 88 be c4 ac c4 bd 47 2e 09 be
       -0.109092586 -0.26627332 -0.09603265 -0.1339656
000260 6a 7a f6 3d 10 65 40 3e d6 c1 43 bc b9 14 01 be
       0.120350674 0.18788552 -0.01194807 -0.12605561
000270 79 e8 c0 3d 6e 8f 66 be 3d 28 dd 3d 43 65 21 be
       0.09419341 -0.22515652 0.107986905 -0.15761285
000280 0d 30 db bd 8f 9c 03 3d 41 03 57 be 53 5e 58 3e
       -0.10702524 0.032131728 -0.20997335 0.21129732
000290 9c 4c 17 3e bd 56 9d 3d c5 6d 70 be 0c e9 85 be
       0.14775318 0.0768256 -0.23479374 -0.26154363
0002a0 89 e0 46 3e 0f 6b 8e 3c 2d e0 58 3e d7 00 6d 3e
       0.19421591 0.017385034 0.21179266 0.23144852
0002b0 10 64 a1 bd 25 1e 4c bd 69 d7 54 3e c4 85 88 be
       -0.078804135 -0.049833436 0.20785297 -0.26664555
0002c0 a8 48 23 be cf 32 bd 3d 70 09 8b 3e d1 2d 2d be
       -0.15945685 0.092382066 0.27155638 -0.16912009
0002d0 37 40 24 be 80 2e 4c 3e cf 63 45 be 16 2b 27 bd
       -0.16040121 0.19939613 -0.19276355 -0.040812574
0002e0 59 12 07 bb 9a 36 1a bd 91 59 e7 3d cf f5 77 3c
       -0.0020610301 -0.03764973 0.1129638 0.015134289
0002f0 aa a1 7c 3e 97 d1 68 be 1b 85 00 3e ca 83 7c bd
       0.24671045 -0.22736202 0.12550776 -0.06164912
000300 82 9c d0 3d cd dc 0f be 68 2b 71 be 46 5e 2d be
       0.101861015 -0.14049073 -0.23551714 -0.16930494
000310 cd 62 80 3e d4 75 dd 3d a4 e4 18 be 7c 51 d0 bd
       0.2507538 0.108134896 -0.1493097 -0.10171792
000320 06 32 84 be be fc 55 be 10 54 bc 3d f5 59 1e be
       -0.25819415 -0.20897195 0.09195721 -0.15464003
000330 32 2f 65 3b 8d 33 26 be 68 6e 22 3c fa 8c 06 bd
       0.0034970758 -0.16230603 0.009914018 -0.03284929
000340 26 fc 7b be 5d 8c 76 be 7a aa 2a bd 26 98 5a 3e
       -0.24607906 -0.24076982 -0.041666485 0.21347103
000350 ad 1c 31 3e 40 90 30 be ee 26 26 be 2c 78 8d 3e
       0.17296095 -0.17242527 -0.16225788 0.27630746
000360 ac 67 00 bc 87 33 18 bd 1e 88 85 be a6 bc 6a bd
       -0.007837217 -0.037158515 -0.26080412 -0.057308815
000370 8b aa bc bd d4 5d 3b 3e 82 9b 80 be 35 45 c2 3d
       -0.09212216 0.18297511 -0.25118643 0.094858564
000380 54 26 89 3e ca d9 86 be fd 83 ab 3d fb 18 0b bc
       0.26787055 -0.26338035 0.08374784 -0.0084898425
000390 53 2b 29 be 1e 0f 46 be bf c3 3b 3e 73 ea 05 3e
       -0.16520433 -0.19341704 0.1833639 0.13077717
0003a0 b0 b9 ab 3d 90 2b 82 bd 07 b5 d7 3c ce ba 30 3d
       0.083850265 -0.06355965 0.026331438 0.0431469
0003b0 29 80 54 3e f1 14 c6 3d ee cc e9 3d b2 10 46 3d
       0.20752014 0.09671963 0.1141604 0.048355766
0003c0 da c2 86 3d c0 19 26 be 5e 2f fa 3d bf b4 6e be
       0.06580134 -0.1622076 0.12216066 -0.23311137
0003d0 c1 06 8c bd 52 5a 21 3e 63 b8 17 3d 3e 44 51 be
       -0.06837226 0.1575711 0.03704108 -0.20436189
0003e0 9b 10 1a 3d 20 f8 5c be 66 8a 43 3d 51 d0 17 3e
       0.037613492 -0.21579027 0.04773941 0.1482556
0003f0 5b d8 ef bd 3e c5 d0 bd 68 04 a2 bd 54 c0 65 be
       -0.117111884 -0.10193871 -0.07910997 -0.22436649

lstm.weight_hh_l2 f4 [52, 13]
000000 ef 45 82 3e c2 33 10 be 8d e2 1d 3e 6a e0 5d be
       0.2544398 -0.14082244 0.15418454 -0.21667638
000010 7c 52 88 3e 08 77 63 3e 7e 9c 2f be f6 62 f6 3a
       0.2662543 0.22213376 -0.17149541 0.0018797803
000020 09 ba 65 be 43 33 50 3e a8 19 43 3e 5f 2f 03 be
       -0.22434248 0.20332055 0.19052756 -0.1281104
000030 f4 14 09 be dd 3f 75 3e f5 cf 89 3d 57 ff 5d be
       -0.13386899 0.23950143 0.06729118 -0.21679436
000040 e0 7b 4a be 62 f7 7b bd 2d ee cf 3d 3b 74 50 3e
       -0.19773817 -0.06151522 0.1015285 0.20356838
000050 01 8a 09 be ba ed 7b 3e 8e cd 85 be 34 54 78 be
       -0.1343155 0.24602404 -0.26133388 -0.24250871
000060 f0 d6 c2 3d 0d 55 8d 3e f7 06 ff bc a1 1d 57 3e
       0.09513652 0.2760395 -0.03113125 0.21007396
000070 aa e8 8a 3e 96 68 33 3d 94 7f fc 3d 07 38 82 3d
       0.27130634 0.043800913 0.12329021 0.063583426
000080 ae e1 87 3e 59 eb 23 be af a9 97 bb 21 f8 57 3e
       0.26539367 -0.16007747 -0.004628382 0.21090747
000090 24 19 cb bd 4b a7 8a be eb 3b 33 be d7 1e a8 3d
       -0.099169046 -0.2708076 -0.17503326 0.08209007
0000a0 ad 8f 55 be d4 96 0b 3e 1b ea f8 bd d4 bf d4 3d
       -0.20855589 0.13631755 -0.12154027 0.10388151
0000b0 0c f5 bc 3d 97 c1 82 bd d0 b8 dc bb 13 67 e6 3d
       0.092264265 -0.063845806 -0.0067358986 0.112501286
0000c0 c4 07 5b be 21 21 00 3e b3 29 34 3e d5 84 2f 3d
       -0.21389681 0.12512638 0.17594032 0.042851288
0000d0 12 c6 14 be 36 ea b9 bd 03 ee 1e bd ea f2 84 3e
       -0.14528683 -0.09077875 -0.038801204 0.2596658
0000e0 d7 2e 89 3e 75 0f 8a be 12 f9 2d 3e ba 5a 26 be
       0.26793548 -0.26964918 0.16989544 -0.16245547
0000f0 26 29 f9 bd 91 27 9e 3a 88 a0 b5 bd f8 df 81 3c
       -0.121660516 0.0012066235 -0.088685095 0.015853867
000100 cd c1 88 3e 4d eb a8 3d 8f a8 82 3c e0 15 61 3d
       0.26710358 0.08248005 0.015949516 0.054952502
000110 aa 2b d8 3d 95 a8 2b 3e 5a 23 90 3d f8 53 d2 3d
       0.10555203 0.16763528 0.07037993 0.10269922
000120 7d 24 23 bc 78 db 84 3e 71 9e e0 3b 3c e3 58 be
       -0.00995743 0.2594869 0.006854825 -0.21180433
000130 ac 39 20 3e b0 8b 77 3e 20 cf 47 3c 7c b0 06 3e
       0.15647 0.2417438 0.012195379 0.13153261
000140 4f c2 90 3d 86 ae 27 be e4 5d 89 be 40 11 ef bd
       0.070683114 -0.16375169 -0.26829445 -0.11673212
000150 ea 69 ba 3d 7f 58 81 be 6c a9 76 3e 2f 70 15 be
       0.09102233 -0.2526283 0.24088067 -0.14593576
000160 33 47 4b 3b 9a 34 52 be 50 1a 55 bd 21 0c 2e be
       0.003101778 -0.20527878 -0.052027047 -0.16996814
000170 88 65 19 3e 0c cb f4 3d 7f 09 42 be 4e 41 51 bd
       0.14980137 0.119527906 -0.18948935 -0.05108767
000180 78 05 83 be e7 d8 ff 3d 20 28 76 bd c1 7a 14 3e
       -0.2559011 0.12492543 -0.06009686 0.14499952
000190 a4 99 19 be 5f b7 88 3e 61 bf b6 3d fe d4 5d be
       -0.15000015 0.267024 0.089232214 -0.21663281
0001a0 0e 93 83 be 08 e0 0f 3e 3e 86 e0 bd cd ce 34 3e
       -0.2569813 0.14050305 -0.10963105 0.17657013
0001b0 96 69 7b bc e1 da 8c be ef 67 25 3e d9 2f 7c be
       -0.015344998 -0.2751074 0.16152929 -0.24627627
0001c0 ca c3 3b 3e 6c 72 57 3e e7 4a 74 be 2b 15 a2 bc
       0.18336406 0.21039742 -0.23856698 -0.019785484
0001d0 47 86 13 3d f9 6b 81 3e 43 ac 8f 3d d3 d2 a5 3d
       0.03601673 0.2527769 0.07015278 0.08096852
0001e0 70 f4 dd bc ae fd 0e 3e b2 2c 29 3e 6b d2 0a 3e
       -0.027094096 0.13963959 0.16520956 0.1355683
0001f0 f0 06 3d bd cc 25 a7 bd ed 81 16 be 78 13 21 3e
       -0.046149194 -0.08161506 -0.14698 0.15730083
000200 45 a2 ec 3d 2f 5c 70 3e 07 e8 5d bd ee 91 52 be
       0.11554388 0.23472665 -0.054176357 -0.2056348
000210 da 49 b0 bb f8 53 21 3e e2 e1 89 be 21 7b 69 be
       -0.0053798975 0.15754688 -0.26930147 -0.22800876
000220 60 86 29 3e 10 13 4a 3c 56 87 8b be a6 46 2d 3e
       0.16555166 0.012333646 -0.2725169 0.16921481
000230 9a 30 c4 bd 5e e6 71 3e f5 c3 24 bd 66 0f ce 3d
       -0.095795825 0.23623034 -0.04022594 0.10061531
000240 f9 11 70 bd 38 2c 4e 3e 73 fd 7b be 84 2f 4c 3d
       -0.05861089 0.20134056 -0.24608402 0.049850002
000250 f3 69 0e 3c cb 77 41 3e 3c d8 25 be 0f 57 72 bd
       0.008692252 0.18893354 -0.16195768 -0.059165057
000260 79 a1 e6 3d 87 4f 32 3e 2d f3 a4 bd 9c c4 f2 bc
       0.11261267 0.1741315 -0.080541946 -0.029634766
000270 64 59 45 be a5 b8 0e 3d b1 56 ab 3d 5c 0f fe bc
       -0.19272381 0.03484406 0.083661444 -0.031013183
000280 bc 50 c2 bd 33 2c d0 3d 88 56 de 3d 57 bf 6c be
       -0.09488055 0.1016468 0.10856348 -0.23119865
000290 24 36 10 be e1 c7 10 3e 34 5d 8c 3b 0e 0c 57 3e
       -0.14083153 0.14138748 0.0042835716 0.21000692
0002a0 16 48 37 3e 47 9e 2f be 70 44 75 3e 2a 7f 77 3e
       0.17898592 -0.17150222 0.23951888 0.24169603
0002b0 4c a8 ac bd 15 94 bb 3d de 7e 1c be aa 55 1c 3e
       -0.084305376 0.09159104 -0.15282771 0.15267053
0002c0 5a 1a 56 3e 86 dc 89 bd c0 66 0e 3e 89 9c c8 3d
       0.2090849 -0.06731515 0.13906384 0.09795482
0002d0 69 49 2c 3e 23 e5 e8 bd 54 1f 7f be f1 09 f4 3b
       0.16824879 -0.11371829 -0.24914294 0.007447474
0002e0 e1 f3 0c 3e 23 91 41 3d 02 60 8c 3d 8c be 87 3d
       0.13764907 0.047257554 0.068542495 0.06628141
0002f0 7e 41 56 be 85 d9 5b be 2c f7 85 3e e0 71 c2 bd
       -0.20923421 -0.21469696 0.2616514 -0.09494376
000300 37 24 12 3e c8 da e9 3c 20 7e 1e 3e 4b 64 1f be
       0.14271627 0.028546706 0.154778 -0.15565602
000310 ca 8e 3f 3d 18 b8 ec 3c a3 1e 13 be a2 42 ac 3d
       0.046767034 0.028896376 -0.14367156 0.08411147
000320 10 6b 42 be 5a 14 82 3e cf ec b4 3d 78 d0 ec bd
       -0.18986154 0.25406152 0.0883423 -0.115632
000330 98 96 fd bd fb aa 56 bd e5 b2 66 3e 1c c4 28 be
       -0.12382239 -0.052409153 0.2252918 -0.1648106
000340 c6 23 bb 3d 30 e4 20 be 96 f9 63 3e 0e 6b e1 3d
       0.091376826 -0.15712047 0.22263178 0.11006747
000350 fb 67 42 bc f2 d6 0a be 5e 25 75 3e 3c 4d e8 bd
       -0.011865611 -0.13558558 0.23940036 -0.11342856
000360 06 de 60 be 61 b4 a6 bd a8 69 f2 3d 1a 67 25 3e
       -0.21959695 -0.08139873 0.118365586 0.16152611
000370 bf 05 b9 bd f5 87 7e be 10 2c 87 be 1d 03 55 be
       -0.09034299 -0.24856551 -0.26400805 -0.20801969
000380 19 6b e9 3d 79 26 cb 3c 4a 08 4d 3e 35 25 07 bd
       0.113973804 0.024798619 0.20022693 -0.032994468
000390 e9 58 47 3e 07 12 a6 3d 00 a9 26 be 48 9b e7 3c
       0.1946751 0.08108907 -0.16275406 0.028272286
0003a0 13 51 30 3e 5b 4e 88 3e 24 f0 90 3d 78 76 69 3e
       0.17218427 0.2662228 0.07077053 0.22799098
0003b0 30 60 cc 3d 81 b5 41 3e 6d 02 67 be e8 0c 3c 3d
       0.09979284 0.18916894 -0.22559519 0.045910746
0003c0 5d 94 fc 3d 87 38 8d 3e a5 bc 1e 3e a2 4f 20 3c
       0.123329856 0.2758219 0.1550165 0.009784611
0003d0 3c 78 83 3e 37 67 00 be b4 a2 fe bb 47 56 79 be
       0.2567767 -0.12539373 -0.0077708606 -0.24349318
0003e0 12 df 8a 3e 74 f6 a4 bd b9 5d 88 3e 55 89 c2 bd
       0.27123314 -0.0805482 0.26634005 -0.0949885
0003f0 36 c9 09 3e 4f 3a 8c be 32 5c 71 be f7 42 7e be
       0.13455662 -0.27388236 -0.23570326 -0.24830233

lstm.bias_ih_l2 f4 [52]
000000 3c f3 97 3d 9c c4 6c 3d 5d 90 50 3e da 33 56 3e
       0.0741944 0.05780469 0.2036757 0.20918217
000010 ff 0d 2d 3e 9f 8a 6a 3d 87 8e 1f be 3b af 01 be
       0.1689987 0.057261106 -0.15581714 -0.12664501
000020 4d 3c 1f 3e 4d c1 84 3e 6c 24 49 3e 6a dc 5e be
       0.15550347 0.25928727 0.196428 -0.21763769
000030 b7 29 9e bd fe c8 cc bc 35 14 8f 3d dc 43 cd 3d
       -0.077228 -0.024998184 0.06986276 0.10022709
000040 af 52 a6 bd 5f df 67 3e fa 34 37 be 85 b0 9c 3d
       -0.081212394 0.22643803 -0.17891303 0.07650856
000050 4b 92 21 be 7d df 0c 3d 23 7c 7c 3e db 51 6f 3e
       -0.15778463 0.034392823 0.2465673 0.23371069
000060 2c 86 e0 bd 53 97 31 3e 8d 4e 83 3e ec d7 6d 3e
       -0.10963091 0.17342882 0.25645867 0.23226899
000070 6c ac 04 be ae 66 b3 bb f4 a2 36 be f4 be 1d be
       -0.12956399 -0.005474887 -0.17835599 -0.15404874
000080 f4 d0 83 3e 6c 4b 82 3d c0 c6 68 3e 37 76 62 be
       0.25745356 0.06362042 0.22732067 -0.22115408
000090 11 19 e1 3d 4f 89 a2 bd 14 3c 79 3d c9 f9 a0 3a
       0.10991109 -0.07936346 0.06084831 0.0012281473
0000a0 b3 dd d6 3d 5e 60 41 3e 28 b9 4b 3e f8 c5 95 3d
       0.104915045 0.18884417 0.1989485 0.0731315
0000b0 e3 e8 2d 3e 2e 0a 7b bc 24 33 2f be c3 d6 5e 3e
       0.1698337 -0.015322251 -0.17109352 0.21761613
0000c0 85 fb ff bc fa 52 66 be 20 c0 ee 3c ea 3d 28 3e
       -0.031247864 -0.2249259 0.029144347 0.16429868

lstm.bias_hh_l2 f4 [52]
000000 7c 6d 43 bd 8c 21 51 bd 4d 8a ce bd 0b 3f 8d be
       -0.047711834 -0.051057383 -0.100849725 -0.2758716
000010 74 6b 23 bd 51 d1 90 3d b6 ef 6c be 96 bf 5e 3e
       -0.039897397 0.07071174 -0.23138317 0.21752772
000020 08 65 16 3e 3d 6b fa bd be 54 65 be e2 a6 8b be
       0.14686978 -0.12227485 -0.22395608 -0.2727576
000030 c8 6e 61 be 87 7c 61 bd 6b 18 8c bd 1a 76 53 be
       -0.22014916 -0.0550504 -0.06840595 -0.20650521
000040 0e bc 92 bd eb 89 c8 3c 50 a2 15 3d 84 a3 8b be
       -0.07164775 0.024479827 0.036531746 -0.2727319
000050 21 35 8c be bc ba 6e 3e a7 97 15 3e 7d da 87 3d
       -0.27384284 0.23313421 0.14608632 0.0663347
000060 12 77 3c 3e 8d 4d ac bc ef d6 79 3e e6 13 cf bd
       0.18404797 -0.021033073 0.24398397 -0.10111217
000070 7b 13 83 be 30 24 8c be 79 71 18 be c4 7c 09 3e
       -0.256008 -0.2737136 -0.14887036 0.134265
000080 c9 31 21 3e 4b 74 88 3e 56 d0 89 3e 49 7d 2d 3e
       0.15741648 0.26651224 0.2691676 0.16942324
000090 4e f2 73 3e f4 04 53 3e 15 a4 03 3d 70 c4 85 be
       0.238229 0.20607358 0.032138903 -0.26126432
0000a0 97 77 55 be 53 23 82 be 5a ce ec 3d 3e 1c 16 bc
       -0.20846401 -0.25417575 0.11562796 -0.009162007
0000b0 66 ad ef 3c 68 0b c3 3c 16 f2 6e bd be 7e 40 be
       0.029257488 0.02380915 -0.05833634 -0.18798348
0000c0 1f fe cc 3d 14 10 7a 3e e5 5c 67 be 68 76 92 3d
       0.10009407 0.24420196 -0.2259403 0.071514904

out_layer.weight f4 [7, 13]
000000 6b ee 43 bd 1f 22 07 bd db 16 4c be 2f 66 bb 3d
       -0.047834795 -0.032991525 -0.19930594 0.09150349
000010 34 d4 57 3e c8 7c ee 3d 72 67 82 3e d5 0f 8a bb
       0.21077043 0.11644894 0.25469548 -0.004213313
000020 04 d3 75 bc 15 cd 70 bc 97 ed 1f 3e a1 5d 7c 3e
       -0.015003923 -0.014697333 0.15617977 0.24645092
000030 d9 1d 39 be c8 c5 72 be cb b1 6f be 8e 8c 48 bc
       -0.18077792 -0.2370826 -0.23407666 -0.012240542
000040 56 f0 65 be fc cf 0d be 8a 0c 73 be ff 6d 39 3e
       -0.22454962 -0.13848871 -0.23735252 0.18108366
000050 77 a3 8e bd db be 1f bc fc bb a4 3c e0 3a 5b 3e
       -0.06964772 -0.009750093 0.02010917 0.21409178
000060 e9 86 fc bd d6 e8 82 bd 65 95 90 3d 28 c1 49 be
       -0.123304196 -0.06392066 0.07059745 -0.1970259
000070 be 24 81 be c3 a3 82 3e 6e 73 89 be 3d 96 d5 bd
       -0.25223345 0.25515565 -0.26845878 -0.10429046
000080 e9 a5 22 3d 91 b6 d5 3c 26 ac 17 bd 9a 7f 1c 3d
       0.039709006 0.026088031 -0.037029408 0.038207628
000090 4b 31 95 bd 0c 2b e3 3c 00 7b 34 be 1b d2 47 3e
       -0.072847925 0.027730487 -0.17625046 0.19513743
0000a0 f1 b9 7c 3d 00 8d 75 3e 5f ee 84 bc 94 14 c0 bc
       0.061700765 0.23979568 -0.016226945 -0.023447312
0000b0 2d d9 ad bd 22 d2 81 3d 35 24 44 3e 03 17 27 3c
       -0.084886886 0.06338908 0.19154437 0.0101983575
0000c0 a9 09 89 3e 99 c1 17 3e f1 4d 3c bc 3f d0 39 3d
       0.26765183 0.14819945 -0.011493192 0.045364615
0000d0 e5 3d 43 be 3f 41 49 bc 4f cb 0f be ff 25 4b 3e
       -0.1906658 -0.012283622 -0.140424 0.19838713
0000e0 47 01 09 3d 88 17 e8 3d 1d 04 16 bb 6e e6 f5 bc
       0.033448484 0.11332613 -0.0022890635 -0.030017104
0000f0 d2 d0 cd bd 58 3c 87 be 40 9d 02 be 0a a1 37 be
       -0.10049595 -0.26413226 -0.12755299 -0.17932525
000100 a9 3f 2a bd ad d8 8b be d0 72 5d bd 47 01 e5 bd
       -0.041564617 -0.27313748 -0.05406457 -0.11181884
000110 cc 6b 9e 3c d8 32 7b be 24 5b b8 bd c9 9c 03 3e
       0.01933851 -0.24531114 -0.09001759 0.12852778
000120 ad a6 6d be e1 92 4a 3e dc d6 1a be 83 36 3a be
       -0.23208113 0.19782592 -0.15121025 -0.18184857
000130 ae e7 2f 3e bb 7a 34 be c1 d2 69 be d0 cb 83 3d
       0.17178223 -0.17624943 -0.22834302 0.064353585
000140 dc db 88 be db 49 e5 3d 32 92 1a bd a8 3f 73 3e
       -0.2673024 0.111957274 -0.03773708 0.23754752
000150 6c 5e 31 3e 1e 71 46 be 8e 63 56 be 96 56 12 be
       0.17321175 -0.19379088 -0.20936415 -0.14290842
000160 04 2f 26 3e ef 85 1d be 28 d3 61 be
       0.16228873 -0.15383123 -0.22053206

out_layer.bias f4 [7]
000000 2e c4 5d be 0b 77 33 3b 9e a7 59 be 7a 1b 40 3d
       -0.21656868 0.0027384188 -0.21255347 0.046901204
000010 ec bc 1f be 0d 91 be bc 6d 22 d2 bd
       -0.15599412 -0.023262525 -0.102604724
