models/lu-lstm-tune-category9-second-time/LSTM_10.pt (torch, 103535 bytes, 17 tensors)

lstm.weight_ih_l0 f4 [116, 1]
000000 a6 f4 dd bc f4 06 58 bc 34 ed e1 3b 3b d1 92 3c
       -0.027094197 -0.0131852515 0.006894732 0.017922034
000010 62 1a 89 3e 19 c9 db 3a 2e ab be bc 26 00 b1 3d
       0.2677794 0.0016768306 -0.023274984 0.086426064
000020 b8 95 a2 bc cc f3 be bd 5e 24 e9 bc 6f 26 00 be
       -0.019846782 -0.09323844 -0.028459724 -0.12514661
000030 9f 9f 7e bd b8 71 40 be 88 c2 f0 bd 18 37 90 be
       -0.062163945 -0.1879338 -0.11755854 -0.28167033
000040 1c 6e b9 3c 86 a9 f6 bd d4 c0 52 3d 70 6c c1 3c
       0.022635512 -0.12044053 0.051453426 0.023611277
000050 78 4f 50 be c9 3c c3 bd 0d 8b 11 bc b1 2e d6 bc
       -0.20342815 -0.09533078 -0.00888325 -0.026145311
000060 37 3f b9 be 8b 1f f1 bd 79 dd 7e 3e 2d 95 64 be
       -0.36181042 -0.117735945 0.24889173 -0.22322531
000070 b0 b8 ba bb a1 e7 8b bd 01 d4 c5 bd 29 4e eb 3d
       -0.005698286 -0.06831289 -0.09659577 0.11489517
000080 fc 38 1d be 8d 2b 06 3d 69 55 02 be 97 c9 04 be
       -0.15353769 0.032756377 -0.12727894 -0.12967525
000090 a2 39 9f 3e 62 b9 af be 39 ef 78 3d fe 7f fb bd
       0.31098658 -0.34321123 0.060775016 -0.12280272
0000a0 09 1f 67 be 21 6c 26 be dd af 67 be 6c 66 e0 bd
       -0.22570433 -0.16252185 -0.2262568 -0.109570354
0000b0 a3 fc 9c be ad 5e 88 be 6b ad a7 bc af 55 80 be
       -0.30661497 -0.26634732 -0.020468434 -0.2506537
0000c0 d6 e2 92 bd 3f 8a 74 be 15 f0 3b 3e 84 a7 97 be
       -0.07172172 -0.23880862 0.18353303 -0.29619992
0000d0 a8 3d 26 3e 51 dc 4d be 9e 25 62 bc 22 40 8b 3e
       0.16234457 -0.20103575 -0.013802914 0.27197367
0000e0 76 c4 51 be 35 7b 6f 3d 94 66 64 3e 60 1c 10 be
       -0.204851 0.05846711 0.22304755 -0.14073324
0000f0 30 9c 70 bd 85 b0 19 3e b4 19 1c be 3b 41 7e 3c
       -0.058742702 0.15008743 -0.1524418 0.015518482
000100 cf 9b 32 be 20 81 42 3e 93 8d 0f 3e 4e 52 13 be
       -0.17442249 0.1899457 0.1401885 -0.14386865
000110 7c 56 76 3e 25 0d 11 3c 3b 0d 16 3e 84 e4 00 3d
       0.24056429 0.008853232 0.14653485 0.03146793
000120 95 22 96 3e 92 0c 92 be a1 aa 90 3e fb dc 0f be
       0.2932326 -0.28525215 0.2825518 -0.14049141
000130 dc 6f f0 3d d9 73 4f 3d 74 84 5e 3c 52 4f 4b be
       0.117400855 0.05064759 0.013581384 -0.19854477
000140 6e 2d 2b be 51 99 68 3b 0b 9c 31 be a7 79 95 3e
       -0.16716549 0.0035491774 -0.17344682 0.29194376
000150 59 f3 18 bd 49 b2 8c 3e 85 c1 07 3d 9d ca 26 bc
       -0.03734145 0.2747977 0.03314354 -0.010180143
000160 10 81 8b be 6e 5f 3d be f8 e6 0e be 7b 59 84 3e
       -0.27246904 -0.18493435 -0.13955295 0.25849518
000170 b8 83 fa 3a 4d fb 71 be 03 7e c9 bd 9f ed 47 be
       0.0019112742 -0.2363102 -0.09838488 -0.19524239
000180 2e 0a ba 3d 5b b2 85 be b5 97 8f be a6 16 48 be
       0.09083973 -0.26112637 -0.2804543 -0.1953989
000190 98 8a 57 be e0 c3 f9 bd 8c a4 d0 bd 80 cd ad be
       -0.21048963 -0.12195563 -0.10187635 -0.33945847
0001a0 fd ca cc bd 19 e0 18 be c3 02 d9 bd d1 4e 5c be
       -0.099996544 -0.14929236 -0.1059623 -0.21514441
0001b0 9d 1f 8a 3b 61 f5 ba be 19 b4 6c bd 31 5f 8a be
       0.0042151944 -0.36515334 -0.057788942 -0.2702575
0001c0 66 29 9a be 74 fc 88 3e 60 5c 2f be 79 c8 39 be
       -0.3010971 0.26755106 -0.17125082 -0.1814288

lstm.weight_hh_l0 f4 [116, 29]
000000 cb 95 24 bd 2b b5 e0 3d f2 a8 8b 3e 4e 6e 05 be
       -0.040181916 0.10972055 0.27277333 -0.13030359
000010 a7 05 ef be 59 01 c8 3e c3 88 3f 3e dc 7f c2 3e
       -0.46684 0.39063528 0.18704514 0.37988174
000020 9c 70 cc be 9a 6a 94 be 83 d0 22 be 32 80 ab be
       -0.39929664 -0.2898758 -0.15899853 -0.33496243
000030 5c a0 97 be 65 12 51 be a6 b6 62 be 19 c5 fa 3d
       -0.29614532 -0.20417173 -0.22139987 0.12244625
000040 b8 1a 2c be 08 10 96 3e 49 49 6a be b0 e3 68 3e
       -0.16807067 0.29309106 -0.22879519 0.22743106
000050 0e cf 2d be 1f 22 ad be af 99 cd 3e fe 8e 7c be
       -0.16973516 -0.33815095 0.40156314 -0.24663922
000060 9c 02 89 3e a4 66 39 be 13 e4 ca 3e e5 11 a8 be
       0.26759803 -0.1810556 0.39627132 -0.32826152
000070 f6 c5 82 3e 9d 00 91 bc 66 53 4b bd b0 cd 2d 3e
       0.25541657 -0.017700488 -0.04964008 0.16972995
000080 33 96 e5 3d eb 73 1b be 7a e8 27 3e 43 a3 4e bd
       0.11210289 -0.15180938 0.16397277 -0.050448667
000090 b8 e1 03 be 8b 60 36 bd 9d cc db 3c 7e 38 7c be
       -0.12879074 -0.044525664 0.026830966 -0.24630925
0000a0 01 a0 ec 3d c0 8d 44 3d 90 d0 1c be 51 8d 02 3d
       0.11553956 0.047986746 -0.15313935 0.03187305
0000b0 2f e3 7d 3e 7b 6d 92 3d 14 b0 d4 3d bd f8 f1 bd
       0.24793695 0.07149788 0.10385147 -0.11815021
0000c0 9d bf 21 3e b1 13 1d be a0 6d 1f be 16 56 22 3e
       0.15795751 -0.15339543 -0.15569162 0.15853152
0000d0 6b fe 39 3d 18 d0 bd 3d ba 68 86 be 30 4c 7f 3d
       0.045408648 0.09268206 -0.26251775 0.062328517
0000e0 b7 54 0f bd d9 ec de bd d0 a8 f4 bd ec f8 f6 3d
       -0.0349929 -0.10885019 -0.11946261 0.12059197
0000f0 d8 45 c4 3c 71 69 09 3e 5f c1 db 3b 32 1a 3f bd
       0.023959085 0.13419129 0.0067064012 -0.04665584
000100 19 78 6a 3d 2f 74 ce bc cd 49 88 3c 06 f4 93 bd
       0.05724344 -0.025201885 0.016636753 -0.07224278
000110 da 6a 84 bd 67 36 5e be 98 da bf bd 0b 4e 47 bd
       -0.06465693 -0.2170044 -0.09367865 -0.048658412
000120 06 25 9c 3d a2 f7 c1 3c 65 3a 8f bc a6 7a f0 3c
       0.07624249 0.02367765 -0.0174839 0.029355358
000130 2c ee 9f bc f2 8a b8 3d 2f c0 11 be b9 f7 09 be
       -0.019522749 0.09010877 -0.14233468 -0.13473405
000140 99 e9 d5 3c 56 35 6f be 59 63 f1 3d 5b fc c9 bd
       0.026112365 -0.2336019 0.11786527 -0.09862586
000150 c5 fc 83 3c 81 3b 45 3d 32 b9 2d 3e 5c e2 64 be
       0.01611174 0.04815245 0.16965178 -0.22351974
000160 66 71 84 3c f8 8d 4f 3e 94 08 40 be 9b fd 8f 3c
       0.016167354 0.20269 -0.18753272 0.017576983
000170 18 04 c8 bc 45 5f a7 3c 7d 5c a1 3d 46 26 10 be
       -0.024416015 0.02043117 0.07878969 -0.140771
000180 2a ae ac bc 1a da 28 3d 2d 0f 12 be 1e 52 01 be
       -0.021079142 0.041223623 -0.14263602 -0.12628981
000190 32 3e 9b 3d 25 0f 87 be 12 c6 d4 3c 0d d2 b5 bc
       0.07580222 -0.26378742 0.025973354 -0.022194887
0001a0 9a 5d 26 3e c9 45 b2 3d b2 b5 e2 3d 15 e5 15 be
       0.16246644 0.08704717 0.11069812 -0.14638169
0001b0 f2 2f ee 3c 9b 4d 0e bd 3d 53 d3 bd 1d ea f0 3d
       0.029075596 -0.03474198 -0.10318611 0.117634036
0001c0 a5 a3 dd bd 7e 38 6b 3d a5 2a 75 3c 60 2d 07 3e
       -0.10822228 0.057426922 0.0149637805 0.13200903
0001d0 87 66 08 3e fa 47 9e 3d 18 36 1c 3e b9 52 97 bd
       0.13320361 0.07728572 0.1525501 -0.07388825
0001e0 a5 a1 d0 bd 61 3c 59 3e eb c6 91 3d 3f 58 a7 3d
       -0.10187081 0.21214439 0.07118019 0.081711285
0001f0 53 0a 62 bd cc 25 e8 3b bb 12 54 be 99 f0 07 3d
       -0.055185627 0.007084584 -0.2071027 0.033188436
000200 58 10 74 be 89 59 ff bd e5 25 b0 3d 46 a1 61 bd
       -0.2383436 -0.12468249 0.08600978 -0.055085443
000210 5f f8 d1 3d 33 13 fa bc 63 05 68 be ca 81 6c bd
       0.10252451 -0.030526733 -0.22658305 -0.057740964
000220 a2 23 5e 3d f3 41 b8 bd 5a 84 9f 3d bc 2f 36 be
       0.0542332 -0.08996954 0.07788916 -0.17791647
000230 7e 91 5b 3e 99 65 b1 bd 70 c7 d3 bb 12 92 43 be
       0.2144222 -0.08661956 -0.006462984 -0.1909869
000240 75 8f 6b 3d db 85 88 ba 8f 53 7f 3e 3e d0 cb bc
       0.05750986 -0.0010415869 0.24934219 -0.024879571
000250 a4 28 0d be ba fb 5c be f7 26 43 3e 75 60 95 3e
       -0.13785034 -0.21580401 0.19057833 0.29175153
000260 b1 15 1f 3e 2b 14 3c be 46 77 fe bd d4 ee 4c bd
       0.15535618 -0.18367068 -0.12425093 -0.05003245
000270 1f fa 89 bd 0a 23 6e be a7 1c ea 3b 1c 2c 0c bd
       -0.0673716 -0.23255554 0.007144529 -0.034221753
000280 ef 21 e0 3d 5c da 72 bd 2b 30 42 bd b8 8b 20 be
       0.10943972 -0.059290275 -0.047409218 -0.15678298
000290 27 97 dc bb a8 53 35 be 0d 8e b6 3c 69 d1 39 3e
       -0.006731886 -0.17707694 0.022284532 0.1814629
0002a0 d2 45 48 be 72 f0 88 3e 11 54 10 bc e5 d2 97 3d
       -0.19557884 0.26745945 -0.0088091055 0.07413272
0002b0 8a 0a 59 be af 76 1d 3e 42 40 92 be 6c 87 ac 3e
       -0.21195427 0.15377305 -0.2856465 0.3369707
0002c0 61 ca 8e 3e a3 ef c3 be 0b 6f 29 be df a2 db 3e
       0.27888778 -0.38268766 -0.16546266 0.42897698
0002d0 40 53 4c 3e 08 07 e1 3e 4f 6b 64 bd 71 83 ab be
       0.19953632 0.43950677 -0.0557664 -0.3349872
0002e0 2a 49 a0 be 44 de 65 bd d3 04 6b be 35 87 2c be
       -0.3130582 -0.056120172 -0.22951059 -0.16848452
0002f0 7d e1 5c be 68 25 87 3e 24 bb 69 bd ea 08 5e 3e
       -0.21570392 0.26395726 -0.057063237 0.21683088
000300 ba 6b 3d be 2c 8a b2 3e 72 5c 98 be b4 10 e4 be
       -0.18498126 0.34871042 -0.2975803 -0.44543993
000310 31 21 40 3e d9 e7 f4 bd d9 3b 9a 3e f3 b3 88 be
       0.18762662 -0.11958284 0.30123785 -0.2669979
000320 5a 15 bb 3e e6 74 12 bd e8 15 b1 3e 96 59 39 be
       0.36539727 -0.035756014 0.34587026 -0.1810058
000330 e9 b9 56 3e 5e 06 0e 3e be 61 9f be 9a 2c b1 be
       0.20969357 0.13869616 -0.3112926 -0.3460434
000340 6d 09 b0 3d 20 19 aa bc d0 91 83 bd 43 a5 cc bd
       0.08595548 -0.020763934 -0.06424296 -0.09992459
000350 55 f7 73 bd 7a 96 81 be b6 f2 ae be 48 dd bd bd
       -0.059562046 -0.25310117 -0.3416955 -0.09270722
000360 45 5e 15 be a0 48 92 3e 6e 26 90 3e 12 f4 6d be
       -0.14586742 0.28571033 0.2815432 -0.23237637
000370 6b 9b 49 3e 0c 8a 95 be 58 ee ae 3e b7 3a 71 be
       0.19688194 -0.29206884 0.34166217 -0.23557554
000380 2a 25 56 be 6a 16 b6 3e 4d 1d 96 be 6f ef 05 3e
       -0.20912614 0.35563976 -0.2931923 0.13079618
000390 c2 2c 81 3d b6 36 5e 3e 9d cd 79 be 5a fa b0 3e
       0.06307365 0.21700558 -0.24394841 0.34566003
0003a0 2a 5f be bd 0d ce bd 3d 4d c1 31 3e 3e dd 09 be
       -0.09295495 0.09267817 0.17358895 -0.13463303
0003b0 c7 6f 11 bd f3 a5 a9 bd 24 73 04 3e 76 4c 73 3e
       -0.03550699 -0.082836054 0.12934548 0.23759636
0003c0 fc 96 21 be e8 6f ef 3b b2 e6 02 be 0e 24 b0 3d
       -0.15780252 0.0073070414 -0.12783316 0.08600627
0003d0 9a b2 ef bd 6b a9 70 3b 40 b6 1f be c1 d8 f8 3c
       -0.117039874 0.0036722075 -0.15596867 0.030376794
0003e0 08 28 27 be d4 44 83 3e c7 e3 a6 3c f8 2d ee bd
       -0.16323864 0.2563845 0.020372285 -0.116298616
0003f0 34 4e 42 3d 73 c1 26 be 18 77 0f 3d 4d e7 5b be
       0.04743786 -0.16284733 0.035025686 -0.21474953

lstm.bias_ih_l0 f4 [116]
000000 71 8f 35 3e 97 97 db bd 77 a8 da 3c 99 ed 82 3d
       0.177305 -0.10722273 0.026691658 0.063929744
000010 4c 50 72 3d ce 9b 06 bc 4c 32 66 3d ac 87 85 3e
       0.05915861 -0.008215858 0.05620031 0.26080072
000020 48 c9 14 bd 27 0e 25 3e fc a7 07 be f9 b6 5d 3d
       -0.03632477 0.1611868 -0.13247675 0.054129574
000030 c7 85 8a bd 7e 88 ac 3d 64 f0 e9 3e c0 19 a8 3d
       -0.06763797 0.08424471 0.45691216 0.082080364
000040 65 df 51 3e a9 ab e9 3c 24 63 64 3d 8b ae 3f 3e
       0.20495375 0.028524237 0.05575861 0.18718927
000050 5e b8 82 bd 20 91 15 3d a5 ee e8 3c 65 e5 02 be
       -0.063828215 0.036515355 0.028434107 -0.1278282
000060 76 2c 46 bd d8 e2 1f bd cd 74 3a bc 8d 49 45 3e
       -0.048382245 -0.039034694 -0.011380387 0.19266339
000070 8c 56 3a 3d 17 3a 79 3e ca c5 72 bc 67 fd 0b bd
       0.045492694 0.24338566 -0.014817664 -0.03417721
000080 59 c9 10 be e6 16 38 3e f6 eb 1d 3e b6 c8 3a bd
       -0.14139308 0.17977485 0.15422043 -0.04560157
000090 50 6f 8f 3d 43 25 57 bd 39 ba 35 3e e4 90 a0 bd
       0.07003653 -0.05252577 0.1774682 -0.07840136
0000a0 8a 9c ea bd 02 4d 1c 3e 6a 3b 2d 3c a0 cc aa 3e
       -0.11455639 0.15263751 0.010573247 0.3335924
0000b0 81 bf 8d bc bc c4 2b 3d 91 8c 5d bd 34 1d b6 3c
       -0.01730323 0.041935667 -0.054089133 0.022230722
0000c0 5d b1 00 be 7f ca 99 bd c6 36 55 3e c2 62 21 3d
       -0.12567659 -0.07509326 0.20821676 0.039400823
0000d0 a5 d9 4c bb 14 76 82 bd 03 35 fd bd 28 91 08 3e
       -0.0031257656 -0.06370178 -0.12363627 0.13336623
0000e0 68 dd d4 3d 87 3e 86 bd 81 66 56 bc df dc e9 3d
       0.103937924 -0.06554895 -0.013085962 0.11419081
0000f0 72 33 e4 3d 97 dd 38 be 4d f8 e5 bd b6 68 38 3e
       0.11142625 -0.1805328 -0.11229 0.18008694
000100 6c 3a 02 be 23 98 db 3d d6 3a 85 3d f9 65 a5 bd
       -0.12717599 0.10722377 0.06505363 -0.0807609
000110 35 06 01 3e 48 25 3a be 45 6d 1b be bc 0f dc bd
       0.12600024 -0.18178284 -0.15178402 -0.107451886
000120 ce bd bc 3c d7 81 bd 3d fa 12 31 3d c4 95 f7 3d
       0.023039725 0.092532806 0.043230988 0.120891124
000130 1e 3f 59 3d 11 16 8f 3d ae 48 25 be 0e 99 87 bb
       0.05303871 0.06986631 -0.16141006 -0.0041381186
000140 60 10 e6 3d 5a 9d 84 3b de 01 d1 bd 1f 3f 4b 3d
       0.11233592 0.004047078 -0.10205434 0.049620744
000150 61 c1 0a 3e cb ba b6 bd 8b 3e 47 3e e7 5b 14 3c
       0.1355033 -0.08922347 0.19457452 0.009055114
000160 01 0e 84 bd 7f ff 82 3d 3a e9 e3 3d fc 31 b6 3d
       -0.064479835 0.06396388 0.11128469 0.088962525
000170 0e b7 37 3e 97 f3 66 3e b8 07 5b 3e e6 82 92 bd
       0.17940924 0.2255386 0.21389663 -0.07153873
000180 49 ca 8b 3a 8a dc b9 bc 43 be 89 3d 15 63 00 be
       0.0010665144 -0.022688169 0.06725743 -0.12537797
000190 53 f8 86 3d 5a fe 36 3e ce 44 f4 3d dc b5 13 bd
       0.06590333 0.17870465 0.11927186 -0.036062106
0001a0 21 3c dd 3d e9 66 e9 3d 98 1a 7e 3d 14 8a fb 3d
       0.10802484 0.11396582 0.06203708 0.12282196
0001b0 f8 03 d8 3d 5b 48 5e 3d 04 19 56 3e fe d8 8a bd
       0.10547632 0.054268222 0.2090798 -0.06779669
0001c0 1a 17 a1 3d 10 2a 09 3e a9 ab 60 bd fe 7a 04 be
       0.078657344 0.13394952 -0.054851208 -0.12937543

lstm.bias_hh_l0 f4 [116]
000000 fb 80 3a 3e e5 40 47 3e 35 58 11 be 58 28 b2 3d
       0.18213265 0.19458349 -0.14193805 0.08699101
000010 30 c6 1e 3e 63 05 fa 3d 78 db c2 3d 9c cc 89 3e
       0.1550529 0.12208059 0.095145166 0.26913917
000020 02 04 5d 3e f7 20 7d bc bc 03 0d 3e e5 6d 1f be
       0.2158356 -0.015449754 0.13770956 -0.15569265
000030 01 cd 14 be 8d 99 27 3e 22 c0 a2 3e 59 07 9b bc
       -0.14531328 0.16367169 0.3178721 -0.018924402
000040 12 75 e1 bd c8 1e 42 3e 2f f3 f9 bd de 06 d1 bc
       -0.110086575 0.18957055 -0.12204587 -0.02551597
000050 75 ac 30 3e 0f 0e 3f bd 36 9b be 3d b0 7c ac bd
       0.17253287 -0.046644267 0.09306948 -0.0842222
000060 ec b2 68 3e 97 ad 70 3e 28 61 49 bd a0 83 3e 3e
       0.22724503 0.2350372 -0.04916492 0.18604898
000070 4f cd c8 3d 97 97 63 3e 06 2e 3a 3d a7 db 50 3d
       0.098047845 0.22225796 0.045454048 0.050990727
000080 b8 fa e4 bb 99 30 3f 3e 76 d3 50 bd 07 27 be 3d
       -0.006987896 0.18670882 -0.050982915 0.092847876
000090 6c 85 07 bd ab 49 09 3d 03 9a 1b be 33 4c 58 bd
       -0.033086225 0.03351752 -0.1519547 -0.052807044
0000a0 8b ca ab bd a8 72 49 3e 23 ee 1a 3e a3 ad e6 ba
       -0.083882414 0.19672644 0.15129904 -0.0017599355
0000b0 20 4c 3a 3e d0 c8 80 3d e8 b9 27 be ff 13 0f 3e
       0.18193102 0.06288302 -0.16379511 0.13972472
0000c0 67 a5 02 be d7 f2 2d bd 3d 2b 48 bd 01 4d 56 3e
       -0.12758408 -0.04246792 -0.04886936 0.20927812
0000d0 b5 2f 5a 3e 37 f3 bb 3d 1f 51 47 3e 4d 98 35 3e
       0.21307261 0.09177249 0.19464539 0.1773388
0000e0 9a 0b 56 bd a1 e6 3b bd 48 23 a6 3d da ce b4 3d
       -0.052257158 -0.04587424 0.08112198 0.08828516
0000f0 f5 be 93 3d 4b da 08 3d b8 fa a6 bd 60 05 99 bd
       0.072141565 0.033411305 -0.081532896 -0.07471728
000100 1e b7 3f 3d 16 fd 9f 3d ed 7d f0 bd 99 81 33 be
       0.046805494 0.07811944 -0.117427684 -0.17529906
000110 df 20 13 be a4 e1 38 be b2 63 9c bd 13 b5 03 be
       -0.14368008 -0.18054825 -0.07636203 -0.12862043
000120 56 3d 27 3e 6e fd e1 bd e6 26 f9 bd fa b4 11 bd
       0.16331992 -0.11034666 -0.121656224 -0.035572983
000130 83 d4 f8 bd 61 98 89 3d e9 6e b6 bd be cd d5 bd
       -0.121499084 0.06718517 -0.08907873 -0.10439633
000140 0e 8e ad bd a7 c5 7d bd ef 52 02 3e e7 a7 39 bd
       -0.084743604 -0.061956074 0.12726949 -0.04532614
000150 1b 62 1e 3e 89 21 52 3d e6 b0 86 3d 25 db 2f 3d
       0.15467112 0.051301513 0.065767094 0.042933602
000160 0b 6c f9 bd d2 f1 04 be 4a 62 0a be f1 f7 62 3e
       -0.12178811 -0.12982872 -0.13514057 0.22164895
000170 66 22 06 be 2f a0 a6 3e c2 bb 3a 3b f7 11 09 be
       -0.1309906 0.32544085 0.002849326 -0.1338576
000180 dd 4d 25 bd cd 74 ee bd 81 f7 07 be f8 5b 95 bd
       -0.04035746 -0.11643372 -0.13278009 -0.07292932
000190 c4 7b 1a 3d 22 47 a1 3e cd ae de bd e3 ee 55 3e
       0.03771569 0.31499583 -0.10873184 0.2089191
0001a0 4d a5 a4 3d f3 1d 1b be 0a 30 c3 3d ae 21 15 3c
       0.08039341 -0.15148143 0.09530647 0.009102268
0001b0 37 82 2d 3d 9f 78 91 3c 0e 83 47 3e 75 cc 11 3c
       0.04236051 0.017757712 0.19483587 0.008898844
0001c0 fa 19 9b 3c 68 20 26 3d 58 56 fd 3c e4 18 9a 3d
       0.018933285 0.04055825 0.030924961 0.07524279

lstm.weight_ih_l1 f4 [116, 29]
000000 19 5f bd bd e2 ca 35 bc f6 50 d9 3c 55 53 b2 bd
       -0.09246654 -0.011095734 0.026527863 -0.087073006
000010 75 47 66 bc dc a7 0a 3d 99 93 66 3e 04 7d 17 be
       -0.014055123 0.03385149 0.22517242 -0.14793783
000020 63 aa b8 bd e9 c5 8a bd 6b 1f 2f bc 8a 11 9e bd
       -0.09016874 -0.067760296 -0.010688643 -0.07718189
000030 97 4c 2b 3d f1 5a ec 39 49 d9 69 bd 9a cf b7 3d
       0.04182109 0.00045081184 -0.057091985 0.08975144
000040 16 e7 32 be c8 9d 16 3e 19 84 06 3d 9c 5f a9 3d
       -0.17470965 0.14708626 0.032840822 0.08270189
000050 a4 b5 96 bd 29 13 36 3e 06 d1 a8 bd ac 5c 8c 3d
       -0.07358864 0.17780747 -0.08242993 0.06853613
000060 5e f5 d3 3d 2c 68 c4 bd a3 96 83 3c 87 d7 a6 3c
       0.103495345 -0.09590182 0.01606304 0.020366443
000070 38 14 b6 3c 30 5e 6b bc a4 e4 14 3e fb 4c 3d bd
       0.022226438 -0.014365718 0.14540344 -0.046215992
000080 ac 02 e4 3d 85 69 d2 3d 81 59 eb bc 01 a2 8d 3e
       0.11133322 0.102740325 -0.028729202 0.27662662
000090 88 ec 1a bc 37 52 61 be c1 ee 2d bd 1e ec 03 3d
       -0.0094558075 -0.22004019 -0.04246402 0.0322076
0000a0 ac 17 32 bd 23 7d c1 bd 53 27 8f 3b 59 5b 51 be
       -0.043479607 -0.09447696 0.0043687015 -0.20445003
0000b0 4d 6f 0e 3e a3 47 94 3d 9f 8a eb bd 55 fa 2a be
       0.13909645 0.07240226 -0.11501049 -0.16697057
0000c0 50 28 20 3e 56 95 fe 3c d9 d4 43 3e 8c a7 e3 bd
       0.15640378 0.031077068 0.19124164 -0.111159414
0000d0 ab 5b 3f 3d ac da 02 3d 67 1b ab 3d c0 7c 2c bd
       0.04671828 0.031946823 0.08354836 -0.04211116
0000e0 4f 5d c3 3d bc 10 36 3e ad 04 7d bd 70 37 14 be
       0.095392816 0.17779821 -0.061772037 -0.14474273
0000f0 be ee 7b 3d c5 52 25 bd 79 06 e0 bd e5 4c d6 3c
       0.06150698 -0.04036214 -0.109387346 0.026159713
000100 db 19 ae 3e 95 48 98 bd f5 bb 58 be 96 b7 29 be
       0.340041 -0.07435719 -0.2116545 -0.16573939
000110 5f 99 cc bd 45 3f de bd 08 10 a6 bd 02 20 25 bc
       -0.09990191 -0.108519115 -0.081085265 -0.010078432
000120 f3 61 24 be bc d1 01 3d ac c8 a0 3d 90 0f 0e 3d
       -0.1605299 0.03169416 0.07850775 0.03468281
000130 98 38 c7 3d 53 13 f8 3d 0b 67 b7 3d 21 c0 50 3d
       0.09727591 0.12113061 0.08955201 0.05096448
000140 ce 50 9c bd cd 95 cc 3c 2f 1f 5a bd ea 81 17 3d
       -0.076326 0.024973774 -0.053252395 0.03698913
000150 db 5c b4 bd 2d 06 a8 3c 2a 43 02 3d 77 2b b9 bd
       -0.08806773 0.020510757 0.031802334 -0.090414934
000160 07 60 cd 3d 1c d8 4c 3e 16 76 65 bd ab 51 59 be
       0.100280814 0.20004314 -0.05602082 -0.2122256
000170 df 00 43 3e 31 69 56 3e ad 8b 3d bd 8d f2 2f be
       0.19043301 0.20938565 -0.046275783 -0.1718237
000180 49 a2 71 bd dd 97 45 3d c9 e1 7c bd ff b9 5a be
       -0.058992658 0.04824053 -0.061738763 -0.21360014
000190 18 06 53 bd 0b fc 22 be 7f a5 a2 3d 60 19 0e be
       -0.051519483 -0.1591646 0.07941722 -0.13876867
0001a0 8c 16 1f 3e 6c f8 11 be 78 54 c4 bd b3 c0 37 3d
       0.15535945 -0.14254922 -0.09586424 0.044861507
0001b0 82 a7 ce bd 86 2c 07 3e 87 0c 92 3d d2 37 79 3e
       -0.10090543 0.13200578 0.07131296 0.243377
0001c0 24 31 62 be bd 7e 45 3d 13 75 1e 3d bc 99 aa 3d
       -0.22089058 0.04821657 0.03868587 0.08330104
0001d0 3b 21 cf bd b2 4b 8c bd 0b da 42 3d ab bd d6 bd
       -0.1011376 -0.06850375 0.047571223 -0.10485395
0001e0 ca 98 18 be 49 c9 b3 3d 9a 5d 62 3e b7 5f 5c 3b
       -0.14902034 0.087786265 0.22106019 0.0033626386
0001f0 42 95 3d bd 03 2f a6 3d 92 35 c8 bc 1f f8 c9 3d
       -0.04628492 0.081144355 -0.024439607 0.098617785
000200 59 61 3c be 41 95 2a be 5d 83 74 be 89 c8 fc bc
       -0.1839651 -0.16658498 -0.23878236 -0.030857341
000210 b6 d3 8b bd b8 0a a3 3a 45 e1 ef bc 7f 07 ba 3d
       -0.0682749 0.0012439108 -0.029282222 0.09083461
000220 6e 24 01 be bc 60 75 bd a7 0f 59 3e 48 92 ca bd
       -0.12611553 -0.059906706 0.21197377 -0.09891182
000230 ee 56 26 3e 68 cf a1 be a6 08 b6 bd 42 45 04 be
       0.16244099 -0.3160355 -0.08888368 -0.12917045
000240 be 66 5d bd f9 37 a0 be 4c 60 84 3c 6c 7f 43 3e
       -0.05405306 -0.31292704 0.0161592 0.19091576
000250 8c a9 cb 3d e5 4a 9b 3d 6e c2 3a 3e e7 f9 6c 3b
       0.09944448 0.075826444 0.18238232 0.0036159696
000260 9d f9 00 3d a6 70 24 be 31 82 6a 3d 2c b5 c1 bd
       0.03148805 -0.16058597 0.057253066 -0.09458384
000270 66 47 7e bd fd de a6 3d 4f e5 79 be 53 a0 f7 bd
       -0.06207981 0.081480004 -0.2440388 -0.12091126
000280 aa 93 8f 3e 56 9c 20 be 5e 85 8d 38 de c3 fe bd
       0.28042346 -0.15684637 6.7482455e-05 -0.124397025
000290 d4 92 c1 3b 67 50 39 be c4 c3 e4 bc 66 48 a2 bb
       0.005907396 -0.18097077 -0.02792538 -0.004952478
0002a0 0d d3 6b be 99 22 a3 bc 24 d2 33 bc d2 3c 09 3e
       -0.23029728 -0.019913958 -0.010975394 0.13402107
0002b0 4b 23 0e 3c 0a 3e 7a 3e ca 08 7a be a6 18 90 3e
       0.008675407 0.24437729 -0.24417415 0.28143805
0002c0 8d 34 cd 3c 57 90 f6 3c 01 59 f3 bd 29 2d 85 3c
       0.025049472 0.030098123 -0.118822105 0.016256886
0002d0 99 c9 b8 3c c4 c7 3a 3e cd 80 59 be f4 09 6e bc
       0.022557067 0.18240267 -0.2124054 -0.01452874
0002e0 c8 72 9b 3b fb c0 84 be d1 72 5c be 1f ae 34 3d
       0.0047439076 -0.25928482 -0.21528174 0.044111367
0002f0 18 0e 4b be 15 2c 52 3e 29 14 38 be 29 a2 43 3d
       -0.19829595 0.20524628 -0.1797644 0.04776207
000300 a9 ce 4a 3c 95 00 69 3e 49 76 0c be 1b 5e 0d be
       0.012378373 0.22754128 -0.13716997 -0.1380543
000310 5a b9 3a 3d ee 19 81 be 86 0d c1 3d 3e c6 e5 bc
       0.04558692 -0.25215095 0.094264075 -0.02804863
000320 a6 8a 1a 3e f9 f3 91 be 29 0b 86 3d 9f 31 66 be
       0.15091953 -0.2850645 0.065450974 -0.22479866
000330 fb ef 05 be 6f a1 39 3e 30 a4 a3 3d c8 95 ff bd
       -0.13079827 0.18127988 0.07990301 -0.124797404
000340 96 83 fc 3d a4 74 12 3e be 9c 0b 3e fb 24 de 3d
       0.123297855 0.14302307 0.13634011 0.10846897
000350 20 54 22 3e b3 f5 4b be 63 97 19 be e7 71 de 3c
       0.15852404 -0.19917946 -0.14999156 0.027153922
000360 9b 02 01 bc aa 3c 25 be 80 ac c8 bd 5e 01 74 3d
       -0.007874156 -0.16136423 -0.09798527 0.059571616
000370 41 a4 ba bc d8 a8 5b be e9 00 1b be 87 fb ea 3d
       -0.0227834 -0.21451128 -0.15137066 0.11473756
000380 63 bb ee 3d 60 2a 0f 3c fc 0d a9 bd b2 a4 29 bd
       0.11656835 0.00873813 -0.082546204 -0.04141683
000390 ae 1b 0c be d2 9a ab 3d 57 b5 69 be 8f 21 13 be
       -0.13682434 0.08379139 -0.22823082 -0.1436827
0003a0 10 7d a6 3b 46 3c 85 3e 16 f3 3c 3e 43 1d 14 3a
       0.0050808266 0.26022547 0.18452105 0.0005650112
0003b0 5f a2 16 be e7 51 aa 3e 7f f5 1d bd 50 ed 7d 3e
       -0.14710377 0.33265612 -0.0385642 0.24797559
0003c0 5e ff 51 be a5 26 95 be 7b e0 94 be de 3b 9b bb
       -0.20507571 -0.29131046 -0.29077515 -0.0047373613
0003d0 e3 9b c6 bb c3 f6 98 be 83 69 44 3e a3 05 79 3e
       -0.0060610636 -0.29875764 0.19180875 0.24318556
0003e0 39 f0 c8 3c 9c 3a 63 3e bb 1e 8a be d5 a7 12 3d
       0.02452861 0.22190326 -0.2697657 0.03580459
0003f0 13 83 b1 be a3 76 75 be 63 53 51 3e d0 d9 01 be
       -0.34670314 -0.23971038 0.20441966 -0.12680745

lstm.weight_hh_l1 f4 [116, 29]
000000 a4 26 21 3e 3e bd 58 bd d3 f3 43 be dc 22 e2 bd
       0.15737396 -0.05291485 -0.1913598 -0.11041805
000010 d4 c1 4f 3c 86 db be 3d d4 01 c2 bd 77 54 24 bc
       0.01268049 0.093192145 -0.09473005 -0.010029904
000020 20 31 98 3d b2 28 af 3d 18 62 dd bb fe ff 04 bd
       0.07431245 0.08552684 -0.0067560785 -0.032470696
000030 60 a0 73 3d 8a ef 29 bd f6 8f b7 bd 17 15 44 3d
       0.059479117 -0.041488208 -0.08963005 0.047871675
000040 1d 83 da bb d9 27 b8 3d 27 1b 29 3d 24 a8 22 3e
       -0.006668462 0.08991975 0.04128566 0.15884453
000050 f8 e0 f2 bd 75 0c fc 3d b2 e5 46 bd 0b a6 bc bd
       -0.11859316 0.123070635 -0.0485589 -0.09211358
000060 8b 92 09 3e 6f 3d c2 3a 1d 35 21 3d 31 de 90 bd
       0.13434808 0.0014819334 0.039357293 -0.0707363
000070 9d af 3a 3c 11 78 13 3e 01 c8 83 3c e0 af 08 3e
       0.0113944085 0.1440127 0.01608658 0.13348341
000080 e8 43 7b bd 0e 7d 13 be 5b 0b 0c 3e b0 eb 01 3e
       -0.061344057 -0.14403173 0.13676207 0.12687564
000090 d2 c0 f7 bd 59 ff 9c 3d 6c 7b 2c be 67 22 88 3d
       -0.120973244 0.07665891 -0.16843957 0.06647187
0000a0 57 82 d6 bd 45 22 35 3e 81 41 90 bd 90 1b 86 3d
       -0.10474079 0.17688854 -0.07043744 0.06548226
0000b0 be 72 1f bd 77 36 2d 3e 49 83 02 3e 55 e9 6e bd
       -0.038927786 0.16915308 0.12745394 -0.05832799
0000c0 df 83 16 3d 86 df 27 3c ea 7d 0d 3e f4 8c f0 bc
       0.036746856 0.010246163 0.13817564 -0.029364087
0000d0 1b 8a 03 3e 28 a4 93 bd 4d 0f cc 3c 7d 91 a8 bd
       0.12845652 -0.07209045 0.02490964 -0.08230875
0000e0 ad ca 2e 3e f1 d8 c1 3c 2e eb 95 3d f4 c3 10 be
       0.17069502 0.023663016 0.073202476 -0.1413725
0000f0 be ca 28 be d5 f9 f2 bd a5 12 36 3d 67 65 a1 bd
       -0.1648359 -0.11864058 0.044451375 -0.07880669
000100 22 ce 47 3d 9e 9c f0 3d 1c 42 5a 3e c0 80 22 3e
       0.048780568 0.11748622 0.21314281 0.15869427
000110 31 86 2f bd 01 74 4e bd 89 c1 c7 3d 6f 8c c4 3d
       -0.042852584 -0.0504036 0.09753711 0.09597098
000120 0a 61 01 bd 47 66 8d 3b ee 2a 61 3d 42 c5 25 be
       -0.031586684 0.004315171 0.05497258 -0.16188529
000130 04 53 01 3e 01 04 20 be 80 69 36 3d 51 f2 e6 bd
       0.12629324 -0.15626527 0.044534206 -0.11276687
000140 b5 d3 07 be 8a 34 36 3d b1 b6 ac bd 34 a0 3f be
       -0.13264354 0.0444837 -0.08433283 -0.18713456
000150 c8 e1 12 3e d5 27 e3 3d 76 a3 07 3e e9 a9 1f be
       0.14343941 0.11091582 0.13245949 -0.1559216
000160 a9 63 59 be 7c 79 11 be b7 59 b9 bd c0 0a 81 bb
       -0.21229424 -0.14206499 -0.09050315 -0.003938049
000170 df c1 61 3e 56 ee cf 3d 07 a3 03 3e e7 a1 7d 3e
       0.22046612 0.10152881 0.12855159 0.24768792
000180 2f 87 09 3e ee e1 3f bd a1 f1 95 bd f5 c4 ec 3d
       0.13430475 -0.046846323 -0.07321478 0.11561004
000190 2f 72 57 bd 2f 5b 03 be 89 22 a5 3b ac 18 a8 bd
       -0.05259913 -0.12827753 0.0050395173 -0.08207831
0001a0 99 7d 28 3e 72 8a 33 3d 65 90 e0 bc 01 be 53 3e
       0.16454162 0.043833204 -0.027412603 0.2067795
0001b0 39 2a d2 3d 3f 3e 15 3e f0 0e 96 3d 42 7e 59 3d
       0.102619596 0.14574526 0.07327068 0.053098924
0001c0 b9 72 24 3e 28 6a 1c be 67 ee 93 bd 46 e8 79 3d
       0.16059388 -0.1527487 -0.07223206 0.06101253
0001d0 c8 9a f0 3d 8b 70 e6 bd 63 d2 a4 3d 96 49 d6 bd
       0.11748272 -0.112519346 0.080479406 -0.10463254
0001e0 6c 64 db bd 5c 12 b4 3d 6f cf 8a bc 66 25 04 3e
       -0.10712513 0.08792564 -0.016944615 0.12904891
0001f0 af 60 ad 3e ca fc c4 bd bb 0e ce 3d 99 95 2e 3d
       0.33862826 -0.09618528 0.10061403 0.042623136
000200 dc 66 80 3d 32 e7 ca bd de 17 5c be 2e 11 f9 bd
       0.06269619 -0.09907378 -0.2149348 -0.1216148
000210 5d 5f d9 3d cd d7 c6 3d 3d 5a 9c bd 99 2b 31 3b
       0.10613892 0.097091295 -0.07634399 0.0027034043
000220 5b 68 3a 3e 3d 60 b6 bd 96 86 83 3d d9 8b 61 3e
       0.18203871 -0.08905075 0.064221546 0.22026004
000230 64 5a d2 bd e7 9b 2a 3e 8e a8 40 be 7d a0 af bd
       -0.10271147 0.16661035 -0.18814299 -0.085755326
000240 a3 40 be 3d c0 5b 2e 39 f5 52 ef bd e0 e2 fa 3d
       0.09289672 0.00016628113 -0.11685745 0.12250304
000250 37 ad 17 be c8 77 28 3e 38 3d 2e 3e e1 e8 a3 bb
       -0.1481217 0.16451943 0.1701554 -0.0050021266
000260 1d 9c c1 3d 75 ce df 3e 06 35 1f 3e 38 10 9a bd
       0.09453604 0.43712202 0.1554757 -0.07522625
000270 b7 99 f2 bd ae 7e e0 bd 63 08 5c 3c 64 9a 13 be
       -0.11845725 -0.10961662 0.013429734 -0.14414364
000280 86 cf 77 be 23 6e 22 be 18 a2 ed bc 99 0b b2 bd
       -0.24200258 -0.15862326 -0.029007956 -0.08693618
000290 cb 0d 7c be 97 90 76 3e d2 95 ce 3d 46 2c bd bd
       -0.24614637 0.24078594 0.1008717 -0.0923696
0002a0 66 3f 4c bc 6f 4a 75 3e 18 f1 03 3e 0f a5 24 be
       -0.012466287 0.23954175 0.12884939 -0.1607859
0002b0 78 0d 15 be 74 07 d4 3d 8c 11 49 be 16 91 52 be
       -0.14555919 0.10352984 -0.196356 -0.20563158
0002c0 bb 45 a0 bb 4c 24 59 bd cb 8e 0d 3e bf d0 99 3d
       -0.004891125 -0.05301313 0.13824002 0.07510518
0002d0 7e a4 56 be 38 75 0d 3e b7 09 e0 3e a3 fc b2 3d
       -0.20961186 0.13814247 0.43757412 0.08739593
0002e0 72 11 3b 3e 5d c4 f1 3d 65 10 52 bd 87 39 e1 3d
       0.18268374 0.118050314 -0.051285166 0.109973006
0002f0 56 0a 86 bd a5 0d 6b be ef e8 05 3e 4d b5 40 bd
       -0.0654494 -0.22954424 0.13077138 -0.047047902
000300 75 ed 8c 3d 85 48 2e be 38 3e d0 3d 0e 8c 45 bb
       0.06881229 -0.17019852 0.10168117 -0.0030143294
000310 aa 9a 1c 3c c4 71 a7 3b 41 db 15 3d 56 78 f3 3d
       0.009558359 0.0051099975 0.03658605 0.11888187
000320 59 01 2c be 61 98 9a 3a 60 1b ad 3d c2 36 ca bc
       -0.16797389 0.001179468 0.08452487 -0.024684314
000330 61 73 aa bd 39 86 04 3c 0b 7d 00 3e 93 f2 d1 3d
       -0.08322788 0.008088642 0.125477 0.102513455
000340 72 68 94 bc 6b 48 dd 3c 5f d8 16 3c 24 81 81 bd
       -0.01811621 0.02701207 0.00920686 -0.0632346
000350 67 4a 59 3e c1 1c 2f 3e 84 f7 09 3e ad 53 e9 bc
       0.21219788 0.17100812 0.13473326 -0.028482283
000360 cc f8 53 bc 19 69 73 bc 1f 2a 68 bd b2 93 10 be
       -0.012937736 -0.0148566 -0.056680795 -0.14118841
000370 94 09 9a 3d 53 ad 19 be 87 3f af bd d1 c0 02 be
       0.07521358 -0.15007524 -0.08557039 -0.12768866
000380 fd d6 a7 bd 7c f6 31 3e 38 18 d3 bd 76 40 24 3c
       -0.08195303 0.17379183 -0.10307354 0.010025134
000390 16 d9 1d be ce 21 31 3d 81 1f bd bc e4 8f 03 bc
       -0.15414843 0.04324513 -0.023086311 -0.008029912
0003a0 94 7e 2d be 6a 56 31 be 52 31 09 be 52 bf 36 be
       -0.16942817 -0.1731812 -0.1339772 -0.1784642
0003b0 75 63 99 3e 37 b9 0e bd 9e de 51 be d4 34 6b 3e
       0.29958692 -0.034844603 -0.20495078 0.22969371
0003c0 15 c2 ae 3d c5 c4 8a 3e 68 20 96 3e d8 11 b6 3e
       0.08533112 0.27103248 0.293216 0.3556049
0003d0 15 a9 4d 3d 0f 54 93 bb c4 48 fd bd f6 54 06 be
       0.050210077 -0.0044961045 -0.123673946 -0.13118348
0003e0 68 68 8f bd fb b6 4e 3e f6 19 9d be 6b d5 e2 bd
       -0.07002336 0.20186989 -0.3068387 -0.110758625
0003f0 a9 45 c1 3e 5e bc a9 3d ab 9e 78 3e 9d a7 8e 3e
       0.3774846 0.08287881 0.24279277 0.27862254

lstm.bias_ih_l1 f4 [116]
000000 5b e1 9a 3d fc c6 1a be 37 cb 0a 3e 90 c3 b4 bd
       0.075625144 -0.15114969 0.13554083 -0.08826363
000010 98 74 d5 bc d0 bf 91 3d ae 5b 34 3e 76 55 19 be
       -0.026056573 0.071166635 0.17613098 -0.14974007
000020 4a 41 82 3e b6 39 92 bd 90 81 40 3e 34 e7 b8 bd
       0.25440437 -0.07139914 0.18799424 -0.090284735
000030 a7 ce 76 bd 94 ce 0d bd 0b ed e9 3d 70 ad 55 bd
       -0.060255673 -0.034620836 0.114221655 -0.052167356
000040 d1 14 02 be 75 31 a7 3d d9 43 46 3d 46 40 05 be
       -0.12703253 0.0816373 0.04840455 -0.130128
000050 e6 91 9c 3d 42 26 48 3e 5c 14 e6 3d e5 53 cc 3d
       0.076450154 0.19545844 0.11234352 0.09976939
000060 d5 14 0e be a5 79 f5 bd 94 e1 47 be 24 7c 4d bd
       -0.13875134 -0.119860925 -0.19519645 -0.050167218
000070 46 7d 78 3c 49 64 1e be 96 f5 d9 bd 51 06 1c be
       0.015166586 -0.15467943 -0.10642545 -0.15236785
000080 72 77 bd 3c ec 04 36 3e f8 13 e1 3d e0 6d 29 be
       0.023128245 0.17775315 0.10990137 -0.1654582
000090 b0 6d 9f 3d 6d 26 98 3d b3 75 9c 3d 4a 7d 3c 3e
       0.07784593 0.07429204 0.07639637 0.18407169
0000a0 bc 6a b5 3d 91 67 db 3d 83 24 2c be 9d ae 1d bd
       0.088582486 0.10713113 -0.16810803 -0.038496602
0000b0 95 ee d0 3a 12 83 fe bd a0 96 2e be b2 b7 88 3c
       0.0015940244 -0.124273434 -0.17049646 0.016689155
0000c0 b5 26 93 3d 18 16 a4 bd 81 4e 07 be d8 19 85 3d
       0.07185117 -0.080120265 -0.1321354 0.0649907
0000d0 aa a5 6e bd ed 52 e7 bd a8 3f 20 be f1 53 94 bd
       -0.05826346 -0.11295114 -0.15649283 -0.07242573
0000e0 1e b3 3e 3d f8 31 20 be 3c 7a 99 bd ec 14 1b 3d
       0.04655754 -0.15644062 -0.074940175 0.03786175
0000f0 6c 3e d9 bc 3e 08 8d bc f8 98 07 be 76 17 30 bd
       -0.026519023 -0.017215844 -0.13241947 -0.042991124
000100 46 51 b1 3d 08 00 03 3e 10 f4 ee bd 63 33 09 3e
       0.0865808 0.1279298 -0.11667645 0.13398509
000110 73 a4 8b 3d c1 67 2d 3a 76 09 28 3e 28 06 83 3d
       0.068184756 0.0006614887 0.16409859 0.063976586
000120 7e cd c7 3d 60 d0 1b 3d d8 91 f3 3d ca 24 ef 3d
       0.097559914 0.03804052 0.11893052 0.11676939
000130 a8 7c 9f bd 3c 9d 2c 3c dd 80 0e be 63 68 40 3e
       -0.07787448 0.0105355345 -0.13916345 0.1878982
000140 ae 5d 53 3d 84 b0 59 3d 99 65 ba 3d 70 6e 9d 3d
       0.05160301 0.053146854 0.091014095 0.0768708
000150 99 06 ea 3c 2e 56 55 3d 48 ab 26 bd 19 f0 c7 3d
       0.0285676 0.05208414 -0.04069069 0.09762592
000160 33 55 d7 3d e0 7b 35 3e 02 cd 0a 3e 7d 85 50 bc
       0.10514297 0.17723036 0.13554767 -0.012727139
000170 f7 0c ae 3d 4d 93 13 3d 8e 61 dc bc 59 3c 4e 3d
       0.084985666 0.03602915 -0.026901986 0.05035052
000180 0f aa a8 3d 98 4a fa 3d f6 e5 40 bd 44 e3 39 3e
       0.08235561 0.12221259 -0.047094308 0.18153101
000190 84 29 3a 3e 37 eb 93 bd 0c 5b 56 3d 78 ab 33 3e
       0.181799 -0.07222598 0.052332923 0.17545879
0001a0 08 21 c4 3d 9c 16 18 bd cb 09 e6 3b 33 3b f1 3d
       0.09576613 -0.037130937 0.0070202104 0.117788695
0001b0 07 f9 19 3e 18 54 dc bd fa 2a 97 3c 03 db 8a bd
       0.15036403 -0.10758227 0.01845311 -0.067800544
0001c0 7f 2a 36 3e 6c e4 de bd 48 c1 01 3e 19 76 bd bd
       0.17789648 -0.10883412 0.12671387 -0.09251041

lstm.bias_hh_l1 f4 [116]
000000 9a a7 8a 3d a3 0e ec bb 19 7a a3 bd 11 17 92 bd
       0.06770249 -0.0072038933 -0.07982273 -0.07133306
000010 68 94 3a bd 63 33 6f 3e eb 9c b5 bd 68 19 5d bc
       -0.045551687 0.23359446 -0.0886782 -0.013494827
000020 7b ed 15 bd 00 7c ff 3d d1 32 be bd 1d ca 9f bb
       -0.036603432 0.12474823 -0.09287036 -0.0048763887
000030 ac 92 66 3c c0 e1 9c bd 7e 0a bf bd 32 31 33 3e
       0.014073055 -0.07660246 -0.09328173 0.17499235
000040 9a d0 6f bc 99 65 f0 bc 8e 31 d3 bd 5a 7c 09 be
       -0.014637137 -0.02934532 -0.10312186 -0.13426343
000050 ef 8c 66 3d dd ed 0f be a7 05 f1 3d 21 b9 13 be
       0.05628675 -0.14055581 0.11768656 -0.1442609
000060 ad 4d c0 bd 21 26 25 3e 66 8b 19 be da 6f 12 be
       -0.093898155 0.16127826 -0.14994583 -0.1430048
000070 bc f5 2a 3d b9 19 91 3d 44 86 3e 3e df 6c 06 3e
       0.041738257 0.07084984 0.18605906 0.13127469
000080 9e e4 02 3d 9d 0e 29 3e ee b8 14 3e 9a 77 0f be
       0.031956308 0.16509481 0.1452367 -0.14010468
000090 4e 4f 8f bd 51 3f f0 bd b3 20 c5 3b f2 49 5c 3d
       -0.06997548 -0.11730827 0.006015861 0.053781457
0000a0 b3 f9 49 be 06 25 15 3e 9f 1e 15 3d f4 67 36 3d
       -0.19724159 0.14564905 0.036406156 0.04453273
0000b0 e0 eb 26 3e 6e 22 27 be 8b 29 1c 3e 44 5b 23 3e
       0.16300917 -0.16321728 0.15250222 0.15952784
0000c0 8e b5 fe 3d 61 47 a7 bd 97 0b f3 bd 21 ac ff 3d
       0.124369726 -0.08167911 -0.11867445 0.12484003
0000d0 91 85 34 3e f6 29 0b 3e 29 e3 51 be c8 49 0c 3d
       0.17629077 0.13590226 -0.20496811 0.03425005
0000e0 37 21 8e bd e6 41 3e be 25 e3 9d bb 69 b0 f5 bd
       -0.06939929 -0.18579826 -0.0048183375 -0.11996538
0000f0 f7 8f 94 bd fb 4f d5 3c 1d 3a 3d 3e ed ca 55 3d
       -0.072540216 0.026039114 0.184792 0.05219548
000100 94 59 03 be 7d 15 a4 3d ae 4e 64 3e 39 e3 0b 3c
       -0.1282714 0.08011911 0.22295639 0.008538061
000110 c0 67 d1 bc f1 13 3b 3d 1a 5b 2d 3d 63 44 95 bd
       -0.025562167 0.045673314 0.04232321 -0.07288434
000120 00 f1 03 be 06 b8 09 be 36 52 87 bc 3e e5 05 be
       -0.12884903 -0.13449106 -0.016518693 -0.1307573
000130 89 e8 c7 3c 68 af 53 bd 53 15 4c 3c 8c 04 ab 3d
       0.024402874 -0.051680952 0.012456256 0.083504766
000140 84 db 95 3d 7f 5d 2f 3e d6 36 18 3d 54 1d 2d be
       0.0731726 0.1712551 0.03716167 -0.16905719
000150 e2 57 be bd 5f fb e5 bd 5c 42 1a 3e fc ef 87 bc
       -0.09294106 -0.11229586 0.15064377 -0.016593926
000160 d0 a6 05 3d 49 d3 e9 3d c2 3d 90 3d 64 62 db 3d
       0.032629788 0.114172526 0.07043029 0.10712126
000170 1d 69 b9 3d b7 76 5e bd e4 b8 72 3d 51 3d 9d 3d
       0.09053252 -0.054312434 0.059258357 0.07677711
000180 ad 83 3d bd 38 73 e0 bd 8f e4 8f bd 56 2e 37 bd
       -0.046268154 -0.10959476 -0.07026016 -0.044721924
000190 3e 12 74 3e 9b 92 10 3d 83 4b c2 bd c5 88 fe bd
       0.23835084 0.035296064 -0.09487059 -0.124284305
0001a0 b4 0a 07 3e e7 82 66 3d a6 04 4f 3e cb c2 40 3e
       0.13187677 0.056277182 0.20216617 0.18824308
0001b0 77 a8 17 be b0 9a 14 3d 5d 3d 19 be e7 ad 43 3e
       -0.14810358 0.036280334 -0.14964814 0.19109307
0001c0 61 27 4d 3e cc 5a 47 be 5f be 48 bd 77 bb b8 3d
       0.20034553 -0.1946823 -0.049009677 0.09020131

lstm.weight_ih_l2 f4 [116, 29]
000000 73 32 5e bb a8 aa b0 bd bd c9 2b be fe 51 2e be
       -0.0033904582 -0.086263 -0.16776176 -0.17023465
000010 c4 63 43 3c 30 1d 8e bc 87 74 f8 bc 6d 9f b1 3b
       0.011925641 -0.017347902 -0.030329002 0.0054206164
000020 a7 4d 0b be 82 e5 ce bd da 42 15 3e 2c a3 16 bc
       -0.13603841 -0.10102369 0.14576283 -0.009194177
000030 4e d9 84 bd 2a 9c 6b 3e 72 f2 20 bd 0b 5f ab 3d
       -0.0648676 0.2300879 -0.039293714 0.083677374
000040 c4 6d a1 bd 3e c2 88 bd c0 8d 2d be 4c 90 ee bd
       -0.07882264 -0.06677674 -0.16948605 -0.11648616
000050 0d 45 0b be c9 6f e7 bd f6 53 48 bd 2d b1 d8 bd
       -0.1360056 -0.11300618 -0.048908196 -0.105806686
000060 9e 1c 0d 3e 26 8b bd bd 50 bb c8 bd 13 68 92 bd
       0.13780448 -0.09255056 -0.09801352 -0.07148757
000070 fa f9 87 3d 08 eb bf 3d 60 19 84 bd d8 ac 24 be
       0.06639476 0.093710005 -0.064501524 -0.1608156
000080 66 b2 86 3c b5 9f d5 bd bc 46 35 bd ea 84 68 3d
       0.016442489 -0.10430852 -0.04425691 0.05676738
000090 e6 65 d9 3d 23 e2 92 be c4 32 88 3d dd fa 8f bd
       0.10615139 -0.28688154 0.06650308 -0.0703027
0000a0 8f 1e 7a 3d 76 92 0a 3e f7 9b a1 bd b5 47 51 be
       0.0610643 0.13532433 -0.07891076 -0.2043751
0000b0 91 35 04 be 86 ce 1c 3e 94 b0 f6 3d f8 70 8a 3d
       -0.12911059 0.15313157 0.12045398 0.06759828
0000c0 a2 c9 88 bc 59 16 4f bd b1 12 49 3e 07 57 02 bc
       -0.016697709 -0.05055842 0.19636036 -0.007955319
0000d0 97 e0 9c bd 23 9a 2a bd 61 6e 67 3d 7a 1b 9b bd
       -0.076600246 -0.041650902 0.05650175 -0.075736
0000e0 93 52 62 be b9 79 c8 3d fc 9a 35 3d b8 c4 ac 3d
       -0.22101812 0.09788842 0.044337258 0.084359586
0000f0 d4 01 24 be c4 87 4f 3d 95 40 54 bd fe c0 3c 3e
       -0.16016322 0.050666586 -0.051819403 0.18432996
000100 e3 4b 73 bd 2f f8 a1 3d 9b 54 03 be 7c 02 3b 3e
       -0.059398543 0.079086654 -0.12825243 0.18262666
000110 8d 65 b6 bd 25 36 6b 3e ff 26 27 3d eb d6 31 3e
       -0.08906088 0.22969873 0.040808674 0.17367141
000120 62 8f 10 be d1 4b d7 bd 37 31 06 be ff d5 67 3d
       -0.14117196 -0.10512508 -0.13104711 0.056600567
000130 35 39 8e bd 32 bf 0e 3d 75 48 2b 3e e3 65 36 3e
       -0.06944505 0.034850307 0.16726859 0.17812304
000140 ef c5 bc 3c 88 91 69 3d b4 89 f2 3c 51 00 fe 3d
       0.0230436 0.057023555 0.029606678 0.12402404
000150 d0 22 15 3e af f0 97 3d 44 74 94 3d 32 94 1d bd
       0.14564061 0.074189536 0.072487384 -0.03847141
000160 80 8a 43 3d 99 fb 31 be 44 37 e5 bc 4b 29 d0 bd
       0.047739506 -0.17381133 -0.027980454 -0.10164126
000170 f1 40 f5 3d fe bf 22 be 1b 8a 88 bd 41 0b 93 be
       0.11975277 -0.15893552 -0.066669665 -0.28719524
000180 89 09 2e 3e 52 d3 4e 3e 1b 82 29 3e 85 a6 10 3c
       0.16995825 0.201978 0.16553538 0.008828764
000190 a9 e4 de 3d d7 64 1d be e0 0a 21 3e 70 7e b3 bc
       0.10883457 -0.15370499 0.15726805 -0.021910876
0001a0 ad 04 52 3e 47 df 12 bc d8 cc 9a 3c 2b 89 fa bd
       0.20509596 -0.008964366 0.018896505 -0.12233194
0001b0 29 47 40 3e 42 50 0c 3e 7b ea 0b 3e d5 75 4a 3d
       0.18777145 0.13702491 0.13663666 0.04942878
0001c0 6c 2d 07 3d 28 18 96 3d 35 a3 a7 bd 26 14 04 bc
       0.033002302 0.07328826 -0.08185426 -0.008061444
0001d0 06 54 d0 3d 3e a0 0b 3e b1 b6 c7 3d cb d9 a2 3d
       0.10172276 0.13635346 0.097516425 0.07951697
0001e0 d9 67 29 bd 71 13 7f 3e a6 1e 37 3d e8 fe ad bd
       -0.041358802 0.2490976 0.044706963 -0.08495885
0001f0 4b 03 8c be 75 79 da 3a 3a 07 03 bc 09 e9 eb bd
       -0.27346262 0.0016668277 -0.007997328 -0.11519057
000200 5c 06 d4 bc 9c ce 8a 3c 47 a2 cf ba e3 78 4c be
       -0.025881939 0.016944222 -0.0015841209 -0.1996799
000210 df 85 35 3e 54 e9 cc bd f6 00 6b be 15 16 ea bc
       0.17726849 -0.10005441 -0.22949585 -0.028574983
000220 1e 24 4a bb 62 8c fa bc d2 68 63 3e a3 ae 23 3e
       -0.0030844281 -0.030584518 0.22207955 0.15984587
000230 d4 e7 a2 bd 26 82 89 3d a9 e4 f4 bd ff ee 70 be
       -0.07954374 0.06714277 -0.11957676 -0.2352867
000240 2a cb fd bc 72 27 25 be 6b 0c 8e bd f5 ad fc bd
       -0.030980665 -0.16128328 -0.06935962 -0.12337867
000250 4e b9 28 be 51 cb 30 be 62 44 12 3e 25 fb 4e be
       -0.16476938 -0.17265059 0.14283898 -0.20212992
000260 2d 73 22 3e e7 92 82 bd 5b 88 df bd 4e f3 d8 3d
       0.15864249 -0.06375676 -0.109146796 0.10593282
000270 e4 2b 30 3e 5a 2b e9 ba ce e7 2f 3e 7a 3e 18 be
       0.17204243 -0.0017789409 0.1717827 -0.14867583
000280 a4 ea 9b 3d 1f 7d 51 3e ea 7e 80 bd 86 6d e1 bc
       0.076131135 0.20457886 -0.06274207 -0.027518045
000290 be af 1f 3e 95 8e c9 bc f7 a9 65 3d b1 c5 10 bd
       0.15594384 -0.024604121 0.056070294 -0.035344783
0002a0 b8 67 8e 3d 57 c6 e1 3c cb 6d 34 bc 04 49 cf bc
       0.069533765 0.027560396 -0.011012505 -0.025303371
0002b0 f9 d2 24 be d0 9b 16 3e 25 8e 44 be 1f f2 4b be
       -0.16096105 0.14707875 -0.19194849 -0.1991658
0002c0 f3 4c b6 3c 3d f9 08 3e 9b 93 87 bd 6e 67 00 be
       0.02225349 0.13376327 -0.066199504 -0.12539455
0002d0 f4 db 03 be 49 b3 66 bd d7 dd f4 bc 95 83 10 3e
       -0.12876874 -0.056323323 -0.029890938 0.14112695
0002e0 eb 69 35 3d 41 67 f3 3d 8b a1 ca 3d 1a d2 fe 3d
       0.044290464 0.118849285 0.09894093 0.124424174
0002f0 92 12 11 3e 5d ed 6d bd d3 de 5c 3c ed 0c da bc
       0.1416724 -0.058087695 0.01348086 -0.026617492
000300 76 21 58 be a9 ef 55 be 5c a7 2c bc 9f 15 20 3e
       -0.21106514 -0.20892204 -0.010537948 0.15633248
000310 8d 77 2d 3d 45 62 d7 3d 38 02 a3 3d 87 b5 f5 3d
       0.04235034 0.1051679 0.079594076 0.11997514
000320 98 06 bf 3d 70 36 01 be d1 38 d0 3d ac 38 b7 3d
       0.093274295 -0.12618423 0.10167087 0.08946356
000330 14 f6 7a bd 8c 7a 3d be 04 c2 5a 3d 15 9e d7 bd
       -0.061269835 -0.18503779 0.053407684 -0.10528199
000340 eb 64 eb bd 0a 3c e3 bd cd 00 4e 3e 27 ac 3c be
       -0.11493858 -0.11095436 0.20117493 -0.18425046
000350 91 31 da bd 50 91 a2 3d fd 35 29 bc 25 47 d9 3d
       -0.10653985 0.079378724 -0.010327813 0.10609273
000360 2b fa f7 3c 57 6f 62 3b b8 0d 37 be 84 a8 3b 3e
       0.030270657 0.0034551227 -0.17876327 0.18326002
000370 69 78 e0 bd bb 44 42 be 3b 68 a2 bd fd 8a a5 bd
       -0.109604664 -0.18971531 -0.07930037 -0.080831505
000380 a0 39 92 3d f7 66 26 3e 33 bb 18 be 23 6c 23 be
       0.07139897 0.16250215 -0.14915161 -0.1595922
000390 53 2a e5 bc a7 96 2f 3d f2 fd 0d 3e e8 6a 25 3b
       -0.027974283 0.042868283 0.13866404 0.0025240723
0003a0 c0 2f f4 bd e6 4e a9 bc 2a f4 a3 bd be 8b ae 3c
       -0.1192317 -0.020667505 -0.08005555 0.021306869
0003b0 45 8b fd 3d f6 37 d1 bb 5e 28 82 be 00 a4 ca 3d
       0.12380079 -0.006384845 -0.25421423 0.09894562
0003c0 3d 77 95 be 3b 99 7c 3c 1b 02 83 bd a1 c1 90 bd
       -0.29192534 0.015417392 -0.06396886 -0.07068182
0003d0 e8 14 0a 3e 3c 4d 0e 3e 1e b8 12 be 2d 9a 6c be
       0.13484538 0.1389665 -0.14328048 -0.23105688
0003e0 a4 c2 b0 bd c6 a0 48 3e d6 2f ca 3d 46 79 10 be
       -0.08630875 0.1959258 0.09872405 -0.14108762
0003f0 df 62 2d be 6d 9a b0 3c eb c2 12 bd 3a 53 34 3e
       -0.16932248 0.021558011 -0.03583042 0.17609873
