models/lstm-tune-overfit-cat-6/LSTM_6.pt (torch, 809671 bytes, 74 tensors)

lstm.weight_ih_l0 f4 [148, 1]
0.104552865 -0.046541765 -0.02197589 0.05281862 0.11930979 0.069407344 0.10344903 -0.15147717
0.15910497 0.023454664 0.0094583975 -0.03277029 0.098003834 0.15064964 -0.04397454 0.11888835
-0.059891034 -0.046676766 -0.10626516 -0.020308733 -0.07971832 -0.03984888 -0.07303223 -0.12102555
-0.055517863 0.07475925 -0.10192541 0.12682894 0.12306661 -0.024622908 0.009042977 0.0013969907
-0.1549263 0.013710943 0.014961559 -0.0649942 -0.13694207 0.055885144 -0.095581196 0.08443404
-0.0740661 0.10655547 0.02250178 0.111685134 0.10629132 0.018486496 0.003114827 -0.0843698
-0.075686164 0.08334136 0.080125794 -0.0349065 -0.05489645 0.11811386 0.12186108 0.12549207
-0.14419112 -0.11894396 -0.10284965 0.12366017 0.14261174 -0.14345525 -0.06452253 -0.15878436
0.009114697 0.04004978 -0.073495865 0.07291209 -0.037482776 0.15318479 0.10699768 0.13012005
-0.0144309215 0.053141307 -0.06879613 -0.1126223 -0.1551556 -0.071661435 0.023598505 -0.010534532
0.009623238 0.14673853 0.11759854 0.12310872 -0.028450876 0.0028869808 0.0017554596 0.020236162
-0.14433385 -0.09239189 -0.020095922 -0.0663301 0.067382954 0.1577159 0.026193822 0.086601
0.10727723 -0.116922155 -0.048730068 0.110580534 0.026027765 0.12719828 -0.013472913 0.08825088
0.0050784145 0.1357434 0.1606473 0.116554625 0.14168426 0.12543061 -0.14920461 0.009907319
0.0010031129 0.0482914 0.047269452 0.014076466 0.082356825 -0.10882131 0.008663541 0.034059092
-0.00025339684 -0.15407345 -0.033240486 -0.13236542 0.1056286 -0.021447798 -0.027056132 0.14113171
0.027424391 0.06830808 0.088644676 0.050078925 -0.14472933 0.015994867 -0.041618757 0.09129365
0.025425846 -0.013873159 -0.081899256 -0.06185488 -0.097553894 0.14089215 0.0037032359 -0.1403209
0.15846433 0.104376815 0.16401567 0.14916554
00000000: d01f d63d 94a2 3ebd c806 b4bc 5658 583d
00000010: b158 f43d 7025 8e3d 16dd d33d d51c 1bbe
00000020: 6aec 223e ff23 c03c 65f7 1a3c 243a 06bd
00000030: 3cb6 c83d e643 1a3e a61e 34bd bc7b f33d
00000040: 4d50 75bd 2330 3fbd 8ca1 d9bd 805e a6bc
00000050: 5c43 a3bd 9438 23bd ec91 95bd 3edc f7bd
00000060: b366 63bd 611b 993d 45be d0bd 72df 013e
00000070: 590a fc3d fbb5 c9bc ff28 143c 3b1b b73a
00000080: 00a5 1ebe dda3 603c 5421 753c ae1b 85bd
00000090: 8b3a 0cbe d2e7 643d 13c0 c3bd c1eb ac3d
000000a0: f8af 97bd c139 da3d a755 b83c 2dbb e43d
000000b0: 43af d93d fe70 973c 2022 4c3b 13ca acbd
000000c0: 5901 9bbd e0ae aa3d fe18 a43d 1efa 0ebd
000000d0: 1adb 60bd aee5 f13d 4d92 f93d fe80 003e
000000e0: d6a6 13be e498 f3bd d6a2 d2bd 8b41 fd3d
000000f0: d008 123e efe5 12be 6324 84bd 5e98 22be
00000100: cf55 153c 3d0b 243d 0085 96bd ef52 953d
00000110: 8a87 19bd 79dc 1c3e 9a21 db3d 313e 053e
00000120: ac6f 6cbc b3aa 593d fce4 8cbd 85a6 e6bd
00000130: 1ce1 1ebe 3bc3 92bd a751 c13c 0899 2cbc
00000140: c9aa 1d3c a042 163e 81d7 f03d 6d20 fc3d
00000150: d011 e9bc 8033 3d3b 7317 e63a 4fc6 a53c
00000160: 41cc 13be f637 bdbd 34a0 a4bc 13d8 87bd
00000170: 1300 8a3d 4780 213e 6d94 d63c dd5b b13d
00000180: 2ab4 db3d e274 efbd 2e99 47bd 0c78 e23d
00000190: 2e38 d53c 4440 023e 7ebd 5cbc e1bc b43d
000001a0: d468 a63b 5100 0b3e ba80 243e 31b4 ee3d
000001b0: ae15 113e e270 003e 18c9 18be 4f52 223c
000001c0: e27a 833a 34cd 453d 9d9d 413d faa0 663c
000001d0: b2aa a83d b5dd debd 86f1 0d3c 8c81 0b3d
000001e0: 59da 84b9 6ec5 1dbe 2d27 08bd cd8a 07be
000001f0: cf53 d83d 4bb3 afbc d2a4 ddbc d584 103e
00000200: 1ea9 e03c 1be5 8b3d 578b b53d 8f1f 4d3d
00000210: ed33 14be ab07 833c 6e78 2abd 2af8 ba3d
00000220: dd49 d03c 3f4c 63bc ccba a7bd 8b5b 7dbd
00000230: 56ca c7bd 0846 103e fdb1 723b 48b0 0fbe
00000240: 7944 223e 83c3 d53d b9f3 273e dabe 183e

lstm.weight_hh_l0 f4 [148, 37]
0.060244594 -0.024882149 0.06913664 -0.081356525 4.184289e-05 0.09254886 0.028896593 0.07238367
-0.15437281 -0.07132034 0.04522514 -0.04984921 -0.08839458 0.14650984 0.15697832 -0.053397186
0.05709952 0.12505172 -0.047070086 -0.15918198 0.13933796 -0.114531435 -0.12859507 0.1336335
-0.15259075 0.13690297 -0.14701593 0.030706014 -0.09428774 0.025470553 -0.02864383 -0.14230809
-0.13913088 -0.035162628 -0.052761815 -0.14826706 0.050504357 -0.05052023 0.13123168 0.067454785
0.0138869975 0.07133797 0.1223215 0.1422421 -0.10028496 -0.13060541 -0.11478852 -0.11768211
-0.004852866 -0.093989305 0.027866093 -0.09477719 0.154738 0.08749908 0.07790285 0.043151088
0.10836886 0.15884995 -0.048740108 0.03716721 0.009873042 0.036435213 -0.087051064 0.030027142
0.034599677 -0.16128519 -0.03716365 -0.007944657 0.01536102 0.012020087 0.092271455 -0.15410198
-0.14099365 0.13437058 0.05849627 -0.09816429 -0.031264387 0.03421644 -0.14081252 -0.031185495
0.016410459 0.13005593 0.102098115 0.09871908 -0.0020161015 0.12971517 0.06614362 -0.114481665
-0.07641694 -0.063930914 0.11636054 0.062499255 -0.020480704 -0.090189695 0.05856402 0.11320953
-0.13956568 0.027411433 -0.006670209 -0.124541424 0.056644112 -0.04818106 -0.14671102 0.00027970722
-0.017851928 -0.08648408 -0.13544735 0.09074683 0.11077794 -0.0313832 -0.046649188 -0.117405705
0.15165345 0.08804615 -0.02372114 -0.08472225 0.05682738 0.10555745 -0.01824634 -0.14921439
0.101565324 -0.0926921 -0.12023084 -0.11613831 0.09637579 0.032437157 -0.07069026 -0.04309769
0.13007715 0.13735823 -0.11699103 -0.08897501 0.12238745 0.12235473 -0.11051927 -0.156516
0.04362192 0.018906314 0.01608694 0.00593576 -0.07475716 0.15545823 -0.010882896 0.16262592
0.14461382 -0.15440606 -0.14653558 0.06687773 0.09169431 -0.11283716 -0.06566713 -0.13286118
0.08444388 0.06362411 -0.0073996643 -0.057801414 -0.14260928 0.15321632 0.12823641 0.09790825
0.022707557 0.053697832 -0.059965756 0.06595727 -0.06889307 -0.11948061 0.111787066 0.002680408
0.13021177 0.1398724 0.13257927 -0.0002462771 0.10652393 -0.062423367 -0.037037164 -0.15256494
0.15728012 0.06871035 0.12028013 0.15551987 -0.0019117754 0.1191351 0.10096749 0.09970121
0.14881057 -0.12535048 0.076202966 -0.13736328 -0.028556628 -0.05257425 0.015849948 0.03818746
0.03906084 -0.025765853 -0.003244736 0.031544972 -0.05736895 0.14577763 0.08067709 0.026531976
0.022774138 0.07808107 -0.09513831 0.1518209 -0.029345822 -0.06607027 0.0075168596 0.061272804
-0.006491361 0.12644021 0.08974242 0.08313801 -0.087015145 0.09887708 -0.06542135 -0.16097708
0.108262405 -0.15186933 -0.0133174155 -0.13167678 -0.006234372 0.08927911 0.081705354 0.13732155
-0.116861194 0.01894614 -0.14793004 0.12713893 -0.119375326 -0.014439268 -0.0142107755 -0.06982094
0.11276124 -0.061526682 0.045060873 0.05154724 0.16020937 0.11709349 0.10983863 -0.0983184
0.0200017 0.077540405 0.103051506 0.042879548 0.026465157 -0.13211958 0.026008945 0.08797395
0.017901042 -0.14749755 -0.14869025 -0.083493635 0.06854241 0.07866603 -0.030361729 0.021309316
00000000: 09c3 763d a6d5 cbbc 8397 8d3d 409e a6bd
00000010: 7680 2f38 428a bd3d 8cb8 ec3c e43d 943d
00000020: e813 1ebe 6610 92bd ff3d 393d af2e 4cbd
00000030: 3808 b5bd ad06 163e edbe 203e 02b7 5abd
00000040: 30e1 693d 8f0d 003e 90cc 40bd 9a00 23be
00000050: 9cae 0e3e 758f eabd 6dae 03be 38d7 083e
00000060: c040 1cbe 4b30 0c3e 588b 16be 2e8b fb3c
00000070: ee19 c1bd 9fa7 d03c 77a6 eabc 36b9 11be
00000080: 5378 0ebe b006 10bd c61c 58bd 52d3 17be
00000090: a8dd 4e3d 4dee 4ebd 9961 063e bc25 8a3d
000000a0: 4a86 633c a419 923d b283 fa3d eaa7 113e
000000b0: 3362 cdbd 6dbd 05be 3e16 ebbd 5103 f1bd
000000c0: ca04 9fbb 777d c0bd 6f47 e43c 8b1a c2bd
000000d0: a373 1e3e b832 b33d 888b 9f3d 32bf 303d
000000e0: 7ef0 dd3d 90a9 223e b5a3 47bd a53c 183d
000000f0: 8ac2 213c 173d 153d d447 b2bd 7bfb f53c
00000100: 64b8 0d3d f227 25be e938 18bd 4e2a 02bc
00000110: caac 7b3c e6ef 443c d1f8 bc3d e9cc 1dbe
00000120: a460 10be 7198 093e c999 6f3d 5c0a c9bd
00000130: 160f 00bd 8a26 0c3d 2831 10be b978 ffbc
00000140: 3a6f 863c 622d 053e d118 d13d 3b2d ca3d
00000150: 9220 04bb 0ed4 043e 4e76 873d 5d75 eabd
00000160: 7c80 9cbd 36ee 82bd 6f4e ee3d 38ff 7f3d
00000170: 26c7 a7bc 60b5 b8bd d3e0 6f3d 66da e73d
00000180: 4eea 0ebe f18d e03c c591 dabb 930f ffbd
00000190: a803 683d 8159 45bd 6a3b 16be aba5 9239
000001a0: 353e 92bc 911e b1bd b6b2 0abe 79d9 b93d
000001b0: 8bdf e23d ac8b 00bd 3813 3fbd 6772 f0bd
000001c0: 0b4b 1b3e 8a51 b43d d652 c2bc dc82 adbd
000001d0: d4c3 683d 812e d83d 5979 95bc a8cb 18be
000001e0: 7b01 d03d 5bd5 bdbd 963b f6bd ecd9 edbd
000001f0: ac60 c53d d3dc 043d 0ec6 90bd 3487 30bd
00000200: f232 053e a3a7 0c3e fe98 efbd 8838 b6bd
00000210: 45a6 fa3d 1e95 fa3d ed57 e2bd bb45 20be
00000220: e6ac 323d 6ae1 9a3c c2c8 833c c480 c23b
00000230: 481a 99bd 7130 1f3e 2d4e 32bc 6987 263e
00000240: a515 143e 9f1c 1ebe 6c0d 16be 31f7 883d
00000250: 3aca bb3d 2b17 e7bd 7d7c 86bd c30c 08be
00000260: eaf0 ac3d 5b4d 823d e278 f2bb 2dc1 6cbd
00000270: 2b08 12be bde4 1c3e 6850 033e 1f84 c83d
00000280: 3305 ba3c 42f2 5b3d a79e 75bd 9b14 873d
00000290: cf17 8dbd 40b2 f4bd 9ef0 e43d c9a9 2f3b
000002a0: 3c56 053e b63a 0f3e dcc2 073e c11e 81b9
000002b0: 3829 da3d a5af 7fbd 48b4 17bd fc39 1cbe
000002c0: 0a0e 213e 03b8 8c3d 6e55 f63d 9a40 1f3e
000002d0: 8a94 faba 1afd f33d 0bc8 ce3d 2630 cc3d
000002e0: cc61 183e e05b 00be 4d10 9c3d f6a8 0cbe
000002f0: 97ef e9bc 1958 57bd c0d7 813c 746a 1c3d
00000300: 42fe 1f3d e912 d3bc a3a5 54bb 4d35 013d
00000310: b4fb 6abd bb46 153e 083a a53d 9659 d93c
00000320: d490 ba3c f8e8 9f3d e0d7 c2bd f076 1b3e
00000330: a666 f0bc da4f 87bd fd4f f63b 31f9 7a3d
00000340: 7cb5 d4bb 8b79 013e e0ca b73d 4344 aa3d
00000350: ff34 b2bd 1180 ca3d a1fb 85bd 2dd7 24be
00000360: aeb8 dd3d a283 1bbe 4a31 5abc 47d6 06be
00000370: b449 ccbb f7d7 b63d 2355 a73d 059e 0c3e
00000380: ec54 efbd ef34 9b3c f97a 17be b530 023e
00000390: 0d7b f4bd ae92 6cbc 50d4 68bc 48fe 8ebd
000003a0: 5def e63d 6703 7cbd c091 383d 3323 533d
000003b0: ed0d 243e b6ce ef3d 13f3 e03d 285b c9bd
000003c0: 9bda a33c 81cd 9e3d ab0c d33d 77a2 2f3d
000003d0: 75cd d83c 5b4a 07be b610 d53c b02b b43d
000003e0: 35a5 923c 9909 17be 4242 18be b6fe aabd
000003f0: f75f 8c3d a81b a13d 29b9 f8bc e090 ae3c

lstm.bias_ih_l0 f4 [148]
0.036057316 0.060567237 0.12161764 0.006624796 0.047493134 -0.13599558 0.017416598 -0.06685762
0.05440606 -0.15251164 0.05749314 0.08842147 -0.063606836 0.041937973 0.13034424 0.16052808
-0.15395309 -0.12921502 -0.070807725 -0.02031766 -0.023330592 -0.13880159 -0.14184032 0.06406889
0.050253768 0.020287072 0.029205397 0.16368762 0.06039284 0.017542018 0.049095485 0.012082971
0.06037272 -0.009571312 0.04070179 -0.039972235 -0.1478072 0.15420781 -0.020350164 -0.04550891
0.040695705 0.060054604 -0.06781954 -0.15564303 0.103680655 -0.10117575 0.13394973 0.027233087
0.1643016 0.13162561 -0.09597334 -0.13929942 -0.012591552 -0.12828423 -0.061074357 0.04678604
-0.08132664 -0.07609147 -0.0026094888 0.032110985 0.14676118 -0.035180986 0.00079449627 -0.0033739572
-0.10051516 0.14473213 -0.15492058 -0.15331137 -0.16133405 0.1533945 -0.005553441 -0.039956067
-0.04994957 -0.055035286 0.109198034 -0.087576695 0.03815014 -0.08077297 -0.11913499 0.10132295
0.10561663 0.092919216 -0.14371316 -0.1445539 -0.11424827 0.027798178 -0.120807566 -0.053424012
-0.15897109 -0.08137186 0.104735404 -0.10487839 0.0016182583 0.11053072 -0.0608401 -0.070854135
0.13805129 0.0952101 0.12561782 -0.07990496 -0.15896828 -0.10264858 0.14053024 -0.14426787
0.027809648 -0.13917299 -0.058777865 0.08709737 0.08682475 0.08034295 -0.051063668 0.030694371
0.08500428 0.042412635 0.12705441 0.11902415 0.14753945 -0.12377549 -0.030613212 0.1063528
-0.058428247 -0.099440575 -0.110102475 0.048410043 -0.008224771 -0.036795635 -0.025682744 -0.14411843
-0.02379745 0.16150622 0.118169054 -0.11603299 0.1211767 -0.056438264 0.049513817 0.037115794
0.046957523 -0.039822742 -0.08434727 -0.13338205 0.048376285 -0.05857408 -0.06448958 0.06892545
0.15439287 -0.06482377 0.043934155 -0.049011644
00000000: d6b0 133d 5a15 783d ab12 f93d d114 d93b
00000010: 2988 423d 6d42 0bbe 41ad 8e3c a6ec 88bd
00000020: e4d8 5e3d 032c 1cbe ed7d 6b3d 5116 b53d
00000030: 4d44 82bd 27c7 2b3d f678 053e 7961 243e
00000040: e1a5 1dbe f150 04be a403 91bd 3971 a6bc
00000050: cc1f bfbc 0122 0ebe 973e 11be 8d36 833d
00000060: e5d6 4d3d 1331 a63c 2840 ef3c ba9d 273e
00000070: 7c5e 773d 47b4 8f3c 5918 493d a7f7 453c
00000080: 6349 773d fed0 1cbc ecb6 263d edb9 23bd
00000090: c55a 17be a7e8 1d3e 63b5 a6bc 8d67 3abd
000000a0: 8ab0 263d d1fb 753d f9e4 8abd e360 1fbe
000000b0: 8656 d43d 3b35 cfbd 1e2a 093e ec17 df3c
000000c0: ae3e 283e ddc8 063e ac8d c4bd 82a4 0ebe
000000d0: cc4c 4ebc f15c 03be 1b29 7abd b8a2 3f3d
000000e0: 958e a6bd d8d5 9bbd f503 2bbb cf86 033d
000000f0: 9048 163e f019 10bd be45 503a 9c1d 5dbb
00000100: e4da cdbd a934 143e 80a3 1ebe a8fd 1cbe
00000110: c134 25be 7313 1d3e a4f9 b5bb f9a8 23bd
00000120: ec97 4cbd ae6c 61bd 38a3 df3d 695b b3bd
00000130: 5243 1c3d 4d6c a5bd 0cfd f3bd 6882 cf3d
00000140: 884d d83d 6e4c be3d 8b29 13be f005 14be
00000150: fffa e9bd 01b9 e33c f569 f7bd 23d3 5abd
00000160: 51c9 22be 4aa6 a6bd 847f d63d 7bca d6bd
00000170: bd1b d43a ee5d e23d 7833 79bd f91b 91bd
00000180: 515d 0d3e 83fd c23d f5a1 003e 36a5 a3bd
00000190: 95c8 22be 6b39 d2bd 29e7 0f3e f5ba 13be
000001a0: 0fd1 e33c 5d83 0ebe 0fc1 70bd 1b60 b23d
000001b0: 2dd1 b13d d88a a43d 2328 51bd c372 fb3c
000001c0: b916 ae3d dfb8 2d3d 8d1a 023e efc2 f33d
000001d0: 9514 173e 017e fdbd 8fc8 fabc 7fcf d93d
000001e0: 7552 6fbd 80a7 cbbd 687d e1bd 9c49 463d
000001f0: 31c1 06bc 05b7 16bd 9e64 d2bc c893 13be
00000200: dff2 c2bc e361 253e 9e02 f23d b4a2 edbd
00000210: 7d2b f83d cf2b 67bd 00cf 4a3d bb06 183d
00000220: 8856 403d 2c1d 23bd 43be acbd 4e95 08be
00000230: 3626 463d 60eb 6fbd 1d13 84bd c928 8d3d
00000240: 2a19 1e3e 53c2 84bd 4df4 333d 6fc0 48bd

lstm.bias_hh_l0 f4 [148]
0.15230982 -0.04064083 0.04116691 0.16183738 0.0830412 0.09392588 0.1539261 0.16312376
0.1492848 0.0780745 -0.13636746 -0.04706756 0.11392712 -0.15711841 -0.09846903 -0.12923238
-0.032357574 0.032169525 -0.09912064 -0.08955907 -0.053391952 0.0054372847 0.03384157 0.118786424
-0.106906265 -0.14235824 0.08661207 -0.09183703 -0.16288775 -0.09761215 0.018468332 -0.07838725
0.163387 0.006142788 0.11117346 -0.072139174 0.031933244 -0.0052937097 0.007170872 -0.14945666
0.07998155 -0.096197076 0.09850313 -0.11249461 -0.07344471 -0.03280365 -0.14403817 -0.020823479
-0.03737658 -0.095405474 -0.033620484 0.121534266 -0.08170744 0.15781435 0.0057349703 0.05252791
0.08817761 -0.16435887 -0.08601111 -0.003182595 0.106136136 0.13336776 -0.017791772 -0.15499006
-0.14127855 0.13011141 0.16328032 -0.017096447 0.066382654 0.055109866 0.15868616 -0.0011610084
-0.05754718 -0.05367639 0.0688786 0.05995207 0.019570228 0.060646877 0.09503443 -0.039534155
-0.10982852 0.11545071 -0.10414831 -0.0147249475 -0.055710047 0.05889661 -0.13191968 -0.12087372
-0.11656114 -0.04260262 0.039619572 0.0205727 -0.03606749 0.04073348 -0.078733794 0.16018948
0.116898105 0.061772063 0.01421323 0.06809075 0.15322149 -0.10185343 0.08217013 -0.12507048
0.10981027 0.11888994 0.13993791 0.01529973 -0.057324722 0.051970482 -0.12629734 -0.11871065
0.045983784 -0.097839504 0.08163114 -0.118643 0.04230688 0.06862925 0.05837354 -0.16322543
-0.008696628 -0.12365384 -0.12263515 0.14815287 -0.09919731 -0.021789327 -0.14102902 -0.085831515
-0.06836881 0.09180884 0.07606393 0.034019332 -0.04868314 -0.0768343 0.12081201 -0.020723311
-0.081237696 -0.0064568776 -0.10903725 -0.10127108 0.075230405 0.14038636 0.0727766 0.08103527
0.06523623 -0.056872018 0.03443657 0.12682953
00000000: 1bf7 1b3e 0077 26bd a29e 283d b3b8 253e
00000010: 8111 aa3d 365c c03d ce9e 1d3e ea09 273e
00000020: 1dde 183e 86e5 9f3d e9a3 0bbe eac9 40bd
00000030: 9f52 e93d a6e3 20be 21aa c9bd 7e55 04be
00000040: 6089 04bd 31c4 033d c3ff cabd bf6a b7bd
00000050: 85b1 5abd 402b b23b 759d 0a3d 4c46 f33d
00000060: acf1 dabd 5cc6 11be ab61 b13d 0e15 bcbd
00000070: 0ccc 26be e1e8 c7bd e64a 973c 7f89 a0bd
00000080: ec4e 273e 7149 c93b e9ae e33d b4bd 93bd
00000090: 6fcc 023d db76 adbb a2f9 ea3b 2b0b 19be
000000a0: 5ecd a33d f902 c5bd 02bc c93d 9363 e6bd
000000b0: 2e6a 96bd 1f5d 06bd be7e 13be 0096 aabc
000000c0: 2f18 19bd f263 c3bd a2b5 09bd f5e6 f83d
000000d0: 3b56 a7bd 169a 213e 6bec bb3b 8127 573d
000000e0: 7696 b43d b14d 28be 9826 b0bd 1593 50bb
000000f0: e75d d93d 8f91 083e 0dc0 91bc b7b5 1ebe
00000100: 53ab 10be ed3b 053e f532 273e d90d 8cbc
00000110: a1f3 873d e2ba 613d a07e 223e fa2c 98ba
00000120: 98b6 6bbd c6db 5bbd 3910 8d3d 4d90 753d
00000130: be51 a03c dc68 783d 69a1 c23d 91ee 21bd
00000140: c6ed e0bd 6c71 ec3d b64b d5bd e840 71bc
00000150: 3830 64bd 923d 713d f415 07be a48c f7bd
00000160: 9bb7 eebd 1680 2ebd 2248 223d 1488 a83c
00000170: 81bb 13bd 26d8 263d 2f3f a1bd b608 243e
00000180: 4668 ef3d b404 7d3d 9cde 683c 2a73 8b3d
00000190: 18e6 1c3e 8898 d0bd d048 a83d 7a12 00be
000001a0: 35e4 e03d 927c f33d e24b 0f3e b8ab 7a3c
000001b0: 54cd 6abd 00df 543d 1754 01be 921e f3bd
000001c0: 7e59 3c3d 1460 c8bd 3a2e a73d 1afb f2bd
000001d0: fb49 2d3d 7e8d 8c3d 1819 6f3d 9124 27be
000001e0: 4d7c 0ebc 393e fdbd 2328 fbbd 63b5 173e
000001f0: f627 cbbd 887f b2bc e969 10be 6fc8 afbd
00000200: f204 8cbd 4606 bc3d 68c7 9b3d db57 0b3d
00000210: f967 47bd 4d5b 9dbd 496c f73d efc3 a9bc
00000220: f35f a6bd 3794 d3bb ec4e dfbd 3667 cfbd
00000230: 6612 9a3d 71c1 0f3e e60b 953d d2f5 a53d
00000240: 939a 853d a2f2 68bd 5c0d 0d3d 9adf 013e

lstm.weight_ih_l1 f4 [148, 37]
-0.07891169 -0.056520514 0.16200897 -0.11229691 -0.07021052 0.15085629 -0.08048909 -0.13154696
0.021308644 0.13047622 -0.09646676 0.12760098 -0.039673723 0.13118762 0.12480223 0.0761395
-0.04105638 -0.1528012 0.16240129 -0.08518521 0.029813273 -0.065924294 0.159458 0.005469456
-0.056775447 0.024863042 0.08795711 0.110118486 -0.15969944 0.054038413 0.101102054 -0.037100736
0.050987687 0.06911297 0.029054148 -0.14730796 0.10154925 0.021970449 -0.05107778 -0.1020494
-0.08643069 -0.13146654 0.13833529 -0.023312394 -0.07811891 0.03198986 0.050238118 0.054455552
0.10796559 -0.14264716 0.09364113 0.072073966 0.015079395 0.0672886 0.1370567 0.15345307
0.16398221 -0.11551602 0.07213341 0.053030096 0.121323265 0.15867196 0.037784997 0.117629625
0.12624228 0.022808222 0.03290776 -0.15001884 0.14529467 0.026394233 0.1233059 0.13900837
-0.13023406 -0.1061585 0.11112599 0.022364605 0.14390628 -0.15425995 -0.0608425 -0.0053960555
0.063927636 -0.07879412 -0.011328554 -0.06445265 -0.08095594 -0.014682443 -0.07623013 -0.040563546
-0.12958536 0.022616552 0.14015524 0.07235481 -0.15501416 0.06534677 -0.13751306 -0.1633857
0.057581376 -0.09216373 0.065579325 -0.093796924 0.091673374 -0.09065539 0.14468783 -0.02758184
-0.07541425 0.041384548 -0.069239475 0.094901636 -0.031076722 0.08516712 -0.0404708 -0.057072856
0.013072405 0.10767746 -0.08058335 -0.115415365 0.13647568 0.11140955 -0.08849199 0.01911207
-0.090358235 -0.13598739 -0.050197262 0.07388907 -0.112614565 0.03840996 -0.013140468 -0.12940407
-0.0019635798 -0.023322288 0.06558278 0.13208412 -0.03883778 0.10137582 0.01704435 0.040031753
-0.0032918092 -0.15355869 0.11208778 0.0048097763 0.14159575 0.15431358 -0.015281584 -0.09581149
0.0320047 -0.05637209 -0.027792102 0.017123943 -0.03384995 0.11825376 0.13144849 -0.073497504
0.13711093 0.014202105 0.018476583 0.09656186 0.1146149 -0.119700946 -0.12868969 0.1083836
-0.022990914 0.026192673 -0.011362698 0.10937466 0.0045880917 -0.060700506 0.07218526 0.0410876
0.10811419 -0.040285066 -0.059523065 0.023742722 -0.1466644 -0.028545337 -0.077818066 0.13211256
-0.08472069 -0.090382345 0.0047112205 0.090797015 0.039766327 -0.026600983 0.09078442 0.1135806
0.00816547 0.091366634 0.084637046 -0.13489519 0.071621686 -0.006880642 -0.14460649 0.14590341
-0.13443935 0.13217938 0.07415722 0.004607614 -0.008412197 0.017250052 0.104266316 0.15282686
0.12529506 -0.09765811 -0.10159505 0.08403458 -0.038879924 -0.087944314 -0.072387025 0.0577656
-0.1392834 0.10754559 0.12601595 0.14782572 -0.06896008 0.08751602 -0.046948895 -0.07873676
0.016049227 -0.10718271 -0.06826562 -0.1399616 0.086049974 -0.07489005 -0.05015767 0.027741471
-0.07063375 0.13113444 -0.120193146 -0.020133197 0.09275216 -0.13170332 -0.15420605 -0.10895969
0.11338349 -0.013960491 -0.09619302 -0.0726546 0.015883261 0.019844929 0.07808609 -0.100357465
0.03260924 -0.07119307 0.037019268 0.05736953 0.13385011 0.019266162 -0.0072198203 -0.14389636
-0.027829316 0.082343616 -0.07284245 0.14903487 -0.16364631 -0.12369132 -0.03682266 0.022128372
00000000: 749c a1bd 0e82 67bd aee5 253e ecfb e5bd
00000010: 88ca 8fbd 127a 1a3e 77d7 a4bd 3fb4 06be
00000020: 778f ae3c 8f9b 053e 5d90 c5bd d5a9 023e
00000030: ea80 22bd 0c56 063e 5098 ff3d 07ef 9b3d
00000040: bc2a 28bd eb77 1cbe 864c 263e 9575 aebd
00000050: f73a f43c 5103 87bd f548 233e 1f39 b33b
00000060: 5f8d 68bd 94ad cb3c db22 b43d cd85 e13d
00000070: 4088 23be 6257 5d3d 980e cf3d f1f6 17bd
00000080: 77d8 503d 1a8b 8d3d f702 ee3c e6d7 16be
00000090: 0ef9 cf3d 5ffb b33c ef36 51bd 47ff d0bd
000000a0: 9302 b1bd 2a9f 06be c4a7 0d3e a2f9 bebc
000000b0: cffc 9fbd cd07 033d 7cc6 4d3d c90c 5f3d
000000c0: 101d dd3d 1912 12be ecc6 bf3d 849b 933d
000000d0: 910f 773c 9bce 893d 9758 0c3e cd22 1d3e
000000e0: f4ea 273e aa93 ecbd aeba 933d 1636 593d
000000f0: 5578 f83d e77a 223e 71c4 1a3d cde7 f03d
00000100: a845 013e 4fd8 ba3c 4aca 063d 8a9e 19be
00000110: 20c8 143e b838 d83c ce87 fc3d 3658 0e3e
00000120: 145c 05be a169 d9bd 0696 e33d fa35 b73c
00000130: 2b5c 133e 52f6 1dbe fc35 79bd 65d1 b0bb
00000140: 7eec 823d d05e a1bd 669b 39bc c0ff 83bd
00000150: 3acc a5bd a18e 70bc 8b1e 9cbd f625 26bd
00000160: 06b2 04be 5946 b93c db84 0f3e c22e 943d
00000170: 08bc 1ebe 87d4 853d 39d0 0cbe 954e 27be
00000180: 73da 6b3d 56c0 bcbd 744e 863d 9a18 c0bd
00000190: 40bf bb3d 88a9 b9bd 0c29 143e 50f3 e1bc
000001a0: c972 9abd d882 293d 6dcd 8dbd ca5b c23d
000001b0: 9c94 febc 196c ae3d b6c4 25bd 3ac5 69bd
000001c0: a42d 563c 0086 dc3d e208 a5bd e45e ecbd
000001d0: 48c0 0b3e b12a e43d 4a3b b5bd ea90 9c3c
000001e0: bd0d b9bd 4740 0bbe a59b 4dbd 2753 973d
000001f0: 77a2 e6bd c353 1d3d 1e4b 57bc 8082 04be
00000200: 67af 00bb 620e bfbc 4450 863d 0f41 073e
00000210: 5d14 1fbd 209e cf3d 98a0 8b3c 56f8 233d
00000220: 65bb 57bb 7d3e 1dbe 478e e53d 549b 9d3b
00000230: 7afe 103e 6104 1e3e 9c5f 7abc d138 c4bd
00000240: 5c17 033d 6ce6 66bd 43ac e3bc 8347 8c3c
00000250: 3fa6 0abd 072f f23d 6f9a 063e dc85 96bd
00000260: cf66 0c3e f2af 683c 345c 973c 39c2 c53d
00000270: 37bb ea3d c525 f5bd 3bc7 03be 39f8 dd3d
00000280: 7157 bcbc 0492 d63c 9c2a 3abc d2ff df3d
00000290: b457 963b 18a1 78bd ded5 933d 794b 283d
000002a0: f96a dd3d f401 25bd 75ce 73bd 1980 c23c
000002b0: 312f 16be e9d7 e9bc 145f 9fbd 8448 073e
000002c0: 0b82 adbd 611a b9bd 9560 9a3b c9f3 b93d
000002d0: 04e2 223d 4eea d9bc 2fed b93d f29c e83d
000002e0: 77c8 053c 6e1e bb3d 3056 ad3d f721 0abe
000002f0: 64ae 923d 0277 e1bb b913 14be b467 153e
00000300: 78aa 09be 085a 073e bedf 973d 78fb 963b
00000310: 50d3 09bc fb4f 8d3c 9489 d53d a57e 1c3e
00000320: 594d 003e fa00 c8bd 1111 d0bd 521a ac3d
00000330: 8e40 1fbd 261c b4bd a63f 94bd 9f9b 6c3d
00000340: 4fa0 0ebe dd40 dc3d 530a 013e a05f 173e
00000350: f13a 8dbd 993b b33d 7c4d 40bd bd40 a1bd
00000360: ab79 833c 9c82 dbbd d8ce 8bbd 1852 0fbe
00000370: f83a b03d f45f 99bd 2172 4dbd 1542 e33c
00000380: 6da8 90bd 1b48 063e d327 f6bd 60ee a4bc
00000390: d8f4 bd3d 3cdd 06be 31e8 1dbe 4226 dfbd
000003a0: 9a35 e83d 8bba 64bc d900 c5bd efcb 94bd
000003b0: 9d1d 823c d591 a23c 9aeb 9f3d 3788 cdbd
000003c0: 4491 053d accd 91bd 84a1 173d 50fc 6a3d
000003d0: 0110 093e 12d4 9d3c 3e94 ecbb 9159 13be
000003e0: 4efa e3bc c5a3 a83d 6c2e 95bd 999c 183e
000003f0: e692 27be e051 fdbd 5cd3 16bd 8f46 b53c

lstm.weight_hh_l1 f4 [148, 37]
-0.048969522 0.05240937 -0.0016626441 0.072924726 -0.028933499 0.15183838 0.006851863 -0.049526487
0.042825345 -0.07524318 -0.08073317 -0.111794926 -0.0073263277 0.059254136 0.032253914 -0.083376445
-0.14769302 0.070230275 -0.048581887 -0.025987301 0.033042006 -0.016048357 0.09862274 -0.14183515
-0.122090966 0.13619298 0.07483398 0.044704042 -0.096243225 0.041065283 -0.11471114 -0.054572385
0.11654154 0.14413163 0.09015507 0.1277997 0.081521004 -0.079044096 -0.16294858 -0.07038767
0.00055689894 0.061296497 -0.102527045 -0.0107702995 0.11248399 0.03361762 0.12943162 -0.14152084
0.08941063 0.05499748 0.10085564 -0.09187645 0.16147621 0.14475022 -0.054714374 0.12205091
-0.04100619 -0.011611773 0.032539822 -0.071345896 -0.030637728 -0.16346245 0.12530246 0.15563868
-0.1508824 -0.13600457 0.058254045 0.1530196 0.055144854 -0.06107602 0.10572809 -0.14080578
-0.11141618 0.1580215 0.14715101 -0.099902675 -0.094158284 0.091367416 0.11814851 -0.05260675
-0.12831719 -0.08544489 0.13468687 -0.02087493 0.14563781 0.06573463 0.09147464 0.055891126
0.14248033 0.11831145 -0.021584505 -0.08610392 -0.026627941 0.046482243 0.00084226823 0.11943824
-0.15452306 -0.07371915 -0.0067915013 -0.09140785 -0.067815006 0.1358845 -0.08554324 0.08332755
0.13027126 -0.08639659 -0.059507944 -0.14948669 0.08317296 0.13339777 0.15110298 -0.03694202
0.13866663 0.11738089 -0.0662202 0.07466286 -0.11698921 0.010241839 -0.018684017 0.022116005
0.078264415 0.08352506 -0.05715801 -0.014290059 -0.10593571 -0.109303944 -0.0104001975 0.1358949
-0.09690296 0.12146597 0.11133623 -0.0036923976 -0.14520815 -0.019591328 -0.027184328 0.10127642
-0.045042392 -0.009950855 -0.016502995 0.094417185 -0.016973138 0.024162514 0.126979 -0.08082819
0.041433726 -0.15484107 -0.15821159 0.021923771 -0.1633663 -0.13273193 -0.0790786 0.052507497
0.07880722 -0.10263268 0.06059969 0.13113302 0.064367294 -0.036294248 0.15209948 -0.024670305
0.14216025 0.12800334 0.12392379 -0.13536143 0.08724222 0.077494524 -0.13515528 0.08755557
0.014324538 -0.04921294 0.14207245 -0.13622583 -0.15834993 0.13846202 0.0023062504 0.02620039
-0.02513779 -0.013858516 -0.12112542 0.035923935 -0.0286275 0.092773415 -0.12654112 0.03716254
0.07428745 -0.11415888 -0.029688932 -0.11635451 0.00042510297 0.0050740675 0.051159747 0.14528367
0.09350472 0.001630147 0.088490434 -0.14449255 -0.14086612 0.032055795 0.07290742 0.10803859
-0.07676373 -0.14745857 -0.14214505 -0.088501796 0.12766074 -0.02213646 0.033990864 0.116778314
-0.13155395 0.031018306 -0.15166241 -0.1563693 0.12198095 -0.15363769 -0.0028937578 0.15601762
-0.0007788363 0.03571778 -0.15662119 -0.16179208 -0.08789721 -0.15290879 -0.08523387 -0.023057496
-0.105574615 0.03869367 -0.043922644 -0.0011336686 -0.0023804242 -0.15261602 -0.13117795 -0.07534205
-0.054056082 0.12541522 -0.05633005 0.15832531 -0.15468906 0.15670449 -0.1521236 -0.11110254
0.041235227 0.022939919 0.0804337 -0.07694326 -0.08401505 -0.02517548 0.09853715 0.12097744
-0.07633543 0.08070426 0.14224872 0.087914616 -0.16406648 0.01490816 -0.07600602 0.078836605
00000000: 4494 48bd 35ab 563d 14ed d9ba 8f59 953d
00000010: f205 edbc 857b 1b3e 9885 e03b 49dc 4abd
00000020: a169 2f3d 1919 9abd 6f57 a5bd bdf4 e4bd
00000030: b111 f0bb 77b4 723d ae1c 043d 45c1 aabd
00000040: d73c 17be e4d4 8f3d cdfd 46bd 52e3 d4bc
00000050: 0e57 073d d877 83bc b8fa c93d 3c3d 11be
00000060: d40a fabd 2c76 0b3e 8f42 993d 961b 373d
00000070: 2b1b c5bd 1234 283d aded eabd 4b87 5fbd
00000080: 55ad ee3d 3e97 133e 39a3 b83d eddd 023e
00000090: 7cf4 a63d dfe1 a1bd fedb 26be 6927 90bd
000000a0: dbfc 113a 0912 7b3d b3f9 d1bd e975 30bc
000000b0: 025e e63d a1b2 093d b989 043e d7ea 10be
000000c0: ec1c b73d 0a45 613d 678d ce3d b829 bcbd
000000d0: 055a 253e 6739 143e 2e1c 60bd d4f5 f93d
000000e0: 1bf6 27bd 4e3f 3ebc 7a48 053d cc1d 92bd
000000f0: f9fb fabc b362 27be 4a4f 003e bf5f 1f3e
00000100: ea80 1abe c844 0bbe cb9b 6e3d 2cb1 1c3e
00000110: 92df 613d d92a 7abd f887 d83d 642f 10be
00000120: 2b2e e4bd 63d0 213e c1ae 163e c699 ccbd
00000130: 0fd6 c0bd d71e bb3d d9f7 f13d 2d7a 57bd
00000140: 9565 03be bbfd aebd 5beb 093e e701 abbc
00000150: 1422 153e e19f 863d 0e57 bb3d 18ee 643d
00000160: 5de6 113e 464d f23d fdd1 b0bc 4157 b0bd
00000170: d722 dabc 2a64 3e3d aacb 5c3a 099c f43d
00000180: 4b3b 1ebe 11fa 96bd 3e8b debb 0a34 bbbd
00000190: 98e2 8abd 4e25 0b3e 4b31 afbd a2a7 aa3d
000001a0: d465 053e b2f0 b0bd 9abe 73bd 0a13 19be
000001b0: 9656 aa3d 6d99 083e bdba 1a3e 8450 17bd
000001c0: a0fe 0d3e 6465 f03d 759e 87bd d7e8 983d
000001d0: 0a98 efbd 63cd 273c 390f 99bc a02c b53c
000001e0: 1849 a03d 300f ab3d 841e 6abd da20 6abc
000001f0: d2f4 d8bd bfda dfbd 9765 2abc 0828 0b3e
00000200: 0f75 c6bd 27c3 f83d 4004 e43d 27fc 71bb
00000210: 72b1 14be fe7d a0bc abb1 debc 036a cf3d
00000220: 5f7e 38bd e908 23bc 4a31 87bc cc5d c13d
00000230: 400b 8bbc 77f0 c53c c806 023e 4089 a5bd
00000240: 69b6 293d a88e 1ebe 3802 22be 7b99 b33c
00000250: 7f49 27be e1ea 07be f6f3 a1bd 1a12 573d
00000260: ae65 a13d 1531 d2bd 6137 783d bc47 063e
00000270: 00d3 833d 47a9 14bd f7bf 1b3e 6119 cabc
00000280: 7592 113e 4f13 033e c2cb fd3d 309c 0abe
00000290: 0dac b23d 73b5 9e3d 2566 0abe 5650 b33d
000002a0: 78b1 6a3c 8293 49bd 717b 113e c97e 0bbe
000002b0: 7c26 22be fdc8 0d3e 7624 173b 33a2 d63c
000002c0: c4ed cdbc d40e 63bc 9b10 f8bd fa24 133d
000002d0: 3884 eabc fdff bd3d ff93 01be bf37 183d
000002e0: 0524 983d 22cc e9bd 3436 f3bc 464b eebd
000002f0: 5be0 de39 5d44 a63b e28c 513d 3ec5 143e
00000300: 677f bf3d a8aa d53a 793a b53d dbf5 13be
00000310: 353f 10be f04c 033d 7c50 953d 5643 dd3d
00000320: 4d36 9dbd 61ff 16be 798e 11be 6e40 b5bd
00000330: 7fb9 023e 8557 b5bc 013a 0b3d 7829 ef3d
00000340: 14b6 06be 1a1a fe3c 644d 1bbe 461f 20be
00000350: 26d1 f93d 3353 1dbe 33a5 3dbb 15c3 1f3e
00000360: d22a 4cba cf4c 123d 4e61 20be d3ac 25be
00000370: 7403 b4bd 1f94 1cbe 188f aebd 13e3 bcbc
00000380: 8137 d8bd 417d 1e3d 3be8 33bd 9b97 94ba
00000390: e400 1cbb 6047 1cbe 8353 06be ef4c 9abd
000003a0: e969 5dbd d96c 003e 57ba 66bd 0820 223e
000003b0: cf66 1ebe 2477 203e 4ac6 1bbe ba89 e3bd
000003c0: 45e6 283d 7fec bb3c 6cba a43d 6e94 9dbd
000003d0: 1510 acbd cf3c cebc d8cd c93d 05c3 f73d
000003e0: c055 9cbd 4648 a53d a6a9 113e 940c b43d
000003f0: 0b01 28be 5b41 743c 0ba9 9bbd 1675 a13d

lstm.bias_ih_l1 f4 [148]
-0.1510436 -0.11855833 -0.08961685 -0.15531653 -0.16038854 -0.13747706 -0.15910847 -0.09930654
0.14695796 0.0031006408 -0.010528351 -0.14374547 -0.06867247 0.047455404 0.09594525 -0.10690162
-0.14422852 0.14561129 -0.013329464 -0.044727586 -0.09882826 -0.010038692 -0.037567023 0.15296172
-0.09791112 -0.022547713 -0.16060042 0.114584155 -0.10186134 0.045157596 0.07355936 0.062582344
-0.15258497 0.07113916 0.09203922 0.040434632 -0.09639439 0.08753821 0.092995875 -0.07337711
-0.1522118 0.1384348 -0.08632169 0.035658263 -0.04763887 -0.12181566 -0.06346645 -0.1200024
-0.10126575 -0.11459938 0.0999652 -0.02034843 0.025420701 -0.107324034 -0.1003049 -0.08793634
0.08668214 -0.0906406 -0.11983287 -0.05389093 0.056693994 0.07890922 -0.10981661 0.0023952369
0.069768414 0.16283567 -0.075739615 -0.023947537 0.0754623 -0.092357226 0.12964842 -0.123439476
0.08182188 -0.13241622 0.122010194 0.1443759 0.057599068 0.10342434 0.06992417 -0.12648593
-0.07487812 -0.14068758 -0.011378371 -0.15926455 0.1402637 0.06425738 -0.04303712 -0.01581747
-0.033235993 0.09905049 0.060352225 0.034186468 -0.075814635 -0.12304337 -0.07108244 0.09894726
0.14622246 -0.09824837 -0.13242269 -0.14419097 0.15652832 0.15558988 0.04692293 0.10837414
0.030385742 0.008864756 -0.046872623 0.035962764 -0.042075917 -0.08913536 0.051390246 0.10727977
-0.035142288 0.13063484 0.11276469 -0.104391746 0.16336563 0.009570549 -0.018708544 -0.066948235
-0.1609595 -0.05473549 -0.06308085 -0.09338137 -0.112075865 0.04630713 -0.013169849 0.07964876
0.06893356 -0.071249716 -0.1599377 -0.13223094 -0.112296894 0.069164574 0.10284157 0.050731752
0.14057247 0.11270609 -0.13123208 -0.0054060966 -0.14898174 -0.036873084 0.07568628 0.0952326
-0.09999306 0.06348221 0.1262555 0.15188307
00000000: 2cab 1abe b6ce f2bd 0a89 b7bd 4c0b 1fbe
00000010: e53c 24be c9c6 0cbe 55ed 22be 3a61 cbbd
00000020: 267c 163e 1f34 4b3b 1b7f 2cbc 0332 13be
00000030: 27a4 8cbd 9960 423d f17e c43d 3def dabd
00000040: a4b0 13be 201b 153e d363 5abc 4634 37bd
00000050: 7966 cabd 5379 24bc e1df 19bd ffa1 1c3e
00000060: a085 c8bd fbb5 b8bc 7074 24be 19ab ea3d
00000070: ae9c d0bd 2cf7 383d 4aa6 963d 2c2b 803d
00000080: 3c3f 1cbe 68b1 913d 0f7f bc3d c99e 253d
00000090: 6c6a c5bd 3c47 b33d 9f74 be3d bd46 96bd
000000a0: 69dd 1bbe dac1 0d3e 6dc9 b0bd 660e 123d
000000b0: fa20 43bd 7d7a f9bd b3fa 81bd d1c3 f5bd
000000c0: 6b64 cfbd 14b3 eabd 8eba cc3d c0b1 a6bc
000000d0: 133f d03c b4cc dbbd a86c cdbd f817 b4bd
000000e0: 6886 b13d c7a1 b9bd f06a f5bd bcbc 5cbd
000000f0: f637 683d 289b a13d 88e7 e0bd 68f9 1c3b
00000100: bee2 8e3d 65be 263e 5f1d 9bbd a02d c4bc
00000110: fa8b 9a3d c925 bdbd 8ec2 043e d6cd fcbd
00000120: 3b92 a73d 1e98 07be 7be0 f93d 47d7 133e
00000130: 00ed 6b3d 24d0 d33d 6734 8f3d 8785 01be
00000140: b359 99bd 6810 10be 596c 3abc 3f16 23be
00000150: 4aa1 0f3e 6099 833d b147 30bd a493 81bc
00000160: 7722 08bd fcda ca3d e533 773d 1c07 0c3d
00000170: b444 9bbd 2afe fbbd ac93 91bd dca4 ca3d
00000180: 57bb 153e 7136 c9bd d099 07be cca6 13be
00000190: f648 203e f452 1f3e 4232 403d 43f3 dd3d
000001a0: 85eb f83c 7b3d 113c 82fd 3fbd b14d 133d
000001b0: cc57 2cbd 9a8c b6bd 947e 523d 7fb5 db3d
000001c0: 5cf1 0fbd 24c5 053e 2cf1 e63d 57cb d5bd
000001d0: 5249 273e cbcd 1c3c a942 99bc 281c 89bd
000001e0: 91d2 24be 5232 60bd 8830 81bd bb3e bfbd
000001f0: 0888 e5bd 8cac 3d3d 5ac6 57bc e41e a33d
00000200: 0a2d 8d3d 5feb 91bd b5c6 23be 8c67 07be
00000210: eafb e5bd 28a6 8d3d 9a9e d23d 19cc 4f3d
00000220: 3bf2 0f3e 73d2 e63d b461 06be a025 b1bb
00000230: ab8e 18be 3b08 17bd 6901 9b3d 4f09 c33d
00000240: 29c9 ccbd f602 823d 1f49 013e 3c87 1b3e

lstm.bias_hh_l1 f4 [148]
-0.0031081429 -0.071028695 -0.13286945 0.013058 -0.15374872 0.027410027 0.095405616 0.03642105
-0.057029363 0.050918985 0.09761892 0.023735754 -0.11349051 0.004225242 -0.024746072 0.099842235
-0.027758854 -0.059633918 0.05372501 0.043170147 0.08095075 -0.024268415 0.09738795 0.00075032254
0.013634531 -0.041842815 -0.06803377 0.1482044 -0.020981524 0.12821214 -0.1059054 -0.12363947
0.09835747 -0.046627365 0.12214443 -0.15244076 -0.092976384 0.06513487 0.070248686 -0.1416457
0.0619133 0.12644447 -0.16275406 -0.075568564 0.02160047 -0.15866214 0.06855947 0.06761518
-0.011087677 -0.013500823 -0.13743317 0.11435937 -0.03455444 0.03793023 -0.06878096 0.05440017
-0.107323095 0.08007575 -0.010675455 0.076749094 -0.03607209 0.07372346 -0.11251552 0.005698299
-0.013905757 0.1464587 0.04378118 -0.08167956 0.0055651506 0.0536584 0.03169491 0.0776382
0.05827439 0.017567389 0.13812184 -0.14893974 0.045179944 -0.018755434 0.03626189 0.15032022
-0.08866153 -0.12876387 0.10681542 0.0044226 0.112621896 -0.02272629 0.062870815 0.046534557
-0.10148865 -0.016199427 0.033288684 0.028419092 0.07904369 -0.15757267 -0.102798745 -0.14333297
-0.025581406 0.101594724 -0.13555989 -0.1521673 0.050314147 0.054685954 -0.05738821 0.13048263
0.011781331 -0.123869285 -0.018013543 -0.02824793 0.08649019 -0.14352098 -0.05410008 -0.1310588
0.16146131 0.010694105 0.040246237 0.05910648 0.13147014 0.03886761 0.13955969 -0.019270794
-0.09711002 -0.11013052 -0.12023599 0.021675508 0.04962708 0.04378657 -0.03785355 0.1132607
0.06403344 -0.15239815 -0.10455825 0.097380035 0.009609826 -0.11171907 -0.081770554 0.16104968
0.13492301 -0.059778646 0.11086555 -0.14034075 0.01557019 0.08476815 0.14749046 0.080138326
-0.1551069 -0.06511933 -0.022240888 0.16283797
00000000: fcb1 4bbb 7e77 91bd ee0e 08be 39f1 553c
00000010: 4e70 1dbe fe8a e03c 0564 c33d 3d2e 153d
00000020: 9f97 69bd 6d90 503d 6eec c73d 7c71 c23c
00000030: b66d e8bd e673 8a3b 46b8 cabc 167a cc3d
00000040: 8966 e3bc b242 74bd c20e 5c3d 2ed3 303d
00000050: 82c9 a53d 8ece c6bc 5573 c73d 4bb1 443a
00000060: 5e63 5f3c 5f63 2bbd 4a55 8bbd e5c2 173e
00000070: 72e1 abbc 0b4a 033e eee4 d8bd b136 fdbd
00000080: a46f c93d 56fc 3ebd dc26 fa3d 6e19 1cbe
00000090: 676a bebd 6e65 853d 8bde 8f3d 920b 11be
000000a0: cd98 7d3d a97a 013e 00a9 26be b1c3 9abd
000000b0: 78f3 b03c 5478 22be e868 8c3d d479 8a3d
000000c0: 17a9 35bc 8e32 5dbc 48bb 0cbe 3f35 ea3d
000000d0: f588 0dbd bb5c 1b3d 08dd 8cbd b6d2 5e3d
000000e0: 36cc dbbd c1fe a33d 1be8 2ebc a12e 9d3d
000000f0: 54c0 13bd 53fc 963d 896e e6bd ccb8 ba3b
00000100: f9d4 63bc 45f9 153e e553 333d 9d47 a7bd
00000110: de5b b63b e9c8 5b3d 86d2 013d c700 9f3d
00000120: 20b1 6e3d 7ce9 8f3c d06f 0d3e a983 18be
00000130: 9b0e 393d ffa4 99bc 5987 143d 8bed 193e
00000140: 2d94 b5bd adda 03be 0bc2 da3d 75eb 903b
00000150: 4fa6 e63d 7c2c babc 6ac2 803d 059b 3e3d
00000160: 48d9 cfbd a9b4 84bc b759 083d 28cf e83c
00000170: a8e1 a13d bb5a 21be 2688 d2bd e1c5 12be
00000180: 1990 d1bc e510 d03d 36d0 0abe bfd1 1bbe
00000190: 3516 4e3d 61fe 5f3d e60f 6bbd 3d9d 053e
000001a0: 7c06 413c 2eaf fdbd 2391 93bc 3468 e7bc
000001b0: c521 b13d 2af7 12be 0c98 5dbd 4734 06be
000001c0: 1d56 253e 5436 2f3c 3dd9 243d a319 723d
000001d0: 1ca0 063e a533 1f3d bce8 0e3e c9dd 9dbc
000001e0: 9ee1 c6bd 1c8c e1bd 493e f6bd d690 b13c
000001f0: c445 4b3d 8c59 333d 530c 1bbd 3af5 e73d
00000200: f723 833d 430e 1cbe a322 d6bd 2f6f c73d
00000210: 8872 1d3c f8cc e4bd 5277 a7bd 35ea 243e
00000220: 4229 0a3e 74da 74bd 7a0d e33d 7cb5 0fbe
00000230: 1c1a 7f3c ec9a ad3d bd07 173e 901f a43d
00000240: 58d4 1ebe 495d 85bd 8632 b6bc ffbe 263e

lstm.weight_ih_l2 f4 [148, 37]
-0.054748844 -0.06460637 -0.022821018 -0.04074816 -0.14303885 0.08160147 -0.0886802 -0.06804431
-0.13496277 0.06527116 -0.017034939 0.10968825 0.12018822 0.066657595 0.0055513117 0.05524509
0.064913176 0.05557393 -0.14796002 0.053335033 -0.12651925 -0.12540233 0.14410222 0.1602607
0.14478363 -0.09037283 0.056420404 0.09312649 0.09203761 0.14604467 0.11224775 -0.056099888
0.033436302 0.12571564 0.019697044 -0.03900975 0.022242727 0.0036275513 0.13561685 0.057308197
-0.03024739 -0.10632068 -0.12486535 0.04909434 0.14939208 -0.0052783587 0.12857944 0.024888989
0.010523696 0.14412454 0.07006307 0.15683009 -0.021585185 -0.092849575 -0.08855092 -0.10962953
0.10396929 0.13802639 0.007896506 -0.081748 -0.16222818 -0.10030535 -0.015482154 0.15466076
-0.10155626 -0.04584968 0.061968226 0.15517828 0.15523306 0.060871374 0.056251105 -0.04053663
-0.11350523 0.03969974 0.031696524 -0.04903485 0.07638713 0.092802614 0.09273041 0.0645917
0.07002783 -0.03783933 0.13718872 -0.14018105 0.020673554 -0.015036103 0.018852467 0.058445618
0.14300425 -0.070779346 0.05247157 0.12470083 -0.109909825 0.10389475 0.05084123 0.068195954
-0.08140698 0.11610476 0.015204412 0.034668118 -0.08659662 -0.035339355 0.0056924843 -0.05158269
0.14486791 0.015930628 -0.12589432 0.12591052 -0.040732443 -0.09290937 -0.01095709 -0.11451928
-0.11598001 -0.14216606 0.08099279 0.018657783 -0.068953015 -0.04768856 -0.031621944 0.0747266
0.03496362 -0.0020899703 -0.017860863 -0.031053742 0.047836006 -0.1632113 0.031272527 0.14544104
0.16383646 -0.04228631 -0.015163607 -0.11346214 -0.011385639 0.04628452 -0.06578651 0.09764096
-0.099596396 0.05603161 -0.10985169 0.0157132 -0.16178592 -0.05221358 0.1409094 0.12876402
0.095964 0.07767436 -0.022938514 0.08362403 0.09449623 0.0940146 0.13755211 0.12318455
-0.15484723 -0.14643839 -0.10648753 0.117764875 -0.046006043 0.012999579 0.15650706 0.12409821
-0.0847656 -0.09994867 -0.08006281 0.060341444 -0.07268671 -0.026399279 0.0065351706 -0.043582205
0.114234805 0.09234153 0.04695697 -0.12589988 0.12599573 0.11854885 0.12729007 -0.14183858
-0.022492971 0.012786281 0.14611001 0.1393758 -0.1564935 0.13977882 0.15730736 0.06313665
0.07807905 -0.12224816 -0.05570844 0.08389637 0.016993959 -0.023013262 -0.109303474 -0.11443995
0.02718156 0.0081098145 -0.015758641 0.03996103 0.0010774288 -0.10578869 -0.14084952 0.055337366
0.085882336 0.045094043 0.02311429 0.12314224 0.07006891 0.13977169 -0.07927117 0.058355544
-0.052641872 -0.076925755 0.017641356 0.010063853 0.14703259 -0.030260716 -0.11152105 -0.076447956
-0.13190511 -0.007690998 -0.05510449 -0.13838793 0.054627772 0.013567132 0.017115433 0.1444534
-0.16037951 -0.086130746 0.003487756 -0.09863185 -0.0934575 -0.059765436 0.10013296 -0.14564526
-0.13472 0.14334592 0.051770657 -0.08158647 0.054275304 0.020787854 -0.031944226 0.09729237
-0.13353115 -0.040158745 -0.11331822 -0.1449984 0.10601815 -0.12308331 0.11738773 0.0021946428
-0.15213013 -0.15385057 -0.01955604 0.060288023 -0.07963688 0.046651434 0.08911075 -0.13487077
00000000: 5340 60bd 5850 84bd 25f3 babc 8be7 26bd
00000010: c778 12be ac1e a73d f79d b5bd d15a 8bbd
00000020: ae33 0abe e3ac 853d db8c 8bbc 3ca4 e03d
00000030: 3e25 f63d c783 883d c7e7 b53b ad48 623d
00000040: 33f1 843d 7da1 633d d582 17be d675 5a3d
00000050: 438e 01be 7869 00be 888f 133e 621b 243e
00000060: 2942 143e 6415 b9bd 1519 673d 1ab9 be3d
00000070: 377e bc3d bc8c 153e 26e2 e53d ffc8 65bd
00000080: 81f4 083d 9abb 003e b25b a13c b0c8 1fbd
00000090: 6136 b63c 36bc 6d3b 25df 0a3e 00bc 6a3d
000000a0: 60c9 f7bc a8be d9bd 68b9 ffbd 2617 493d
000000b0: 3dfa 183e 15f6 acbb 54aa 033e fee3 cb3c
000000c0: 956b 2c3c 6295 133e 3a7d 8f3d 1198 203e
000000d0: 6ad3 b0bc eb27 bebd 2f5a b5bd 7285 e0bd
000000e0: daed d43d ca56 0d3e 5960 013c 7f6b a7bd
000000f0: 251f 26be e46c cdbd dca8 7dbc 645f 1e3e
00000100: bafc cfbd e0cc 3bbd 65d2 7d3d 0ee7 1e3e
00000110: 6af5 1e3e 4354 793d 8f67 663d bd09 26bd
00000120: 6e75 e8bd 329c 223d 37d4 013d c4d8 48bd
00000130: db70 9c3d 4c0f be3d 71e9 bd3d a748 843d
00000140: c06a 8f3d 6afd 1abd 337b 0c3e 9f8b 0fbe
00000150: 965b a93c fd59 76bc 7d70 9a3c ac64 6f3d
00000160: b56f 123e c3f4 90bd 6eec 563d 2663 ff3d
00000170: 6718 e1bd c5c6 d43d e53e 503d 52aa 8b3d
00000180: b4b8 a6bd 55c8 ed3d ed1b 793c 2800 0e3d
00000190: 9259 b1bd 00c0 10bd 0588 ba3b 5f48 53bd
000001a0: 4158 143e f380 823c 71ea 00be b0ee 003e
000001b0: 10d7 26bd 4547 bebd 5e85 33bc 1689 eabd
000001c0: ed86 edbd fb93 11be 8cdf a53d 35d8 983c
000001d0: 3d37 8dbd 1455 43bd 0386 01bd 420a 993d
000001e0: 0336 0f3d e2f7 08bb f250 92bc 6b64 febc
000001f0: b0ef 433d dd20 27be 9f17 003d 7fee 143e
00000200: bfc4 273e 6934 2dbd c770 78bc d75e e8bd
00000210: d58a 3abc d694 3d3d 14bb 86bd fcf7 c73d
00000220: 32f9 cbbd 6781 653d ecf9 e0bd f8b8 803c
00000230: 35ab 25be e8dd 55bd 8e4a 103e b7da 033e
00000240: c688 c43d bc13 9f3d 8de9 bbbc 1343 ab3d
00000250: 3d87 c13d ba8a c03d 76da 0c3e 2e48 fc3d
00000260: 4690 1ebe f2f3 15be 2216 dabd b62e f13d
00000270: d570 3cbd 30fc 543c 6343 203e 3427 fe3d
00000280: 9699 adbd e3b1 ccbd f8f7 a3bd 9728 773d
00000290: c5dc 94bd 4d43 d8bc fc24 d63b 4183 32bd
000002a0: f0f3 e93d 8e1d bd3d f455 403d e6eb 00be
000002b0: 0605 013e bdc9 f23d 5458 023e 223e 11be
000002c0: 2e43 b8bc 8d7d 513c dd9d 153e 88b8 0e3e
000002d0: d53f 20be 2e22 0f3e 2e15 213e ca4d 813d
000002e0: e9e7 9f3d 3e5d fabd 882e 64bd dcd1 ab3d
000002f0: ea36 8b3c 4f86 bcbc 80da dfbd 7e5f eabd
00000300: ddab de3c 07df 043c 4418 81bc 2dae 233d
00000310: 8338 8d3a bea7 d8bd db3a 10be 6fa9 623d
00000320: 14e3 af3d 88b4 383d 2e5a bd3c 0032 fc3d
00000330: 4a80 8f3d 4f20 0f3e ec58 a2bd 3906 6f3d
00000340: 019f 57bd 408b 9dbd 9b84 903c dce2 243c
00000350: b68f 163e 52e5 f7bc 2665 e4bd bf90 9cbd
00000360: 2212 07be c404 fcbb 3fb5 61bd 91b5 0dbe
00000370: 5fc1 5f3d ad48 5e3c aa35 8c3c 98eb 133e
00000380: 873a 24be 5165 b0bd d692 643b 7fff c9bd
00000390: a566 bfbd 9acc 74bd 8212 cd3d 0824 15be
000003a0: 0af4 09be 46c9 123e 780d 543d cf16 a7bd
000003b0: c84f 5e3d 4a4b aa3c f3d7 02bd 3941 c73d
000003c0: 64bc 08be 7f7d 24bd 6213 e8bd 767a 14be
000003d0: 0b20 d93d 1a13 fcbd fa68 f03d ffd3 0f3b
000003e0: 00c8 1bbe 018b 1dbe fd33 a0bc 93f0 763d
000003f0: a918 a3bd 9315 3f3d b27f b63d 901b 0abe

lstm.weight_hh_l2 f4 [148, 37]
-0.031160427 0.14035457 0.0019204679 -0.12647818 -0.048753586 -0.08973229 -0.11479306 0.15836017
-0.0904253 -0.08751709 0.097157426 -0.061648075 -0.11222434 0.061420225 0.05017681 -0.092998914
0.055126738 -0.12780644 -0.032952536 -0.1519625 0.074203685 -0.081240445 0.04306322 0.109333895
-0.10823329 0.13030605 0.06841013 0.06725988 -0.0875064 0.11394005 -0.12379481 -0.16031542
0.11635494 0.12455232 0.063151285 0.057726484 -0.14236444 -0.123542845 0.063080676 -0.13330346
-0.019879349 0.155031 -0.105790146 0.07388884 0.08582449 -0.14210007 0.028208608 -0.11059672
0.08397347 -0.03075837 0.1185399 -0.13076454 0.123698086 -0.14015631 -0.091883585 0.1333139
-0.024711818 -0.11511073 0.16364457 -0.11281231 -0.1578741 -0.0742369 -0.0026129296 0.02587982
0.06958688 0.015885143 -0.036859073 -0.08960083 -0.115404055 0.1543345 -0.14672905 0.05601929
-0.12615243 -0.115067035 -0.15106493 -0.09811264 0.105095126 0.11682249 0.12331894 0.053838626
0.033755593 0.022649286 -0.039022367 0.088862725 -0.09073983 0.118499786 0.06983261 0.0544927
0.15813942 0.13261667 0.035814468 0.06273378 -0.013776748 0.04567495 0.055438243 -0.06520926
0.09452582 0.16176628 -0.12805887 -0.010218826 -0.13292131 0.031140896 -0.003877265 -0.16104811
0.10888155 0.042543236 -0.046284165 -0.10477521 -0.033783313 0.054894146 0.06149735 0.05567519
0.04762853 0.12714775 0.033490013 0.1302255 0.09849497 -0.11239417 -0.023001341 -0.09263
-0.034091078 0.08568231 -0.14944066 0.096969634 0.028137555 -0.043351833 0.053613406 -0.043145504
0.11116337 0.04948135 -0.00275197 0.063944854 -0.037816335 -0.025293292 0.15646258 -0.1443138
0.0032438543 -0.020860594 0.06625021 -0.09602787 0.15281904 -0.057295736 0.0724227 -0.017836958
0.10467395 0.0929268 -0.10494622 -0.16424423 -0.004318926 0.048205934 0.052029233 -0.0042693703
0.050751075 0.11109218 -0.11589618 0.016977564 -0.007917462 -0.093918726 -0.062169846 -0.10341236
-0.06200762 0.04173109 0.016404167 0.082666226 -0.023593051 -0.15122122 -0.13460396 -0.064723484
0.11374702 -0.06445769 0.1318006 -0.042923085 0.115364276 0.011878821 0.071863875 -0.16166025
0.06564877 -0.09218308 0.015200994 -0.07567787 0.10041366 0.08594445 0.14035983 0.14095883
0.06664185 -0.13536114 0.09026575 -0.13492487 0.06955789 0.05818868 0.015152331 -0.14555146
-0.11211037 0.0041399216 -0.05582186 -0.058178864 0.15333581 -0.09693622 0.14651063 0.1457193
-0.12569128 0.03522765 0.009046746 0.044793118 0.11498643 0.007578283 -0.021305278 0.12926432
0.12350559 -0.09941211 0.001262199 0.12666506 -0.033654965 -0.09837944 0.1411215 -0.06667704
-0.06721675 0.027841993 -0.15274264 0.14353628 -0.07301954 -0.032734174 -0.11449417 0.043848068
0.13761295 0.009213738 -0.0828837 0.038053725 -0.03719028 -0.09579976 0.058264323 -0.0076844944
-0.10993381 0.049658988 0.02822564 0.048258297 0.1122862 -0.00838808 -0.13836707 -0.14207402
0.11731866 -0.11436145 0.10745908 0.010788211 -0.072348624 0.15919735 -0.15577348 -0.108050846
0.01282709 -0.0683371 -0.043204576 0.015536746 0.10912126 0.025404146 0.14402258 0.07109413
00000000: 2744 ffbc 1cb9 0f3e 36b8 fb3a 7f83 01be
00000010: d7b1 47bd 90c5 b7bd a018 ebbd 2b29 223e
00000020: e630 b9bd 293c b3bd 79fa c63d b182 7cbd
00000030: e0d5 e5bd c693 7b3d 3386 4d3d 3776 bebd
00000040: 93cc 613d b1df 02be 3df9 06bd 0f9c 1bbe
00000050: 1af8 973d 6461 a6bd 0f63 303d 73ea df3d
00000060: 6aa9 ddbd f36e 053e 9c1a 8c3d 8cbf 893d
00000070: 8e36 b3bd 6759 e93d 2288 fdbd ba29 24be
00000080: 804b ee3d 4915 ff3d 7655 813d 9b72 6c3d
00000090: fcc7 11be 0804 fdbd 7130 813d b480 08be
000000a0: 04da a2bc 72c0 1e3e 81a8 d8bd 0853 973d
000000b0: c0c4 af3d ae82 11be bd15 e73c 8880 e2bd
000000c0: 48fa ab3d faf8 fbbc 0cc5 f23d 24e7 05be
000000d0: 6c55 fd3d 2385 0fbe 762d bcbd 7083 083e
000000e0: 7070 cabc 2dbf ebbd 7192 273e 240a e7bd
000000f0: c0a9 21be 8409 98bd af3d 2bbb eb01 d43c
00000100: 9183 8e3d 8f21 823c 8af9 16bd a480 b7bd
00000110: f658 ecbd dd09 1e3e 2440 16be 7c74 653d
00000120: 1a2e 01be 44a8 ebbd c4b0 1abe 48ef c8bd
00000130: 1d3c d73d a140 ef3d a48e fc3d e485 5c3d
00000140: 4e43 0a3d ff8a b93c ebd5 1fbd a9fd b53d
00000150: ced5 b9bd 04b0 f23d 6604 8f3d bd33 5f3d
00000160: 4def 213e aacc 073e 31b2 123d 917a 803d
00000170: dfb7 61bc a815 3b3d 3613 633d 6f8c 85bd
00000180: c196 c13d 0fa6 253e dd21 03be dd6c 27bc
00000190: 861c 08be 311b ff3c b619 7ebb cce9 24be
000001a0: 4afd de3d d141 2e3d 7794 3dbd 6394 d6bd
000001b0: 5f60 0abd afd8 603d a5e4 7b3d ab0b 643d
000001c0: 2216 433d 0533 023e d32c 093d d559 053e
000001d0: bbb7 c93d ea2e e6bd 4f6d bcbc ccb4 bdbd
000001e0: 16a3 0bbd 357a af3d f906 19be 0498 c63d
000001f0: bb80 e63c b191 31bd bb99 5b3d 57b9 30bd
00000200: 9fa9 e33d f5ac 4a3d 655a 34bb 85f5 823d
00000210: 4de5 1abd e133 cfbc ba37 203e ffc6 13be
00000220: d896 543b d6e3 aabc 31ae 873d 43aa c4bd
00000230: 987c 1c3e efae 6abd 5a52 943d d01e 92bc
00000240: 4c5f d63d 6850 be3d 0bee d6bd a42f 28be
00000250: c785 8dbb 9673 453d 9b1c 553d 13e6 8bbb
00000260: 5ce0 4f3d 4c84 e33d fa5a edbd 8814 8b3c
00000270: 3eb8 01bc 7658 c0bd cfa5 7ebd dcc9 d3bd
00000280: b4fb 7dbd 38ee 2a3d 0862 863c e94c a93d
00000290: 3746 c1bc bcd9 1abe 9fd5 09be bf8d 84bd
000002a0: 33f4 e83d 6502 84bd bdf6 063e 1ed0 2fbd
000002b0: 1b44 ec3d 639f 423c 5e2d 933d 448a 25be
000002c0: dd72 863d 7cca bcbd 970d 793c 00fd 9abd
000002d0: ada5 cd3d a503 b03d 7dba 0f3e 8357 103e
000002e0: 867b 883d 1c9c 0abe 40dd b83d bf29 0abe
000002f0: 5e74 8e3d 4157 6e3d 7c41 783c 710b 15be
00000300: 1f9a e5bd 2ea8 873b 76a5 64bd f64c 6ebd
00000310: 1004 1d3e 7f86 c6bd e206 163e 7137 153e
00000320: 37b5 00be de4a 103d ce38 143c fd78 373d
00000330: 017e eb3d 3f53 f83b 6888 aebc de5d 043e
00000340: 80f0 fc3d 9498 cbbd 5f70 a53a 7cb4 013e
00000350: cad9 09bd 297b c9bd 2882 103e f98d 88bd
00000360: efa8 89bd e414 e43c 9168 1cbe 2dfb 123e
00000370: 458b 95bd 4514 06bd eb7b eabd 089a 333d
00000380: 69ea 0c3e 38f5 163c eebe a9bd 39de 1b3d
00000390: d654 18bd aa32 c4bd 92a6 6e3d 36ce fbbb
000003a0: fa24 e1bd 3967 4b3d 7539 e73c 7eaa 453d
000003b0: 4ff6 e53d 286e 09bc 19b0 0dbe da7b 11be
000003c0: c444 f03d 5636 eabd 8213 dc3d 09c1 303c
000003d0: 842b 94bd a104 233e 1583 1fbe c349 ddbd
000003e0: b728 523c 52f4 8bbd 48f7 30bd d68d 7e3c
000003f0: f87a df3d 5b1c d03c a87a 133e cd99 913d
