models/lstm-overfit-cat-6/LSTM_6.pt (torch, 13243 bytes, 14 tensors)

lstm.weight_ih_l0 f4 [40, 1]
0	0x40b5a42d	5.676291
1	0x4078a701	3.885193
2	0x3fa2576d	1.268293
3	0x3f7cc9fd	0.9874571
4	0xbf6ecdd2	-0.93282807
5	0x3f5f1e02	0.87155163
6	0xbfe57e9b	-1.7929262
7	0x3f9bb6d4	1.216517
8	0xc06b090a	-3.6724267
9	0xbf8ad868	-1.0847292
10	0x40caea77	6.341121
11	0x40360cc6	2.8445296
12	0x409b3d39	4.8512235
13	0xc06ce7c5	-3.701646
14	0x3f230a44	0.6368754
15	0xc0322765	-2.7836545
16	0xc02e8eb9	-2.727461
17	0x3fb059db	1.3777422
18	0xbfc79518	-1.5592375
19	0x3da759e1	0.0817144
20	0xc1306261	-11.024018
21	0xc014ee62	-2.3270497
22	0xc0707f40	-3.7577667
23	0x40573b3a	3.36299
24	0x40a11dfb	5.0349097
25	0x3d30fb48	0.04320839
26	0xc082bce8	-4.08556
27	0xc0e13e72	-7.0388727
28	0x40708883	3.758332
29	0xc10aae7e	-8.667601
30	0x4092d15f	4.588058
31	0x4085362b	4.1628623
32	0x3fccbdaa	1.5995381
33	0xbef6d381	-0.4820824
34	0xc02323e9	-2.5490668
35	0xbf80db73	-1.006697
36	0xc01628ba	-2.3462358
37	0x3f48f924	0.7850516
38	0xc088853b	-4.2662635
39	0x40545ae1	3.3180468

lstm.weight_hh_l0 f4 [40, 10]
0	0x3f59c534	0.85066533
1	0x406e3dbc	3.722518
2	0xbfcdda84	-1.6082311
3	0x409c7aa6	4.8899717
4	0x3fc675ab	1.550466
5	0xbf490447	-0.7852215
6	0xc08bd3a7	-4.3695865
7	0x40755e35	3.833875
8	0x3ff0b390	1.8804798
9	0xc035baa7	-2.8395174
10	0x409b894d	4.8605103
11	0x3fb32021	1.399418
12	0xbf9a4563	-1.2052425
13	0xbf3f66a6	-0.74766004
14	0x40383c23	2.8786705
15	0x417d2e7b	15.823848
16	0x408ed6d2	4.463723
17	0x3f790e8d	0.9728783
18	0xbe9a301c	-0.3011483
19	0x40555fbe	3.3339686
20	0xbfa53695	-1.2907282
21	0xc0c8d654	-6.276163
22	0xbf21db74	-0.63225484
23	0xbf3b7647	-0.7322735
24	0x4099a9a8	4.80196
25	0xc09d890d	-4.92298
26	0x3f8c0a7e	1.0940702
27	0xc0913e7a	-4.5388765
28	0x3f031f3c	0.51219535
29	0xc0210e01	-2.5164797
30	0xbf4015b7	-0.75033134
31	0xbf759283	-0.95926684
32	0xbf8e71ee	-1.1128519
33	0xbf0b8d0b	-0.5451209
34	0x3ecab0b4	0.3958794
35	0xc08f4c00	-4.4780273
36	0xbf26f8cb	-0.6522338
37	0xc1048ba5	-8.284093
38	0xbfeaf928	-1.8357286
39	0x3e83ae8e	0.25719112
40	0x40abff7e	5.374938
41	0xc0ba7b9c	-5.827589
42	0x40263763	2.5971305
43	0xc0ab39ae	-5.350791
44	0x4006e146	2.1074996
45	0xc08114f4	-4.0338078
46	0x40383269	2.8780768
47	0x400fd24e	2.247211
48	0x3f205c7f	0.6264114
49	0x3fe1d1a3	1.7642101
50	0xbff78244	-1.9336629
51	0x409cd826	4.9013853
52	0x3d056abd	0.032572497
53	0xbf73ab99	-0.9518371
54	0xbf653c3c	-0.89545035
55	0x3f881537	1.0631474
56	0x401a7d48	2.4138966
57	0xbe88e000	-0.26733398
58	0xc06efae7	-3.7340639
59	0x3f658239	0.8965183
60	0xbf8df02f	-1.1088923
61	0xc0dfeebf	-6.997894
62	0xc01d9fd0	-2.4628792
63	0x407a5822	3.9116292
64	0x40d7213e	6.722808
65	0xc1015375	-8.082875
66	0x3fa79c86	1.3094642
67	0x3f2a8801	0.66613775
68	0x40358d7e	2.836761
69	0xc107925a	-8.47323
70	0x3e9b4a95	0.3033034
71	0xbff42ed8	-1.9076796
72	0xc081a7fe	-4.051757
73	0x40020d5d	2.0320656
74	0xbefb8b8b	-0.491299
75	0x3e335c92	0.17515782
76	0xbfdd489b	-1.7287782
77	0xbff7bba2	-1.9354136
78	0xc00dbb71	-2.2145655
79	0xbf6f35c3	-0.9344141
80	0x40573bd9	3.3630278
81	0xc07e5e94	-3.9745226
82	0x3ff4becd	1.9120728
83	0xbf9a91b6	-1.2075717
84	0xbfa54489	-1.291154
85	0xbe09497f	-0.13406943
86	0x4000f29f	2.0148084
87	0xc0155e23	-2.3338706
88	0xbf956bbe	-1.1673505
89	0x3fae05c3	1.3595508
90	0xbecca2ed	-0.39968053
91	0x3f13ee9c	0.57785964
92	0xc052b224	-3.2921228
93	0x40b8fe39	5.781033
94	0x4050d7c6	3.2631698
95	0xc0b50d75	-5.6578927
96	0xbf8488a0	-1.0354195
97	0x3f3d5ebf	0.73972696
98	0x3f695c95	0.91156894
99	0x407b8008	3.9296894
100	0xbfd20345	-1.6407248
101	0x40a8955f	5.268234
102	0x3eea5a77	0.45772144
103	0xbfca3df7	-1.580016
104	0x3dc7df42	0.0975938
105	0xbf9cc495	-1.2247492
106	0x3faebc8d	1.3651291
107	0xc03878db	-2.8823764
108	0xc03566a7	-2.8343904
109	0x3ec0f1ac	0.3768438
110	0x40b4b6c6	5.647311
111	0xbf6a90e5	-0.9162734
112	0x4034bee1	2.8241503
113	0xbf6fd7ad	-0.9368847
114	0x4106df4c	8.429516
115	0xc0583535	-3.3782475
116	0x4083c7e3	4.11815
117	0xc01d2a8d	-2.455722
118	0xc003977b	-2.0561206
119	0xbfc2ce1c	-1.521915
120	0xc04fcb23	-3.2467735
121	0x40a3976b	5.1122336
122	0xc042daea	-3.0446115
123	0x4046c7f2	3.1059537
124	0x3fdd4ae0	1.7288475
125	0xbf6a7c80	-0.9159622
126	0xc0298aeb	-2.6491039
127	0x3f955230	1.1665707
128	0xc03b77ed	-2.9291947
129	0xbd78909c	-0.060684785
130	0xbff2fd1a	-1.898349
131	0x402ac20e	2.6680942
132	0xbf6c7057	-0.92358917
133	0x401c8644	2.445695
134	0x40a97d62	5.2965555
135	0xc125fc94	-10.374165
136	0xbfbec67b	-1.4904321
137	0xc095a280	-4.6760864
138	0x404f4291	3.238438
139	0xbf982a6b	-1.1887945
140	0x4116d046	9.425848
141	0x4038ff6c	2.8905897
142	0x4061b5c6	3.5267196
143	0xc07c2f85	-3.9404004
144	0xbe28beae	-0.16478989
145	0x41133f68	9.20298
146	0xc0d55276	-6.666316
147	0x3facbb4b	1.3494657
148	0x409c057e	4.8756704
149	0x404e35ba	3.2220292
150	0xc041a288	-3.0255451
151	0xc06848a0	-3.6294327
152	0x3ffedf36	1.9911869
153	0x40822c60	4.067917
154	0xc0915c96	-4.542552
155	0x3e1516ed	0.14559527
156	0x403a8730	2.9145012
157	0xc0522466	-3.2834716
158	0xbebf0fa7	-0.3731663
159	0x4084d588	4.151066
160	0xbf8f9927	-1.1218613
161	0xc0376a84	-2.8658762
162	0xbfdae150	-1.710001
163	0xc06f9522	-3.7434773
164	0xc0853418	-4.162609
165	0x40a496d3	5.143411
166	0x3e7b648a	0.24550071
167	0x40117c8f	2.2732275
168	0xc08dfe8e	-4.4373236
169	0x40f180d0	7.546974
170	0x3f528788	0.82238054
171	0x3f9c68a4	1.2219434
172	0xbee8222a	-0.45338565
173	0xbf4781aa	-0.77932227
174	0xbf22489c	-0.63392043
175	0xc003f186	-2.0616164
176	0x4006c641	2.1058505
177	0x3f66c2e5	0.90141135
178	0xbf1c4bff	-0.6105346
179	0x3f585c5b	0.84515923
180	0xbfa4a7d7	-1.2863721
181	0xc0b1a02c	-5.550802
182	0xbf4efdfe	-0.8085631
183	0x3f400875	0.75012904
184	0x4009cba6	2.1530547
185	0x3ea325d9	0.31864813
186	0x3fb95589	1.4479228
187	0xc0038ab5	-2.055341
188	0x3e2f25f2	0.17104319
189	0xc0b08fa9	-5.5175366
190	0xbe5e6111	-0.21716715
191	0x404068e3	3.0064018
192	0xbf5969fc	-0.84927344
193	0xbef3186f	-0.4747958
194	0x3e6bb81c	0.23019451
195	0x3e0b3f20	0.13598299
196	0x40732fce	3.7997928
197	0x3f87ac41	1.0599443
198	0x3ff03da0	1.8768806
199	0xbe686f9a	-0.22698823
200	0xbf7ee0c4	-0.99561715
201	0x40a962f7	5.2933307
202	0x3f6f0ee4	0.93382096
203	0xbeb49832	-0.35272366
204	0x4098cfb6	4.7753553
205	0xc0d97eca	-6.796727
206	0x3e9f5296	0.31117696
207	0xbedf139e	-0.43569654
208	0xc000bd8e	-2.0115695
209	0x3fc419bb	1.5320352
210	0xc01a8cc3	-2.4148414
211	0xbf423a45	-0.7587016
212	0xbd9a3d81	-0.07531262
213	0x3f25a2f8	0.64701796
214	0x40d8c494	6.7739964
215	0xbed11fb1	-0.4084449
216	0xc03e643a	-2.9748673
217	0xbe82ba58	-0.25532794
218	0x40986aaf	4.763023
219	0xc076f08e	-3.8584323
220	0x40f40a3d	7.62625
221	0x3e255d90	0.16148973
222	0xbf5d0e2b	-0.86349744
223	0x401ecb0c	2.481143
224	0x3fbcaacd	1.4739624
225	0x400ba155	2.181722
226	0xbfd4980b	-1.66089
227	0x40b7b4f3	5.7408385
228	0xbffa4330	-1.9551754
229	0x405186c9	3.2738516
230	0x3f8237b6	1.0173252
231	0xbf7a718b	-0.978295
232	0x3e1a138e	0.15046522
233	0xbfd267fc	-1.6437984
234	0x3fca73dc	1.5816607
235	0xbda785f0	-0.081798434
236	0xbf8084c3	-1.0040516
237	0x3faaf4dd	1.3355976
238	0x3fb25fcb	1.3935484
239	0xbfb55733	-1.4167236
240	0x3fbd47dc	1.4787555
241	0x3f8d7628	1.1051683
242	0x3f86fe42	1.0546343
243	0xbea6743e	-0.3251056
244	0xbf90faed	-1.1326576
245	0x3f6a9c77	0.91644996
246	0xbfa18488	-1.261857
247	0x3efcea59	0.49397543
248	0xbec23933	-0.37934265
249	0xbdb6526b	-0.08902439
250	0x40a66985	5.200381
251	0xc02a7510	-2.663395
252	0x3f379953	0.7171833
253	0x403e39ef	2.972286
254	0x40dc6100	6.886841
255	0xc0039b6b	-2.056361

lstm.bias_ih_l0 f4 [40]
0	0x3f148554	0.5801594
1	0xbf032e33	-0.5124237
2	0xbe999618	-0.29997325
3	0xbe2129db	-0.15738623
4	0xbf63198f	-0.88710874
5	0xbf9e0952	-1.2346594
6	0xbfc539a7	-1.5408219
7	0xbf83961e	-1.0280187
8	0x3ece3366	0.4027359
9	0xbf9e3bec	-1.2362037
10	0xc00eef15	-2.2333424
11	0x3e7a8176	0.24463448
12	0xbfcb6d5f	-1.5892752
13	0x3f2231b4	0.6335709
14	0xbf7d4d77	-0.98946327
15	0xbf7e60a3	-0.99366206
16	0xbf2198f6	-0.63124025
17	0xbff85dd2	-1.9403632
18	0xbfd176b9	-1.6364356
19	0xc03b2054	-2.9238482
20	0xbe490a76	-0.19632897
21	0x3d35edba	0.044416167
22	0xbea5fbae	-0.3241858
23	0x3f13292d	0.57484704
24	0x3f8b6398	1.0889769
25	0x3f3bd927	0.73378223
26	0xbf827b0e	-1.0193803
27	0x3f0cfde8	0.5507493
28	0x3f7e7501	0.99397284
29	0xbe1b8474	-0.15187246
30	0x3ed1370c	0.4086231
31	0xbfc5f45c	-1.5465198
32	0x3e9209b0	0.28523016
33	0x3f6a6739	0.91563755
34	0xbcf1f2ff	-0.029534815
35	0xbe872223	-0.26393232
36	0x3f202c0b	0.62567204
37	0xbf9c9e01	-1.2235719
38	0x3f483dd6	0.78219354
39	0xbf08ea92	-0.53482926

lstm.bias_hh_l0 f4 [40]
0	0x3f56a8d9	0.8385139
1	0xbf5d7cd5	-0.86518604
2	0xbef4abb4	-0.4778725
3	0xbeb92086	-0.36157626
4	0xbfb053a8	-1.377553
5	0xbfa4ab67	-1.2864808
6	0xbf929916	-1.1452968
7	0xbfaadc86	-1.3348548
8	0x3ee346e2	0.44390017
9	0xbf2fe80a	-0.6871344
10	0xc00750e4	-2.1143122
11	0x3f2a51aa	0.6653086
12	0xbfa0f8cb	-1.2575926
13	0x3f13d381	0.57744604
14	0xbf8c5d04	-1.0965886
15	0xbf87367b	-1.0563501
16	0xbedaaafd	-0.4270858
17	0xbff8134e	-1.9380891
18	0xbfe1bdbe	-1.763603
19	0xc037bd2c	-2.8709211
20	0xbe829005	-0.25500503
21	0xbe3cb9c8	-0.18430245
22	0xbec326d1	-0.38115552
23	0x3f846a4d	1.034494
24	0x3f9bdef5	1.2177416
25	0x3f852fe8	1.0405245
26	0xbf7d4521	-0.9893361
27	0x3f0dc2d8	0.5537543
28	0x3f1e98e6	0.61952055
29	0xbef602da	-0.4804905
30	0x3e1b1723	0.15145545
31	0xc0016f88	-2.0224323
32	0x3e143bfe	0.1447601
33	0x3f377b43	0.7167246
34	0xbd63daa3	-0.05562843
35	0xbf2f520a	-0.68484557
36	0x3f88543e	1.0650709
37	0xbfa7a146	-1.3096092
38	0x3f8f94ac	1.1217246
39	0xbf1ca07f	-0.611824

lstm.weight_ih_l1 f4 [40, 10]
0	0x4157bca5	13.483556
1	0x4136747e	11.40344
2	0xc108e8e4	-8.556858
3	0xc18b3cbe	-17.40466
4	0xc039c95b	-2.9029148
5	0x4009d0d6	2.1533713
6	0x400b5cc0	2.177536
7	0x411effcc	9.93745
8	0xc0866b0d	-4.2005677
9	0xbf209a38	-0.6273532
10	0x415c8851	13.78328
11	0x419f1473	19.884985
12	0xc0ee67a1	-7.45015
13	0x3f1fdb83	0.62444323
14	0x3fab0edc	1.336391
15	0x417bc4b9	15.735528
16	0x401fb890	2.4956398
17	0x419e9ac1	19.825563
18	0xbff9a1cc	-1.9502501
19	0x40942e10	4.630623
20	0x40490cde	3.1414104
21	0x40d0e21e	6.527602
22	0x3d9a64e0	0.07538772
23	0xc0392c03	-2.8933113
24	0xbf96dae1	-1.1785547
25	0xbea611a2	-0.32435328
26	0x404b51f6	3.1768775
27	0xc0d595a1	-6.6745152
28	0x3edc3a72	0.4301334
29	0x41082478	8.5089035
30	0xc1fa7bf2	-31.31052
31	0xc08baebb	-4.3650794
32	0x403bce3d	2.9344628
33	0xc0fed7f8	-7.9638634
34	0xc1305d5d	-11.022794
35	0xc103ec32	-8.245165
36	0x40da9cd4	6.831644
37	0xc05660dc	-3.3496618
38	0xc0765fec	-3.8496046
39	0x4038a208	2.8848896
40	0xc18f3232	-17.89951
41	0x3ca929ab	0.020649752
42	0xc11c6199	-9.773828
43	0xbf9bf260	-1.2183342
44	0xbd2f812b	-0.042847794
45	0x3fa63922	1.2986186
46	0x40bcd9ab	5.901571
47	0x4130ffe6	11.062475
48	0xbfc97da0	-1.5741463
49	0x3ece201d	0.40258875
50	0x41803a32	16.028416
51	0x40a8362f	5.256614
52	0xc0f21250	-7.5647354
53	0xc086e087	-4.214908
54	0x3f08b53d	0.5340155
55	0x3fe82399	1.8135864
56	0x405739d7	3.3629053
57	0x40babe3d	5.8357224
58	0x3fe29737	1.7702397
59	0x40b0fe2c	5.531027
60	0x41ae1d44	21.76429
61	0x41cc0f54	25.507484
62	0xc0a81ed7	-5.2537646
63	0x3f136a04	0.5758364
64	0xc01ac8c6	-2.4185042
65	0x416ae8de	14.681852
66	0xc086381e	-4.1943502
67	0x40dba03b	6.8633094
68	0xc0b1ce20	-5.5564117
69	0x40d643a5	6.6957574
70	0x4182be5c	16.342949
71	0x404deb5a	3.2174897
72	0xc09ba090	-4.86335
73	0xc00dd0dd	-2.215873
74	0x40785412	3.8801312
75	0xbe8a78a5	-0.2704517
76	0xbf440a91	-0.76578623
77	0xc047de07	-3.1229265
78	0x404394dd	3.055961
79	0x3f7a8bc1	0.978695
80	0x41015f66	8.085791
81	0x413ad713	11.677508
82	0xc1698702	-14.595461
83	0xc001a0d6	-2.0254416
84	0xc000d87f	-2.0132139
85	0x412317fd	10.1933565
86	0x40c25d79	6.07391
87	0x4173a3c5	15.227483
88	0x4018c87c	2.3872366
89	0x40b05e2c	5.5114956
90	0xc0c60c54	-6.189005
91	0x4131aa00	11.104004
92	0xc154c69b	-13.298488
93	0x40fe45d1	7.9460225
94	0x409b167e	4.8464956
95	0x414f0d27	12.940711
96	0x40c908d1	6.282326
97	0x418f2a61	17.895693
98	0x3fe79a84	1.809403
99	0x409a920e	4.830329
100	0x40e24b2e	7.071677
101	0x4136cc2d	11.424848
102	0xc0370677	-2.8597696
103	0xc0bf9b71	-5.987725
104	0x3e8bd3f8	0.27310157
105	0x4061021c	3.5157537
106	0x3f576781	0.8414231
107	0x40456ba8	3.0846958
108	0xc0bd50f9	-5.9161344
109	0x3e87b6a8	0.26506543
110	0x400cdd12	2.200993
111	0x4185dea3	16.73371
112	0xc115691d	-9.338162
113	0xc0042724	-2.064889
114	0xc0365748	-2.8490772
115	0x41346573	11.274768
116	0x4017ae0f	2.3699987
117	0x40e61791	7.1903768
118	0xc04b10b8	-3.1728954
119	0x40c86937	6.2628436
120	0x40d849ef	6.759025
121	0x40df9b5f	6.987716
122	0xbe9c02e3	-0.30470952
123	0xc04cfec0	-3.2030487
124	0x3f383fb9	0.71972233
125	0x40a806c9	5.2508283
126	0x407e8436	3.9768195
127	0xbf546feb	-0.82983273
128	0x40190889	2.391146
129	0x401e74b8	2.475874
130	0xc1a0c422	-20.095768
131	0x3d55858b	0.05212931
132	0x409f1014	4.9707127
133	0xc19973fc	-19.181633
134	0xc174b305	-15.293706
135	0xc0c141c2	-6.039277
136	0x41503e3b	13.015193
137	0x404b3020	3.1748123
138	0xc139b3e1	-11.606416
139	0xc09cfcdd	-4.905867
140	0xc10e0144	-8.875309
141	0xc06a1d68	-3.6580448
142	0xc0bdfcb4	-5.9370975
143	0xc017a272	-2.3692899
144	0xc1388642	-11.532778
145	0xc0acf40b	-5.4047904
146	0x40573a08	3.362917
147	0xbfb1d670	-1.3893566
148	0xc0273a46	-2.6129317
149	0xc0d71e47	-6.722446
150	0x40c3f02e	6.123069
151	0x41083293	8.512347
152	0xc0e729ca	-7.223851
153	0xc06a436f	-3.6603658
154	0xc08c2bc2	-4.3803415
155	0x40968a6a	4.7043962
156	0x409896d5	4.768412
157	0x408fd807	4.4951205
158	0x4068b4cb	3.6360347
159	0xc0000da8	-2.0008335
160	0x41009bdc	8.038052
161	0x41c653d7	24.790937
162	0xc097403e	-4.726592
163	0xc0869ef9	-4.206906
164	0xbfd3de0a	-1.6552136
165	0xbfa96a63	-1.3235592
166	0x40a5018c	5.156439
167	0x40b06b51	5.5131
168	0xbf24ce78	-0.64377546
169	0xbfd72ea1	-1.6811105
170	0x410ae685	8.681279
171	0x40aaf23e	5.3420706
172	0xc0c0f1da	-6.029523
173	0xc07679d3	-3.8511856
174	0x40bc1ecd	5.87876
175	0x400790cc	2.1182127
176	0x3efd91c6	0.4952528
177	0xc041a44d	-3.0256531
178	0xbfdec0a3	-1.7402538
179	0x40506fb1	3.256817
180	0x40cfaa0a	6.4895067
181	0x4133c605	11.235845
182	0x408e9c36	4.4565687
183	0x3f6ccb25	0.92497474
184	0x41383cb3	11.514819
185	0xbfe06849	-1.7531825
186	0xc006f827	-2.108896
187	0xc084fe69	-4.156056
188	0x3f4ec261	0.8076535
189	0xc0facf4b	-7.8378043
190	0xc08f7427	-4.4829288
191	0x4106ba30	8.420456
192	0xc0f55492	-7.6665735
193	0x4048d027	3.1377046
194	0x3f8f30e5	1.1186796
195	0x40cf27ef	6.4736247
196	0xbe539946	-0.20663938
197	0x40cfb12a	6.4903765
198	0x3fa8fca0	1.3202095
199	0x402e0936	2.7193122
200	0xc2112625	-36.28725
201	0xc20fa283	-35.908703
202	0x405be38b	3.4357631
203	0x40ab89b6	5.3605604
204	0xc07996b7	-3.899824
205	0xc0e5ea82	-7.1848764
206	0x40cabe48	6.3357277
207	0xc180fca3	-16.123358
208	0xbf2eefef	-0.6833486
209	0x40ba2312	5.816781
210	0xc142bebf	-12.171569
211	0xc119d489	-9.614388
212	0x407ddf7e	3.9667659
213	0x3ebccc20	0.36874485
214	0xc0809e52	-4.019326
215	0x40383cfe	2.8787227
216	0x40a7c0e9	5.2422986
217	0xc065a871	-3.5884058
218	0xc0a1440c	-5.0395565
219	0x407a5928	3.9116917
220	0x40a555f4	5.1667423
221	0x4092ba60	4.585251
222	0x400c055e	2.1878276
223	0xbde5b3b9	-0.1121592
224	0xbfa3cfbb	-1.2797769
225	0xbfcf20f2	-1.6181929
226	0x3ff556b1	1.9167081
227	0x40149847	2.3217943
228	0xbfdd5837	-1.7292546
229	0x3ff7beb7	1.9355077
230	0xc09d9058	-4.92387
231	0xbf12f38b	-0.5740287
232	0x4027e971	2.6236231
233	0xc13d82eb	-11.844462
234	0xc0ec1071	-7.377007
235	0xc071098f	-3.7662084
236	0x40934d16	4.60316
237	0x403aa1cd	2.9161255
238	0xc06de69c	-3.7172003
239	0xc03ea940	-2.9790802
240	0xc00c602f	-2.1933706
241	0x3f3190d4	0.69361615
242	0x40e57808	7.1709023
243	0xc04e2061	-3.2207263
244	0xc0f11173	-7.53338
245	0xc14c29c1	-12.760194
246	0xc05504d7	-3.3284204
247	0xc13befe1	-11.746064
248	0xc0ac9d18	-5.3941765
249	0xbf111fb7	-0.5668902
250	0xc0199963	-2.399987
251	0xc0662be7	-3.5964296
252	0x4009c936	2.152906
253	0x3fc3e7c9	1.530511
254	0xc01ee6bc	-2.482833
255	0xc018d875	-2.3882115

lstm.weight_hh_l1 f4 [40, 10]
0	0xc06cb7cc	-3.698718
1	0x3ff88d95	1.9418207
2	0x3fb5e364	1.4210019
3	0xc04e9d5c	-3.2283545
4	0x40934c5d	4.6030717
5	0xc0076867	-2.1157472
6	0xc0202451	-2.5022166
7	0xc0329a7e	-2.7906795
8	0xbf988dd1	-1.1918279
9	0xbf2341bf	-0.63772196
10	0xc0c25680	-6.073059
11	0x4076611f	3.8496778
12	0xc06eba93	-3.7301376
13	0xbf9cfc0d	-1.226442
14	0xc0a1e00e	-5.0586004
15	0x404006ee	3.000423
16	0x3fe11996	1.7585933
17	0x409d3a95	4.913401
18	0xbff8e6aa	-1.9445393
19	0xc058a8e5	-3.3853085
20	0x3e59e4db	0.21278708
21	0x3f2d1586	0.6761097
22	0x3d7dcc36	0.06196233
23	0x3ec23276	0.37929124
24	0x406d0f79	3.7040694
25	0xbfe5bf8e	-1.7949083
26	0x3fcdc34a	1.6075222
27	0x3fdfa594	1.7472405
28	0xbe2602e3	-0.16212039
29	0x40443330	3.0656242
30	0xc01ace49	-2.4188406
31	0x406db216	3.7139945
32	0xc037545f	-2.8645246
33	0xc03402ce	-2.8126712
34	0xbf87473e	-1.0568616
35	0x3ffe725d	1.9878651
36	0x404f18db	3.235892
37	0x3f902cc4	1.1263661
38	0x405206a3	3.281655
39	0x3d086b49	0.03330544
40	0xc09c307a	-4.8809175
41	0xc05babe1	-3.4323657
42	0x3f806b78	1.0032797
43	0x3fa215d9	1.2662917
44	0x3ea21f90	0.31664705
45	0x3f276f6b	0.65404385
46	0x40316b1f	2.7721632
47	0x40957b78	4.671322
48	0x402a78bf	2.6636198
49	0x3f713137	0.9421572
50	0xbfcf9244	-1.6216512
51	0xbf86bbc0	-1.0526047
52	0x3fdddbab	1.7332662
53	0xbeeca6db	-0.4622105
54	0x3d2c4e66	0.042066954
55	0x3e914c32	0.28378445
56	0x3e197ff0	0.1499021
57	0x400398f7	2.0562112
58	0x3dae077e	0.08497523
59	0xc05e5dac	-3.4744673
60	0x3fc3236c	1.5245185
61	0xbe17bcbb	-0.14818089
62	0x404cfa68	3.2027836
63	0x40a0c0d3	5.023538
64	0xbe51aa13	-0.20475034
65	0xc03035d3	-2.7532852
66	0xc0adf080	-5.435608
67	0xbfe79aae	-1.809408
68	0xc02726c7	-2.6117418
69	0xbffe5de5	-1.9872404
70	0x3fbc8939	1.4729377
71	0x3dede6a1	0.116162546
72	0x400f3847	2.23781
73	0x40c3770e	6.108283
74	0xc00f2683	-2.2367256
75	0xbfce12f3	-1.6099533
76	0xbe7cc20f	-0.24683402
77	0x3f9a41f4	1.2051377
78	0xbf91517d	-1.1352993
79	0xc0240107	-2.5625627
80	0xc0fd47f2	-7.9150324
81	0x40daf369	6.842213
82	0xbff7502d	-1.9321343
83	0xc0a47a9b	-5.1399665
84	0xc0d10d21	-6.5328526
85	0x40415d15	3.0213063
86	0x3f025cc2	0.5092279
87	0x40c44b49	6.13419
88	0x3fbadb0a	1.4598095
89	0x40c83eb3	6.2576537
90	0xbfa7eb7d	-1.311874
91	0xbf0c9311	-0.54911906
92	0xc08206eb	-4.0633445
93	0x3fe6adf8	1.8021841
94	0xbfe433c9	-1.7828304
95	0x408b7459	4.3579526
96	0x3fb45488	1.4088297
97	0x40b130a9	5.53719
98	0xbf7e99db	-0.99453515
99	0xbfbedd61	-1.491131
100	0x406cbb7b	3.698943
101	0x40097969	2.1480353
102	0x407e902d	3.9775498
103	0xbfa04e67	-1.2523926
104	0x402ee78b	2.7328823
105	0xbffa39a8	-1.9548845
106	0xc0395b6b	-2.8962047
107	0x407aa03a	3.9160295
108	0xc03580d8	-2.835989
109	0x405e8640	3.476944
110	0xc09124c1	-4.5357366
111	0x40318cb1	2.7742121
112	0x3f8eaf3d	1.1147228
113	0x40b36c0f	5.6069407
114	0xc0367ecb	-2.8514888
115	0xbf0a8a66	-0.5411743
116	0xbf9e163b	-1.2350534
117	0xbff6bef0	-1.927702
118	0xc1112c12	-9.073259
119	0xc0ec4521	-7.3834386
120	0x40bf1b47	5.9720798
121	0xbe8bd3c5	-0.27310005
122	0x3fcfae98	1.6225157
123	0x3f20ace6	0.6276382
124	0x40bfb8d8	5.991314
125	0xbfa78216	-1.3086574
126	0xbe6f67d2	-0.23379448
127	0x3ffed82e	1.9909723
128	0x401f6650	2.4906197
129	0x4072d182	3.7940373
130	0xc0369774	-2.852994
131	0x410040e9	8.015847
132	0xc05c09a8	-3.4380894
133	0xc024591c	-2.5679388
134	0xc025b5d4	-2.589223
135	0x3f2525a6	0.6451057
136	0x3f2e41cb	0.6806914
137	0x3d6095d0	0.054830372
138	0x40c2addb	6.0837226
139	0x3fc762e2	1.5577052
140	0x3f63e11e	0.89015377
141	0xbf1a3555	-0.6023763
142	0xbfc9446a	-1.5724003
143	0x3f9ab5a5	1.2086684
144	0xbd63663c	-0.05551742
145	0x3eea0873	0.4570957
146	0x3d6f453d	0.05841564
147	0xbf0532ed	-0.5203083
148	0xbdb624ba	-0.08893724
149	0xc02f7818	-2.741705
150	0xc0a26010	-5.0742264
151	0xbfb6b83f	-1.4274977
152	0x3fea097b	1.8284143
153	0xc089fe9d	-4.3123307
154	0xbea28f30	-0.31749868
155	0xbff300fe	-1.8984678
156	0xbfe210ab	-1.7661337
157	0x3e8eb92d	0.27875653
158	0xbf7452c7	-0.9543881
159	0xc09a0f86	-4.814395
160	0xc01b16a3	-2.4232566
161	0xc024f957	-2.5777185
162	0x405f8c3e	3.4929347
163	0xc0b4949a	-5.64314
164	0x3f47d5bc	0.7806051
165	0xc0313675	-2.7689488
166	0xc08b1fa4	-4.3476124
167	0xbe989ed3	-0.29808673
168	0xbf92fdc1	-1.148369
169	0xc02b9cab	-2.6814373
170	0xbf87f109	-1.0620433
171	0xc07db0cf	-3.9639165
172	0x402d5b50	2.7086983
173	0x3fb4b261	1.4116937
174	0xbfa116d1	-1.2585088
175	0xc073fe5c	-3.8123999
176	0xc02ec675	-2.7308629
177	0xc00e9063	-2.2275627
178	0xc08b03ab	-4.3441978
179	0xbfad4edd	-1.3539692
180	0x3fc0f47d	1.5074612
181	0x3fa54d07	1.2914132
182	0xbcaed5d9	-0.021342205
183	0x3fc3c5cb	1.5294737
184	0x40d532c3	6.6624465
185	0xbffa43e9	-1.9551975
186	0x3fb2d765	1.3971983
187	0xc0a82b30	-5.255272
188	0x3eb5d72c	0.35515726
189	0x4076865b	3.8519504
190	0xc04cc411	-3.199467
191	0xbff8ac13	-1.9427513
192	0xbf5dbd58	-0.8661704
193	0xbf164fae	-0.5871533
194	0x3f970f34	1.1801515
195	0x3f0cb008	0.549561
196	0xbf8fdc2c	-1.1239066
197	0x40616b68	3.5221806
198	0xbebfa0fc	-0.3742751
199	0xc02184f2	-2.5237393
200	0xbf4a4053	-0.790044
201	0x3ccf1600	0.025279045
202	0xc0165607	-2.3490007
203	0xbf333982	-0.70009625
204	0x3fb7bd72	1.4354689
205	0x4096aa67	4.708301
206	0x3fe30c59	1.7738143
207	0x3f04a9fc	0.51821876
208	0xbfefb375	-1.8726641
209	0xbf6914b3	-0.9104721
210	0x401f6ce8	2.491022
211	0x4083b460	4.1157684
212	0xbdcd5d26	-0.10027532
213	0x3f89ecf0	1.0775433
214	0xbfc34c02	-1.5257571
215	0x40040c2a	2.0632424
216	0x3feb454f	1.8380526
217	0x3fb38296	1.4024227
218	0x3ee038c5	0.43793312
219	0x4070174d	3.7514222
220	0x3b1ee973	0.0024248033
221	0xc00cc730	-2.1996574
222	0xbeb9256d	-0.36161366
223	0x3ece4390	0.4028592
224	0xbea25886	-0.31708163
225	0xbf8b57e0	-1.0886192
226	0xbeae01c7	-0.3398573
227	0x3e813f5c	0.25243652
228	0x40952c7a	4.6616793
229	0xbf176d13	-0.5915081
230	0x3eb678c4	0.35639012
231	0x3fa65bb5	1.2996737
232	0x3efcfea0	0.49413013
233	0xc08372a7	-4.1077456
234	0xbf9b6087	-1.2138833
235	0xbe998928	-0.29987454
236	0xbde39464	-0.11112288
237	0x3f20bd08	0.6278844
238	0x405e197f	3.4703062
239	0xbf0444f6	-0.51667726
240	0x3fd361d1	1.6514226
241	0xbed49d94	-0.41526473
242	0x406f7b05	3.7418835
243	0x4062dbb4	3.5446596
244	0x3eecfe5a	0.46287805
245	0xbe630c7c	-0.22172731
246	0xbfeefe2c	-1.8671317
247	0xbfcaa665	-1.583203
248	0xbfdf31c0	-1.7437057
249	0x40e7059f	7.219436
250	0x3f8c277d	1.0949551
251	0x3fad4a7a	1.3538353
252	0xbfcd85eb	-1.6056494
253	0xc091af56	-4.5526533
254	0x4029fd5d	2.656089
255	0x3f16b790	0.58873844

lstm.bias_ih_l1 f4 [40]
0	0xbfce9f1c	-1.6142306
1	0xbfaf7aba	-1.3709328
2	0x3f52de7c	0.82370734
3	0xc036c7d9	-2.8559477
4	0xbfd599a6	-1.6687515
5	0x3e6c29db	0.23062842
6	0xbf868745	-1.0510031
7	0xbff78882	-1.9338534
8	0xbebe0b59	-0.37118033
9	0xc021ea8e	-2.529941
10	0xc03f9702	-2.9935918
11	0x3e438ad3	0.19095926
12	0x3fa0e0fc	1.256866
13	0xc02266f2	-2.5375333
14	0xbf590435	-0.84772044
15	0x3e0d5d13	0.13805036
16	0xbf686808	-0.9078374
17	0x3fe703f2	1.8048079
18	0xbf57c1fd	-0.8428038
19	0x3d80c2a3	0.06287124
20	0x3e4a1f8e	0.197386
21	0xbfe63837	-1.7985905
22	0x3f382394	0.7192929
23	0xbf23aedb	-0.63938683
24	0xbec697f3	-0.38787803
25	0xbf9b42dc	-1.2129779
26	0xbea3f3c4	-0.32021916
27	0xbf8cd7ae	-1.100332
28	0x3e882eb1	0.26598123
29	0x3e92c4ca	0.28665763
30	0xbf43213b	-0.7622258
31	0xbfa336a6	-1.2751052
32	0xbfa0a7ca	-1.2551205
33	0xbf8eb27b	-1.1148218
34	0xbf29d7ac	-0.66344714
35	0xbfa72113	-1.3056968
36	0xbf55820e	-0.8340157
37	0xbfa89a91	-1.317217
38	0xbeef3305	-0.46718612
39	0xbfb5f88a	-1.4216473

lstm.bias_hh_l1 f4 [40]
0	0xbfcdd65b	-1.6081041
1	0xbfaa2759	-1.3293258
2	0x3efbce28	0.49180722
3	0xc034406f	-2.8164327
4	0xbf9f73d1	-1.2457219
5	0x3e81d57b	0.25358185
6	0xbfb3a6eb	-1.4035314
7	0xc01bac43	-2.432389
8	0x3e336e38	0.17522514
9	0xc0183512	-2.3782392
10	0xc02f6cbf	-2.7410123
11	0x3eef9f70	0.4680133
12	0x3f5b60a3	0.8569433
13	0xc045675f	-3.0844343
14	0xbf018d03	-0.5060579
15	0x3d5f1d17	0.0544711
16	0xbf4352e5	-0.7629836
17	0x3fe710d7	1.8052014
18	0xbf68231e	-0.90678585
19	0x3ec3bd56	0.3823039
20	0x3effec91	0.49985173
21	0xbff9edc8	-1.952569
22	0x3f6f2715	0.9341901
23	0xbf7e20f6	-0.99269044
24	0xbe04ae70	-0.12957168
25	0xbf862a39	-1.0481635
26	0xbeea8d6c	-0.4581102
27	0xbf8f5ac2	-1.1199572
28	0x3ef5313a	0.4788912
29	0x3d547796	0.05187186
30	0xbf5eafb1	-0.86986834
31	0xbf8ea3d3	-1.1143745
32	0xbf8fdc3f	-1.1239089
33	0xbf9dbff7	-1.2324208
34	0xbf3297eb	-0.6976306
35	0xbf9e7724	-1.2380109
36	0xbf1faf8b	-0.6237723
37	0xbfbd7540	-1.4801407
38	0xbf38084e	-0.7188767
39	0xbfcc05cc	-1.5939269

lstm.weight_ih_l2 f4 [40, 10]
0	0xbe886eb9	-0.26646975
1	0x3f408092	0.7519618
2	0x3f6be7aa	0.92150366
3	0x3f44af58	0.76830053
4	0x406dd625	3.7161953
5	0xbeb6b209	-0.35682705
6	0xbfda741a	-1.7066681
7	0x40219f4f	2.5253484
8	0xbf2386d5	-0.6387761
9	0x4018a028	2.3847752
10	0x3f255da5	0.64596015
11	0x3fcde460	1.608532
12	0x401a208c	2.4082365
13	0xbf4b30ea	-0.7937151
14	0x3fbc3f44	1.4706807
15	0xbfc95dd8	-1.5731764
16	0xc018e9ed	-2.3892777
17	0xc0563829	-3.3471777
18	0xbf80facf	-1.0076541
19	0xbf3a76a4	-0.7283728
20	0xbf16d29c	-0.58915114
21	0x3e021a71	0.12705399
22	0xc07fad86	-3.994966
23	0xbf863d6c	-1.0487494
24	0xbf7b4355	-0.98149616
25	0x4025a888	2.5884113
26	0x40216bef	2.5222127
27	0xbebf1465	-0.37320247
28	0xbe8ac8ae	-0.2710623
29	0xbebbcf27	-0.36681482
30	0x3dfe734b	0.12424334
31	0x401b5205	2.426881
32	0x3f5f4f07	0.8722996
33	0xc02af2c6	-2.6710677
34	0xbebce2aa	-0.3689168
35	0x3ee7f4fc	0.45304096
36	0xc032aef6	-2.7919288
37	0x3ee62f6e	0.4495806
38	0xc0d335c3	-6.6003127
39	0xbf8c6ce2	-1.0970728
40	0x3db21ea7	0.08697253
41	0x3f1f11d7	0.62136596
42	0xbf3a7dc4	-0.72848153
43	0x3eb25153	0.3482767
44	0x40197867	2.3979738
45	0x3c926036	0.017868143
46	0x3f83e99c	1.0305667
47	0x400dbd1a	2.2146668
48	0x3fcf0fa5	1.6176649
49	0x405339d9	3.3004057
50	0xbfd3caa9	-1.6546222
51	0x3fa35090	1.2758961
52	0x3fe88165	1.8164488
53	0x4011155e	2.2669291
54	0x4090ef8e	4.5292425
55	0x3ef3b5ae	0.47599548
56	0x4002d299	2.0441039
57	0xbf633611	-0.88754374
58	0x4049bb12	3.1520429
59	0x3f4fefb8	0.81225157
60	0xbf97df34	-1.1864991
61	0xc064a4a9	-3.57255
62	0xbfc17fec	-1.5117164
63	0xbfdc1992	-1.7195303
64	0x3fa5b921	1.2947122
65	0x3ff89bab	1.9422506
66	0x409e682d	4.950217
67	0x408c2b72	4.3803034
68	0xc07924fb	-3.892882
69	0x4095af37	4.6776385
70	0xbfafe77c	-1.3742518
71	0xbf34cd1f	-0.7062549
72	0x3ec6ac2e	0.38803238
73	0x3fa655b7	1.2994908
74	0xbfd8f9cd	-1.6951233
75	0xbf9171ea	-1.1362889
76	0xbf17f6c6	-0.5936092
77	0xc03c4e3e	-2.9422755
78	0xbf8ba8e7	-1.091092
79	0xc026fe6e	-2.6092792
80	0x3e2d38df	0.16916226
81	0x40688f1f	3.6337354
82	0xc031d760	-2.7787704
83	0x4001d85e	2.028831
84	0x3bcc2e8e	0.0062311357
85	0x4084263b	4.129667
86	0x40ae7daf	5.452842
87	0x409317d2	4.5966578
88	0xbf46d6e3	-0.7767164
89	0x4016c2b0	2.3556328
90	0xc089e1e8	-4.3088264
91	0xbfd1ba02	-1.638489
92	0x3e0613c5	0.13093479
93	0xc0793ba8	-3.8942661
94	0xc02bea3e	-2.686172
95	0xc01b9e84	-2.43155
96	0xbf8fecc9	-1.1244136
97	0xc06b7276	-3.6788611
98	0x3fe8d5f3	1.8190292
99	0x40368d06	2.8523574
100	0xbf845d1f	-1.0340918
101	0x3faf6663	1.3703121
102	0xbfc50fb6	-1.539542
103	0x3f0aeb59	0.5426536
104	0xbe1a01a1	-0.15039684
105	0xbf5ac867	-0.8546204
106	0xbee87275	-0.45399824
107	0x40b3994b	5.6124625
108	0xc0b6116e	-5.6896276
109	0xbf932c04	-1.1497808
110	0x40317026	2.77247
111	0x406ca162	3.69735
112	0xbf8d374e	-1.1032503
113	0x3e6c295f	0.23062657
114	0x407965b5	3.8968327
115	0x4039ea53	2.904927
116	0x3f4971be	0.7868918
117	0xbfaaad4c	-1.3334136
118	0xbea271e3	-0.31727514
119	0xbff36203	-1.9014286
120	0x402717ea	2.6108346
121	0xbf1403d9	-0.5781837
122	0xbf924fe8	-1.1430635
123	0x3ffd58c9	1.979272
124	0x3e86a4e6	0.26297683
125	0x3f33db51	0.70256525
126	0x40476aaf	3.1158864
127	0xbfe97a87	-1.8240517
128	0x40678036	3.6172004
129	0x3eb7ca41	0.35896495
130	0x3f9e0da4	1.2347913
131	0xc040e041	-3.0136874
132	0xc0b8ac18	-5.7710075
133	0xc02dba61	-2.7145007
134	0xc05aa497	-3.4162958
135	0x40a07e17	5.015392
136	0x3f76b733	0.9637329
137	0x3f076045	0.5288127
138	0x4025eced	2.5925858
139	0xbff906f5	-1.9455248
140	0xbf7d60fa	-0.989761
141	0x3f791897	0.97303146
142	0xbe75eaba	-0.24015322
143	0x4037aec4	2.8700418
144	0x3f5fac17	0.87371963
145	0x3ed26fb5	0.4110085
146	0x3f34d3b1	0.70635515
147	0x3f18bd69	0.59664017
148	0x3f084eb6	0.53245103
149	0xbe13b136	-0.1442307
150	0x3f607d58	0.8769126
151	0xbfbee7b5	-1.4914461
152	0xc0208297	-2.5079706
153	0xc0624a2c	-3.535777
154	0xc005774a	-2.0854058
155	0x404a26cd	3.1586182
156	0x40073b3c	2.1129904
157	0x400a397b	2.1597583
158	0x402e4fdc	2.7236242
159	0xc00ce391	-2.2013896
160	0xbfeeffc7	-1.8671807
161	0xc014d13d	-2.325271
162	0xbe033e45	-0.12816723
163	0xc0220643	-2.5316322
164	0xc0089338	-2.1339855
165	0xbe8c780c	-0.27435338
166	0x4014ad91	2.3230937
167	0x3f0f0d5a	0.5587975
168	0x4020c813	2.5122116
169	0xc01a039e	-2.4064708
170	0x40043561	2.065758
171	0x3f9c747e	1.222305
172	0xbd1346ef	-0.03595632
173	0xc02712b8	-2.6105175
174	0xbb8d2f80	-0.004308641
175	0x3f563274	0.83670735
176	0x3f8036d6	1.0016735
177	0xbf81234a	-1.0088894
178	0xbfdbb6e8	-1.7165194
179	0x3fde0963	1.7346615
180	0x3e46da88	0.194193
181	0xbd360a09	-0.044443164
182	0xc021518f	-2.520603
183	0x405a7dcd	3.4139283
184	0xbf9b77b6	-1.2145908
185	0x3fd29ce1	1.6454126
186	0x4087712e	4.232566
187	0x40462aae	3.096355
188	0xc02b9085	-2.6806958
189	0x409c2ac5	4.880221
190	0x3f9cfef1	1.2265302
191	0x3f85f080	1.046402
192	0x3fb06afc	1.3782649
193	0x4007e7c2	2.1235204
194	0xbf8cdc6e	-1.100477
195	0xbe8839d1	-0.2660661
196	0xc0199448	-2.3996754
197	0xc05942ad	-3.3946946
198	0x402f7b8a	2.7419152
199	0xbdd4eb02	-0.10396387
200	0x3f04e2bc	0.5190847
201	0x3f09bee1	0.53806883
202	0xbe6f13a3	-0.23347335
203	0x3facc400	1.3497314
204	0x3f52ac6c	0.82294345
205	0xbe895b6b	-0.2682756
206	0x3eac69d7	0.336745
207	0xbf58c423	-0.8467428
208	0x3f9f1cf1	1.2430707
209	0xbe39d8a8	-0.18149054
210	0x3ee6cfce	0.45080417
211	0xc0351037	-2.8291147
212	0xbf0ebe0c	-0.5575874
213	0x3f32ff31	0.6992064
214	0xbf0a4bda	-0.5402199
215	0x3e08d078	0.13360775
216	0x3efe708f	0.4969525
217	0x3f6036ef	0.8758382
218	0xc07f49ce	-3.9888797
219	0xbf019f7d	-0.50633985
220	0xbf3ba6dd	-0.7330149
221	0xbfdda186	-1.7314918
222	0x3d58369b	0.05278645
223	0xbd869861	-0.06572033
224	0x3fe6b5a2	1.802418
225	0x3ed875e2	0.42277437
226	0x402cff09	2.703066
227	0xbee6de1e	-0.45091337
228	0xbf29c5e2	-0.6631757
229	0x3e860726	0.2617733
230	0x3f480369	0.78130203
231	0x3fe27061	1.7690545
232	0xbf3b1afb	-0.73088044
233	0x40b55229	5.6662793
234	0xc00d1f42	-2.2050328
235	0xbfee82be	-1.8633649
236	0xbf3d7b41	-0.74016196
237	0xc0eaad82	-7.33368
238	0xc0bffa94	-5.999338
239	0xbfa00dae	-1.2504175
240	0x3f70666c	0.93906283
241	0x3fdc11ee	1.7192972
242	0xbf2abba8	-0.6669259
243	0xbf0b88d1	-0.5450564
244	0xc001dd6a	-2.029139
245	0xc01e02f5	-2.4689305
246	0xbf9e2dd0	-1.2357731
247	0xc005fc37	-2.093519
248	0x4012f118	2.2959652
249	0xbf2e76ca	-0.6815001
250	0xbf38b6fc	-0.7215421
251	0x3ec27c92	0.37985665
252	0xbe2124a7	-0.15736638
253	0x3eb700e6	0.35742873
254	0x404249e2	3.0357594
255	0xbeff1e6d	-0.498279

lstm.weight_hh_l2 f4 [40, 10]
0	0x404e0ada	3.2194123
1	0x4036c9a5	2.8560574
2	0x3e2a0407	0.16603099
3	0xc066532d	-3.5988266
4	0xbfaed6be	-1.3659284
5	0xbf358939	-0.7091251
6	0x402499d1	2.5718882
7	0x4070b91d	3.7612984
8	0xbff8f7c9	-1.9450618
9	0xbf3c9766	-0.73668516
10	0x3e176af8	0.14786899
11	0xbe396308	-0.18104184
12	0xc036eaaf	-2.858074
13	0xbf9b31d9	-1.2124587
14	0x3f197cf1	0.5995627
15	0xc04634cd	-3.0969727
16	0xc015f624	-2.3431482
17	0xbfdd08bb	-1.7268289
18	0xc0442e95	-3.0653431
19	0xbf12d02c	-0.57348895
20	0x401d077a	2.4535813
21	0x3fe22eb0	1.7670498
22	0x3fcdd090	1.6079273
23	0x40d5be74	6.6794987
24	0xbd9a9973	-0.07548799
25	0x3f11a6fb	0.56895417
26	0x3fa9e5e3	1.3273281
27	0x40094fa9	2.145487
28	0x3d47fe7b	0.048826676
29	0x3f681259	0.90652996
30	0xbf42365f	-0.75864214
31	0xc091ed6b	-4.5602317
32	0xbefe2e29	-0.49644592
33	0xc0721488	-3.7825031
34	0xbf7cc790	-0.9874201
35	0x408d473a	4.4149446
36	0x3e4b65e9	0.19863094
37	0xc03a1daf	-2.9080617
38	0xbf67cc17	-0.9054579
39	0xbf8f3bfe	-1.1190183
40	0x3f007327	0.5017571
41	0x3f90cf43	1.1313251
42	0xbcb02101	-0.021500112
43	0x3f737a0b	0.951081
44	0xbed793f5	-0.4210507
45	0x3fd1a468	1.6378298
46	0xbf38fccd	-0.72260743
47	0xc04e9597	-3.2278802
48	0x3f2ed9ec	0.6830127
49	0xbf89ec72	-1.0775282
50	0xc034a9c4	-2.8228617
51	0xc0192ce0	-2.393364
52	0x4060baa9	3.5113928
53	0xc1623aab	-14.139323
54	0x403d7264	2.9601068
55	0xc08c87fd	-4.3916
56	0x4038223f	2.8770902
57	0x4097d72d	4.7450166
58	0xbf265bc5	-0.6498378
59	0x3fde04c4	1.7345204
60	0xbfa96f6b	-1.3237127
61	0xbfe858c0	-1.8152084
62	0x40718761	3.7738879
63	0x3e055a21	0.13022663
64	0x3f9acf94	1.2094598
65	0xc04da16a	-3.212977
66	0x3f3df7c5	0.7420619
67	0x40348598	2.820654
68	0xbf7c9a7e	-0.98673236
69	0x4015f2e1	2.3429492
70	0x3fbd604c	1.4795012
71	0x3fdef0bd	1.7417217
72	0xbfcc8130	-1.5976925
73	0x408bc292	4.3675013
74	0x3fdad091	1.70949
75	0x3fa3bbf0	1.2791729
76	0xbff4d0dd	-1.912624
77	0xc0232a72	-2.5494657
78	0xc00eeae6	-2.233087
79	0xbffacd63	-1.9593929
80	0x3f464d12	0.7746135
81	0xbfda09e2	-1.7034266
82	0xbfc5098f	-1.5393542
83	0x401f4a24	2.4889002
84	0x400101c4	2.0157328
85	0xbee5dcf5	-0.4489514
86	0xc01534bc	-2.3313437
87	0xbfa99192	-1.324755
88	0xbfbeb753	-1.4899696
89	0xbfb39d37	-1.4032353
90	0xbf2f639d	-0.6851137
91	0xbdf894c2	-0.12137748
92	0x3e978383	0.29592523
93	0x3fd4e067	1.6630982
94	0x3e52ce93	0.20586614
95	0x3ed2f2be	0.41200823
96	0x3f99afc5	1.2006766
97	0x3e8ba538	0.2727449
98	0xc001d439	-2.028578
99	0xbf212d8d	-0.6296013
100	0xbf7dd629	-0.9915491
101	0xbf8dcf3b	-1.1078867
102	0xbec00400	-0.37503052
103	0xbf82e2b6	-1.0225437
104	0x3f132620	0.5748005
105	0x40944960	4.633957
106	0x400f205a	2.2363496
107	0xc0ad0ad8	-5.4075737
108	0xc0022375	-2.0334141
109	0xbd8b607c	-0.06805512
110	0xbdc65980	-0.096850395
111	0xc07e27d2	-3.9711804
112	0x3e62d87e	0.22152898
113	0x3fdc43e1	1.7208215
114	0x3e4e138d	0.20124646
115	0xbf786235	-0.9702485
116	0xbf12b875	-0.5731271
117	0x3ecc982c	0.39959848
118	0x4017b3ba	2.3703446
119	0x3f169d30	0.588336
120	0x3f89289c	1.0715518
121	0xbea8503a	-0.32873708
122	0x3fccdf3b	1.6005625
123	0x40025bb3	2.0368469
124	0xbeaf2c7b	-0.34213623
125	0x401e346f	2.4719503
126	0x3f2483e6	0.6426376
127	0x405fd8e7	3.4976137
128	0x3fb1ee16	1.3900783
129	0x3f860295	1.0469538
130	0x402910ae	2.641643
131	0xc0a009cb	-5.0011954
132	0x3fa4f484	1.288712
133	0x3facd117	1.3501309
134	0xbff899ff	-1.9421996
135	0x40785bff	3.880615
136	0x3f07307f	0.52808374
137	0xc027a9be	-2.6197352
138	0x3fdde4ee	1.7335489
139	0x3f98849c	1.1915469
140	0x3f625d03	0.88423175
141	0xbf0d5d9c	-0.5522096
142	0x3e8b8645	0.27250877
143	0xbf4f986e	-0.81091964
144	0x3e9f98be	0.3117122
145	0x3f926829	1.1438037
146	0xbf346f24	-0.7048209
147	0x4050a891	3.2602885
148	0x3fabcd7f	1.3422087
149	0xbeee476c	-0.46538866
150	0xc0940c1d	-4.6264787
151	0xbf917aea	-1.1365635
152	0x3cfc7bc0	0.030820727
153	0xc0d3cbbf	-6.6186213
154	0x3e79d36a	0.24397054
155	0x3ec45aad	0.3835043
156	0x3f97b7a4	1.1852918
157	0x40a9987d	5.2998643
158	0xbf614244	-0.8799174
159	0xbf6a379d	-0.9149111
160	0x40d658f6	6.6983595
161	0xbfef0da3	-1.8676037
162	0x4040ddef	3.0135458
163	0xbef770c7	-0.4832823
164	0xbfb4d1fc	-1.4126582
165	0xc04c4fb7	-3.1923654
166	0x3e1e3c27	0.15452634
167	0x40af62bf	5.480804
168	0xbf6e47aa	-0.930781
169	0x40420a40	3.0318756
170	0xbf841c19	-1.0321075
171	0x40aa8d6a	5.3297625
172	0xc039ad23	-2.9011924
173	0xbee5a4b8	-0.44852233
174	0x3ee57df3	0.44822654
175	0xc0be9b0c	-5.9564266
176	0xbf5b816c	-0.8574436
177	0x3fb31a5c	1.3992419
178	0xc066cf4d	-3.6064026
179	0xbd7ab57d	-0.061208237
180	0x3ebe3686	0.37150973
181	0xbfe08689	-1.7541057
182	0x3f4b7ac5	0.79484206
183	0x4003afb9	2.0576003
184	0x3f1dedaa	0.6169077
185	0xc02224a5	-2.5334866
186	0xbe60882a	-0.21926942
187	0x3f51a09d	0.818857
188	0xbee046e2	-0.4380408
189	0x3f01ebc8	0.507504
190	0x3dfd7b1d	0.123769976
191	0xc0515956	-3.2710776
192	0xbe7ca5b7	-0.2467259
193	0xc0ee60b2	-7.4493036
194	0x3f3a31e0	0.72732353
195	0x3f3687fc	0.71301246
196	0xbf25df56	-0.6479391
197	0xbfd0eff4	-1.6323228
198	0xbbaf9039	-0.005357769
199	0x3ef77a63	0.4833556
200	0x3e5cc18e	0.2155821
201	0xc08ffc9e	-4.499587
202	0x3fe07f79	1.7538902
203	0x3ed39c34	0.4133011
204	0x40093d2e	2.144359
205	0xc13b128f	-11.692031
206	0xc080ec90	-4.0288773
207	0x40085994	2.1304674
208	0xbfe56b3b	-1.7923349
209	0x40477ade	3.1168742
210	0x4028ec10	2.639408
211	0x3fdf073e	1.7424085
212	0x4005e115	2.091863
213	0x3f5bf2b0	0.85917187
214	0xbe403eff	-0.18774031
215	0x40993edf	4.7889247
216	0x40075d6f	2.1150777
217	0x4065a3d8	3.5881252
218	0x40326a5d	2.787742
219	0x3e6b0f1c	0.22954983
220	0xbbbbc0a1	-0.0057297503
221	0xbf23d7ef	-0.64001364
222	0x3f868a26	1.051091
223	0x3f4c604d	0.79834443
224	0x3d851a62	0.06499173
225	0x3ff44235	1.9082705
226	0x3ef1d291	0.47230962
227	0x4021baa6	2.527017
228	0x3edfc8fb	0.43708023
229	0x3f1891af	0.59597296
230	0xbff6bac7	-1.927575
231	0xbf6c14d7	-0.922193
232	0xbf8601e4	-1.0469327
233	0xc031d9d9	-2.7789214
234	0x3f0f1351	0.5588885
235	0xc0902c57	-4.5054126
236	0xbfc2b3f8	-1.5211172
237	0x3e98cd36	0.29844064
238	0x3f454959	0.77065045
239	0x3eed331c	0.46328056
240	0x3e251682	0.16121867
241	0xbfe8c654	-1.8185525
242	0xbfa34eb0	-1.2758389
243	0x40867597	4.201854
244	0xc02bf746	-2.6869674
245	0xc03b147c	-2.9231253
246	0x3f326561	0.6968594
247	0xbd074023	-0.03302015
248	0xbfa35b07	-1.2762154
249	0x3ea5f175	0.3241078
250	0x4115a4ef	9.352767
251	0x3f494bf1	0.786315
252	0xbea223c1	-0.31667903
253	0x402f2a26	2.7369475
254	0x3fd687a9	1.676015
255	0x3f45bb67	0.7723908

lstm.bias_ih_l2 f4 [40]
0	0xbee60b0a	-0.44930297
1	0xbfccb9b2	-1.599417
2	0xbed4406c	-0.414554
3	0xbf51675a	-0.81798327
4	0xbf54b27c	-0.83084846
5	0xbd2c12d2	-0.042010136
6	0x3e9be7b7	0.30450222
7	0xbf1f85a1	-0.62313277
8	0xbfae11b8	-1.3599157
9	0x3da89298	0.082310855
10	0x3f044e5f	0.51682085
11	0x3e199ee6	0.15002021
12	0x3fa0de7d	1.2567898
13	0x3f9b03b3	1.2110504
14	0xbf15637f	-0.58354944
15	0x3e21d570	0.15804076
16	0x3f20606d	0.62647134
17	0xbf7422e5	-0.95365745
18	0x3f978653	1.1837867
19	0x3fa3464d	1.2755829
20	0x3e07b9ff	0.13254546
21	0x3e6c29e6	0.23062858
22	0x3f468e0f	0.77560514
23	0xbe1a2e3a	-0.15056697
24	0xbeb43676	-0.351978
25	0xbe0bb71d	-0.13644071
26	0x3e8f50cb	0.27991328
27	0x3f65d7f6	0.89782655
28	0x3f9003e0	1.1251183
29	0x3f3e77e4	0.7440169
30	0xbf1937cb	-0.5985076
31	0xbfa1322e	-1.2593439
32	0xbf6d4648	-0.92685366
33	0xbfd8f35b	-1.6949266
34	0xbf659e41	-0.896946
35	0xbf878f39	-1.0590583
36	0xbf4113f6	-0.7542108
37	0xbf21e97a	-0.6324688
38	0xbba9c679	-0.0051811305
39	0xbfc30625	-1.523625

lstm.bias_hh_l2 f4 [40]
0	0xbf21afa2	-0.6315862
1	0xbfc19cbc	-1.5125957
2	0xbd802d78	-0.062586725
3	0xbf749aa5	-0.9554847
4	0xbf0af345	-0.5427745
5	0xbed9e9d2	-0.42561203
6	0x3e09f0fe	0.13470837
7	0xbf8598a6	-1.043721
8	0xbfaa61d9	-1.3311111
9	0x3e075957	0.13217674
10	0x3e4ee643	0.20205025
11	0xbdd9bbe3	-0.1063154
12	0x3f9328de	1.1496847
13	0x3f299788	0.66246843
14	0xbe977355	-0.2958018
15	0x3deec885	0.1165934
16	0x3f452089	0.7700277
17	0xbf4d6db6	-0.8024553
18	0x3f9f96db	1.2467912
19	0x3f5ecc84	0.87030816
20	0xbe911f04	-0.28343976
21	0x3e1384f4	0.14406186
22	0x3f8abc16	1.0838649
23	0xbe6b9a90	-0.2300818
24	0xbd894ee0	-0.06704497
25	0xbe6e1866	-0.23251495
26	0x3e5ecde8	0.21758235
27	0x3ea7c767	0.3276932
28	0x3f99dc5d	1.2020375
29	0x3fa709de	1.3049886
30	0xbf1b40cb	-0.6064574
31	0xbf5d29e7	-0.8639206
32	0xbf1e3521	-0.6179982
33	0xbfa4acbe	-1.2865217
34	0xbf50f858	-0.8162894
35	0xbf90e80c	-1.1320815
36	0xbfae88a0	-1.3635445
37	0xbf8e97b2	-1.1140044
38	0x3e9f7105	0.31140915
39	0xbfbfed91	-1.4994375

out_layer.weight f4 [7, 10]
0	0x3eb4b75b	0.3529614
1	0xbf897395	-1.0738398
2	0xbf58f867	-0.8475403
3	0x3fb774cd	1.433252
4	0x3e99bc55	0.30026498
5	0x3e08cf27	0.13360272
6	0xbe8bc548	-0.2729895
7	0xbeee6480	-0.4656105
8	0xbf37f38b	-0.7185599
9	0x3e54ec69	0.20793308
10	0x3eb420ed	0.3518137
11	0xbf58227f	-0.84427637
12	0xbf2a7096	-0.6657804
13	0x3f0ec944	0.55775857
14	0x3ec58019	0.38574293
15	0xbe88bc4e	-0.26706165
16	0xbef89591	-0.4855161
17	0xbf06ad43	-0.52608126
18	0xbf4deb8f	-0.8043756
19	0x3dc6a66a	0.0969971
20	0x3d1f0f9b	0.038833242
21	0xbf22a4e6	-0.63532865
22	0xbed7e8e0	-0.42169857
23	0x3d8c5705	0.06852535
24	0x3ee19eba	0.4406641
25	0xbf1bdee1	-0.6088696
26	0xbf1d0958	-0.6134238
27	0xbf0b16bc	-0.54331565
28	0xbf5282d7	-0.82230896
29	0xbd59be77	-0.053160157
30	0xbea80768	-0.3281815
31	0xbea39a7d	-0.31953803
32	0xbe930e25	-0.2872173
33	0x3d6d36fe	0.057913773
34	0x3d9c49c5	0.07631258
35	0xbee8c95f	-0.45466134
36	0xbf313442	-0.69220364
37	0xbf059a2b	-0.52188367
38	0xbf4f3840	-0.80945206
39	0xbe77dab6	-0.24204525
40	0xbf083b6e	-0.5321568
41	0x3dcc4be1	0.0997541
42	0xbeae72b2	-0.3407188
43	0xbeac7fbc	-0.33691204
44	0x3eb3d358	0.3512218
45	0x3d96b414	0.07358566
46	0xbf036e90	-0.5134058
47	0xbef53f08	-0.47899652
48	0xbf432770	-0.7623205
49	0xbeddd57d	-0.4332694
50	0xbecdd115	-0.4019858
51	0x3eb410bc	0.35169017
52	0xbf10fe81	-0.5663834
53	0xbf3467f0	-0.70471096
54	0x3e6fcb5a	0.23417416
55	0x3e8a6129	0.27027252
56	0xbe249c8b	-0.16075341
57	0xbeda4688	-0.42631936
58	0xbf35c3ee	-0.7100209
59	0xbf461acc	-0.7738464
60	0x3e49a49e	0.19691703
61	0x3ecdccbb	0.4019526
62	0xbf39044f	-0.722722
63	0xbed87f35	-0.4228455
64	0x3e807ced	0.2509531
65	0x3ec21476	0.37906235
66	0xbdf6e18b	-0.12054738
67	0xbeccc933	-0.39997253
68	0xbf44f467	-0.7693543
69	0xbf57db98	-0.8431945

out_layer.bias f4 [7]
0	0xbebbbf8d	-0.3666958
1	0xbeb8d5cc	-0.36100614
2	0xbec9d561	-0.39420608
3	0xbed1b129	-0.40955475
4	0xbec71123	-0.38880262
5	0xbebf6b18	-0.37386394
6	0xbeae2b1a	-0.3401726
