models/test-smape-error-1000-trials/LSTM_6.pt (torch, 14779 bytes, 13 tensors)

lstm.weight_ih_l0 f4 [44, 1]
00000000: 4e86 fdbe d12d 2ebe 8c86 1bbf ff7e 38bf
00000010: b6ea 7cbe 13bd 0abf 065a 50bf 9e2b d6be
00000020: 10f7 29bf 8b20 f7be 7aa6 66bf 0c84 5dbe
00000030: 381b 68be e542 843e 49b3 85bd b091 c9bd
00000040: 222b 863e 4355 2c3e 908a 143e 3872 65be
00000050: 9500 17be af73 8fbe 1820 16bf 3917 4b3f
00000060: 098c 4e3f a565 32bf a5a8 49bf 3bee 4ebf
00000070: d199 2cbf 17bc 0dbf e9ee 50bf 47e3 dfbe
00000080: 151a 123f cdf1 2ebf 1bfc 2ebe 01cf debe
00000090: 6cd8 14bf 17c1 0fbf 0d4b 11bf 8b30 18bf
000000a0: 6b99 3fbf 2f91 0ebf 4920 56bf 8bd5 28bf
-0.4951653 -0.17009665 -0.6075218 -0.7206878 -0.2469891 -0.54194754 -0.81387365 -0.41830152
-0.6639261 -0.48267016 -0.90097773 -0.21632403 -0.22666633 0.25832286 -0.065283366 -0.09842241
0.26204783 0.168294 0.14505982 -0.22406852 -0.14746316 -0.28017947 -0.5864272 0.7933231
0.80682427 -0.6968635 -0.78772956 -0.8083226 -0.67422205 -0.5536513 -0.8161455 -0.43728086
0.5707105 -0.6833771 -0.17088358 -0.43517306 -0.58142734 -0.56154007 -0.56755143 -0.5944907
-0.7484347 -0.5569028 -0.83643013 -0.6595084

lstm.weight_hh_l0 f4 [44, 11]
00000000: cff1 dabd 2354 4abe 8eac 883e 6837 543d
00000010: 4106 7fbb 73a2 223e 50ec 66be 6d9c d1bd
00000020: 88d5 de3d 2dea 3dbe b519 2e3e f3cd 853d
00000030: 005e 9abd 694b 913e dfc1 56be 8cab 7bbe
00000040: 4835 b03d c21e 113d 1e13 273d 457c cd3d
00000050: 3e4c 50be 4d32 68be 4376 0bbd 54e0 fabd
00000060: 0e7b 06be 37dc 093e 7f5e 23be c642 803d
00000070: 78bb aebd 6f3b 68be 73dd 263d 102a 44be
00000080: bddb 61bd e134 5b3d f502 983e 06e2 0b3e
00000090: 4069 083e f3d6 ccbd 9f57 a8bc e608 f0bd
000000a0: 6c51 cf3d 4b6a 6e3e 5245 363e e689 593e
000000b0: b3fe 643d 7ced 25be c8b2 10be 3ab4 183d
000000c0: cf47 8e3e 5089 84be 59c0 8bbe 2d6f 8b3e
000000d0: 0ceb 0bbe c9ee 983e 478a b4bd 8561 643e
000000e0: ed42 923e 9f05 1cbe 773f 0e3e 34b7 64be
000000f0: 7115 723e bad5 3b3e 01e8 a6bd 6120 15be
00000100: fa29 8b3c 2f07 2dbc 2abc 53be bc4a 83bd
00000110: d356 69be a69d 043d dbba c43d 857c b3bb
00000120: c2a4 90bd dbbb 113e 6f94 92be 1cba 4d3e
00000130: 2b71 7c3e 4673 8bbe 6655 b33d faa0 0e3e
00000140: 5aab 303e 6798 263e 044f dc3d 47cc 7a3e
00000150: ed2c 93be 9ed2 babd 767c a93c 658c 49be
00000160: 65eb 8ebe 18a0 94bc 128b 213e 81da f93d
00000170: 7a25 243e c0aa 3f3a 0df2 153e 275a 6e3e
00000180: 439e 54bd 0ae0 edbd e6bb 99be 0cd3 763e
00000190: 8c18 153e 464a 3e3e 3919 c3bd eed7 9ebb
000001a0: 51de 09bc 1b29 92be 8ad5 6a3e e143 903d
000001b0: e512 973e c00e 8d3e 3288 96be 6576 203e
000001c0: 1207 cabd 2928 dd3d 84a4 6fbd 60b8 2c3e
000001d0: 1fe5 30bd 9dd6 7e3d f20a 8dbd be22 ea3d
000001e0: 1baf d3bd 9a45 fdbb e5bd 2bbd d02d 973e
000001f0: adca 53bc 73dc 1cbd b9b0 0ebe 17a0 dfbd
00000200: aea6 c9bd 5886 73be 7171 2a3d 4094 eebb
00000210: bbcc 4abe 7c80 dcbd ea00 523e cdfa 913e
00000220: d2dd 5c3e 3bc7 80be 1d6c 913d bff9 513d
00000230: 3213 0cbc 083b 44bd 9941 a23d acf4 8d3e
00000240: e287 813e 7a61 8fbe 8770 b83c cf37 94be
00000250: d787 5f3b 954b c7bd da2c 87bd a5be ecbd
00000260: 949b 18bc 1053 8d3d 595f 983e 75b9 6dbe
00000270: 9cf4 68be dc4d 94be f2a5 7dbe 623e 9d3d
00000280: 15f4 8abc ddda 8f3e e250 d33d aa19 d0bd
00000290: e640 5b3e 070d 383c 8694 143e a54b 953e
000002a0: 124a 2d3e d616 96be 8503 383e 01f2 0bbe
000002b0: 0d90 883d a6eb 263e 9088 253e 570d 643c
000002c0: 5ccb 09be c8b9 70be 3fce 49be 9b38 38be
000002d0: 76d5 4cbe 8885 3e3e 5f99 3dbd 7754 4b3c
000002e0: 4aef e6bc 4ffb 42be 5016 e5bd 1bdd 36bc
000002f0: cade 733e 114d 57be d52e 243e 5b4e 27be
00000300: 3465 13bd 6b5b dd3d bfcf 2a3e fedd 87be
00000310: 8794 8abe 6c15 46bd 8f1b cc3d 40fd 81be
00000320: fcda 07be 8fb2 1d3d 06cc 03bd a707 99bd
00000330: 45c0 913e 1d26 49be 16cd 9abd e44c 25bd
00000340: 7cd2 823e b878 4dbe d387 eabd c544 38bd
00000350: f187 d9ba d998 2bbc 3d13 8b3e 8651 49be
00000360: 6181 493e 3400 29be d23b 93bd 25a6 e23d
00000370: 5b53 0dbe 51a4 02bd 9587 0d3e e620 89be
00000380: d3fb e8bd 4527 513e f4be 24bd f4ae a23d
00000390: 48fa 853e 7c61 663e 1e54 1abe e7df 833e
000003a0: 9d34 e53d 5f0b 12bd c7ad 983e 4a94 8b3e
000003b0: a33b 23be 893e 943d 27b9 123e caa0 903e
000003c0: 67b2 483e 552b 94be ed36 0c3e 0c65 e73d
000003d0: 3620 753e 6b16 313d a8c6 50bd 583d 633e
000003e0: f916 3f3e f3a3 99be a395 8cbd 7dcc 463e
000003f0: d50f 84be 0984 e03d 33bf c03d 5547 5ebd
-0.106906526 -0.19758658 0.2669415 0.051810652 -0.003891364 0.15882282 -0.22551084 -0.10234914
0.108805716 -0.18546362 0.17001994 0.06533422 -0.0753746 0.28377846 -0.20972393 -0.24577159
0.086039126 0.035429724 0.040789716 0.10033468 -0.20341584 -0.22675438 -0.03404833 -0.122498184
-0.13132879 0.13462912 -0.15954016 0.06262736 -0.085318506 -0.22678922 0.040738534 -0.1915667
-0.0551412 0.053517226 0.29689756 0.1366044 0.133214 -0.10001936 -0.020549593 -0.11720447
0.10122952 0.23282735 0.17799881 0.2124401 0.055906963 -0.16203874 -0.141307 0.037281252
0.2778916 -0.2588601 -0.27295187 0.27233258 -0.13663882 0.2986968 -0.08815437 0.22302826
0.28566685 -0.1523652 0.13891397 -0.22335511 0.23640992 0.18343249 -0.0814972 -0.14563133
0.01698779 -0.010560795 -0.20677248 -0.06410739 -0.22787027 0.032376908 0.09605952 -0.0054774904
-0.07062675 0.14231817 -0.2862887 0.20090526 0.24652545 -0.27236384 0.08756523 0.13928595
0.17252865 0.16269074 0.107572585 0.24491988 -0.28745213 -0.09122203 0.02068923 -0.19682463
-0.27913967 -0.018142745 0.15775707 0.121998794 0.16029921 0.00073115155 0.14643116 0.23276578
-0.051908743 -0.11614998 -0.30026168 0.24103945 0.14560145 0.1858302 -0.09526295 -0.004847518
-0.008414821 -0.28546986 0.22933021 0.07044197 0.29506603 0.27550316 -0.29400784 0.15670164
-0.0986463 0.107986756 -0.058506504 0.16867208 -0.043187257 0.06221639 -0.06886853 0.11432408
-0.10336133 -0.0077292444 -0.041929144 0.2952714 -0.01292674 -0.038296174 -0.13934602 -0.109192066
-0.09846245 -0.23781717 0.041612092 -0.0072808564 -0.19804661 -0.10766694 0.20508161 0.28511658
0.21568993 -0.25152 0.07100699 0.051263567 -0.008549498 -0.04790786 0.07922668 0.27725732
0.25298983 -0.28004056 0.022514595 -0.2894883 0.0034108066 -0.09731213 -0.06600352 -0.115598
-0.009314436 0.069006085 0.29760244 -0.23215277 -0.22749561 -0.28965652 -0.24770334 0.07677914
-0.01696209 0.28096667 0.103181615 -0.10161145 0.21411476 0.011233575 0.14509782 0.29159275
0.16922787 -0.29314297 0.17970093 -0.13666536 0.066681005 0.1630083 0.16165376 0.013919196
-0.13456482 -0.2350837 -0.19707583 -0.17990343 -0.20003304 0.18605626 -0.046288844 0.012410275
-0.028190274 -0.19041179 -0.111858964 -0.011161114 0.23815456 -0.21025492 0.1603349 -0.16338484
-0.035985187 0.10808452 0.16680811 -0.26536554 -0.27066442 -0.048360273 0.09966194 -0.25388527
-0.1326713 0.038500365 -0.032176994 -0.07472163 0.28467003 -0.19643445 -0.07558648 -0.04035653
0.25551212 -0.20065582 -0.11451688 -0.04498746 -0.00165963 -0.010473453 0.27163115 -0.19660005
0.1967826 -0.16503984 -0.07189144 0.11066846 -0.13801329 -0.031894986 0.13821252 -0.26782912
-0.11376157 0.20425136 -0.04022117 0.07943526 0.26167512 0.22498125 -0.1507115 0.2575676
0.11191676 -0.035655376 0.29820082 0.27261573 -0.15940718 0.0723849 0.14328443 0.28247672
0.19599305 -0.2893931 0.13692828 0.1129857 0.23938069 0.04323427 -0.050970703 0.2219137
0.18661107 -0.30007896 -0.068644784 0.19413944 -0.2579333 0.10962684 0.09411468 -0.054267246

lstm.bias_ih_l0 f4 [44]
00000000: 219a 4b3e 6ada 893e 7e93 943e 3e7a 833d
00000010: c1c7 0d3f 7f19 953e 8e86 1ebb 9f71 49bd
00000020: fc11 1abb 7226 0dbe ebd1 1ebe 5f57 933d
00000030: 1d2d c73c 6977 cdbc f711 de3b 6809 953e
00000040: 850b 70bd 0e52 253d bd70 4dbe db38 8ebe
00000050: 31a8 033e 6a90 0f3e 8a2f e93d cc90 553e
00000060: 2cc4 b23d 7c07 333e 99f3 3bbe 2d9c 2ebe
00000070: ca62 df3c 3001 2c3e 6d9f 1c3e ea36 143e
00000080: 90ab e33d 83a5 523d d316 303f f216 ee3c
00000090: 770c d03d 8b7a 293f a1fd c53e eab8 5b3e
000000a0: e6f0 ac3e 34db 823e 8cec d83d 1ba0 10bd
0.19883014 0.2692445 0.29018778 0.064198 0.55382925 0.29121014 -0.0024189088 -0.049180623
-0.0023509255 -0.13784197 -0.15509765 0.07194399 0.024313504 -0.025081353 0.006777044 0.2910874
-0.058604736 0.040361457 -0.20062537 -0.27777752 0.12857129 0.14019933 0.113860205 0.20856017
0.08728823 0.17483324 -0.18354644 -0.17051764 0.027268786 0.16797328 0.15295191 0.14474073
0.11116707 0.051427376 0.68784827 0.029063676 0.101586275 0.6620261 0.38670066 0.21457258
0.3377754 0.25557864 0.10591993 -0.03530894

lstm.bias_hh_l0 f4 [44]
00000000: 8c50 093e f9ec a03e e85b ae3d 67b5 cb3e
00000010: 46f3 0b3f 09b1 003f 9a03 a83d a603 853d
00000020: 3f53 04be b184 453d eb99 36be d694 24be
00000030: 2aeb 6bbe a7da 8bbe 743e 49be 3018 4e3d
00000040: 0c92 2dbe d5ac 8bbd 08c8 0e3e 5f5f 8fbd
00000050: 167e 25be 83c1 87be b8c3 91bb 5927 44bd
00000060: 3f9a d3bd 35c2 c2bd e569 3d3d 56cb 453d
00000070: a72c a13d 0173 bcbd a8a0 4ebd 6866 083e
00000080: d862 0dbe 5c86 313e 0086 283f 3f31 013f
00000090: f86e fa3e 693d 403e f9dd c73e 388e 373d
000000a0: 3335 573e fa9f 463e ac79 443b f5ea 853e
0.13409632 0.31430796 0.085136235 0.39786837 0.5466808 0.50270134 0.08203812 0.064948365
-0.12922381 0.048222248 -0.17832153 -0.16072401 -0.23038927 -0.27315256 -0.1965273 0.050316036
-0.16950244 -0.068200745 0.13943493 -0.070006125 -0.16161379 -0.26514825 -0.0044483803 -0.047889087
-0.103321545 -0.09509698 0.046243567 0.04828962 0.07869845 -0.09201623 -0.050446182 0.13320315
-0.13807237 0.1733641 0.6582947 0.5046577 0.48912787 0.18773426 0.3903654 0.044813365
0.21016388 0.19396964 0.0029979749 0.2615582

lstm.weight_ih_l1 f4 [44, 11]
00000000: 2e38 693e 3e34 a2bd 0bf2 d4bb 58d6 4c3d
00000010: e45d 513e 2e45 9c3e 43a4 803e f518 03be
00000020: 74ed f03e e0dd 6c3e ca95 cebd 5025 e43e
00000030: 993f fdbd 6a4e f8be 9f82 d63e af88 073f
00000040: 3d7f d93e 260a d63e 2f99 2d3e 8211 5c3e
00000050: 212d 5e3e 3434 02bf 763d afbc 6222 15bf
00000060: 4629 5abe 0d69 543e 4e18 d83e 33d6 b63e
00000070: b2a1 fe3e 95d7 463e a52b 863d 656e 683e
00000080: 5723 33be 1ab5 b53d b9fb 1a3e 9bfb c23d
00000090: ab85 bf3e 302a 603b 1257 823e 534a 073e
000000a0: abd7 b63d 7d18 363e e690 bfbd b2cc c2be
000000b0: bac5 81be e5ed 503d c846 6abd 1730 463e
000000c0: e717 9fbd 7eaa c83d b139 5ebe 2630 b3bd
000000d0: a101 033e 740a 153d 4fef 3dbe bd0c ee3e
000000e0: b50d 08bf 9f82 64be 10c9 333d 2be1 de3e
000000f0: 1ac8 c93e 8480 d23d 4c98 9f3e 1c94 433d
00000100: b113 df3d 6eb8 fcbe 4527 ed3e e0e6 a1be
00000110: 1342 e43c c219 943e 29ac 903c ef17 f93e
00000120: 0b36 e03d 11d2 8cbc a535 d43e 3767 bb3e
00000130: dedb debe d83f 00bd c7f1 40be 7bc5 81bd
00000140: 3a9c 723d 49ac 323e 84e7 ac3e b6d3 f3bc
00000150: 9665 303e e44b 4c3e 7732 f43e 0a3c 81be
00000160: 612e f73d bf33 c13e c38c 893d 244a e93d
00000170: 1be5 56be c227 87be bc27 e0bd 9790 8f3e
00000180: 047c c4bb cf40 cf3d d261 bdbe 1112 d13e
00000190: 5f8c d8be 5d32 abbe abed 513e adb4 183f
000001a0: f2af 8c3e b139 833e 6390 adbc 660b b63e
000001b0: a799 8b3e 41f6 debe d310 c43d b8ed 94be
000001c0: 112c 5dbd 390d 4ebc 4173 653d 766d 5d3e
000001d0: 36ef 883e f968 883e 8d78 843e 68a6 113d
000001e0: c179 b4be e6dc 1f3e 3128 96be 2221 08bd
000001f0: 1684 1b3d 86b0 893d d1b1 56be 1641 c73b
00000200: bd8a afbd 7409 cfbd 1755 0d3e c9db 0cbe
00000210: c863 80be 7e4b 31be 1c94 8b3d 13bb 093e
00000220: ddc5 4b3e 8681 8a3e 2cfe 82be 9740 1d3c
00000230: 5d0c 443e 56a7 f6bc 6e85 5b3e 9ec9 643e
00000240: 292b 42be e632 09be 2f8a 97be 08b6 7ebe
00000250: dc2b 73be a389 5fbe f2ed 753d d749 98be
00000260: 47a4 22be 336f 5a3e 870d 99be 5531 ab3d
00000270: 3ad6 663d 79ab 84be db60 713e a79b 6dbc
00000280: d3ca efbd 344b 953c c915 7c3e cf2a 853e
00000290: d190 893e 87d3 34bd 2713 08bd 3015 71be
000002a0: 2c97 f83c af5f b1bd 4efc 633e e66c 843e
000002b0: 0001 3fbd fd09 5bbe e4e7 053e 3c5f 08be
000002c0: e85c fa3d 5d7a 5a3e e3a9 363d da35 7f3d
000002d0: 2442 c73c d41f 513d 60bc 91be 030b 033e
000002e0: ceb1 643e 3864 46be 9903 d13d aabc 443e
000002f0: 3a5a 213e 2101 76bc dfeb e33d c6dd febd
00000300: cacf 883e 616d 24be bc13 913e 7139 ad3d
00000310: d0c8 d4bd 085d 17bb 54a1 053d b434 70be
00000320: a199 273d 97b2 853e f579 9f3d 8294 323d
00000330: 5583 11be 41dc f7bd 4490 45bc 1375 833e
00000340: 6ac5 2cbe cf5a 03bc 3ff2 193d e50e 0abd
00000350: 1e3a ef3d de68 47be 118d 163d 1e1d c93d
00000360: 29c2 2fbe b383 2a3e 191c 0b3e 7c01 8cbc
00000370: 5630 183e ba42 853e 2268 a23d c37b 353e
00000380: 1585 883e 1fa8 b9bd 3dc1 39bd e209 e93d
00000390: a780 903e 1eca 23be e014 07be 0c25 da3d
000003a0: 7ee2 88be 7184 57be 7efc 0cbd 2ba1 99be
000003b0: f825 383e 3d60 5f3e 383e 66be 7839 6b3d
000003c0: 7e2b 1dbe 2f58 95be 454f 97be a47c cc3e
000003d0: b029 d63d 39d4 e6be bcf6 13bf 9087 05bf
000003e0: cc08 0cbe dd91 edbe 5c34 52be b752 003d
000003f0: 20c1 16ba 96ad b13e 0857 16bf 3752 dcbe
0.22775337 -0.07920121 -0.0064985803 0.0500091 0.20445973 0.3052153 0.25125322 -0.12802489
0.47056162 0.23131514 -0.10087164 0.44559717 -0.12365646 -0.48497325 0.4189653 0.5294294
0.42479888 0.41804618 0.16952966 0.21491054 0.21696903 -0.50860906 -0.021391612 -0.5825559
-0.21304807 0.20743199 0.42206043 0.35710296 0.4973274 0.19418176 0.06551293 0.22698362
-0.1749395 0.08872433 0.15135087 0.09520646 0.37406668 0.0034204833 0.25457054 0.13211946
0.08927854 0.17782779 -0.09353809 -0.38046795 -0.25346166 0.051008124 -0.05719641 0.19354282
-0.07768231 0.09798144 -0.21701695 -0.08749418 0.1279359 0.036386922 -0.1854832 0.46494094
-0.53145915 -0.22315453 0.04389292 0.43531165 0.39410478 0.10278419 0.3117088 0.04774867
0.10892428 -0.4935946 0.46319023 -0.31621456 0.027863538 0.28925902 0.017660217 0.48651072
0.10947808 -0.017190011 0.41447178 0.36602184 -0.4352712 -0.031310886 -0.1884223 -0.063364945
0.05923102 0.17448534 0.33770382 -0.029764038 0.17226252 0.19950825 0.47694752 -0.2524112
0.12069393 0.37734792 0.06716301 0.11391094 -0.20985834 -0.2639752 -0.10945079 0.2804
-0.005996229 0.10119783 -0.36988693 0.40834096 -0.42294595 -0.33436862 0.2050082 0.5965069
0.27477986 0.25629953 -0.021187013 0.3555557 0.27265665 -0.43547252 0.095735215 -0.29087615
-0.053997103 -0.012576395 0.056018118 0.21623787 0.26745003 0.26642588 0.25873223 0.035559088
-0.3524914 0.1561161 -0.2932754 -0.033234723 0.037967764 0.06723122 -0.20966269 0.006080757
-0.08571384 -0.10109225 0.1380199 -0.13755716 -0.25076127 -0.17313954 0.06815359 0.1345027
0.19899698 0.27051944 -0.25584543 0.009597919 0.19145341 -0.030109089 0.21437618 0.22342536
-0.18961777 -0.13398322 -0.29597613 -0.24874127 -0.237472 -0.21829848 0.060041375 -0.29743835
-0.1588298 0.21331482 -0.29893133 0.08359019 0.056356646 -0.25912073 0.23572104 -0.014502442
-0.117086075 0.018224336 0.24617685 0.26009223 0.268683 -0.04414704 -0.03322139 -0.23543239
0.030345522 -0.08660828 0.22264215 0.25864333 -0.046631813 -0.21390529 0.1307674 -0.13317579
0.12224752 0.2133574 0.04459561 0.062307216 0.02432353 0.051055744 -0.2846403 0.1279717
0.22333452 -0.19374168 0.10205764 0.19212595 0.15757075 -0.015014918 0.11128973 -0.12444644
0.2672103 -0.1605735 0.2833537 0.08458222 -0.103898644 -0.0023096222 0.032624558 -0.23457605
0.040917996 0.26112816 0.07786933 0.04359866 -0.14210255 -0.12102557 -0.012058321 0.25675258
-0.16872182 -0.008017256 0.03758454 -0.03370561 0.11681007 -0.19473597 0.036755625 0.09820007
-0.1716391 0.16651802 0.13584937 -0.017090552 0.14862189 0.2602747 0.07930018 0.17722993
0.26664034 -0.0906527 -0.045350302 0.11378838 0.28223154 -0.1599507 -0.13191557 0.106515974
-0.267353 -0.21046616 -0.034420483 -0.30005774 0.17983234 0.21814056 -0.22484672 0.057427853
-0.15348622 -0.2916884 -0.29552665 0.39938843 0.1045717 -0.45083788 -0.5779836 -0.52159977
-0.1367523 -0.46400347 -0.20527786 0.031328883 -0.0005750824 0.34702748 -0.5872655 -0.43031475

lstm.weight_hh_l1 f4 [44, 11]
00000000: 1b93 ddbc 7414 fb3d d751 853e a45c 22be
00000010: 3292 573e e9fa bd3c b674 e83d 8d88 94be
00000020: bc10 b5bd e2fd 8c3e b0c8 d8bd 9cfb 6d3e
00000030: c467 fcbd 59b8 22be f33a 203e 9a59 d0bd
00000040: 5349 5cbe 83dc 31bd 8d0c 2bbe e689 ecbd
00000050: d289 a73d af0c 2dbe 241e 73be 4685 673e
00000060: aaa8 963e c410 16be 7696 423e a42b ed3d
00000070: 7797 843e 16b8 5ebe 6875 37bd 25be 1a3e
00000080: e296 243e 6ccf 0a3e 7e3f 5e3c 9c02 b9bc
00000090: 55d2 433c 06bf 0e3c 1161 643e 6d83 8e3e
000000a0: bd11 95be 5acc 3b3e a7c6 d83d 78df 273c
000000b0: 5606 a4bd c0c2 86be 0c67 4b3d 05d4 6a3e
000000c0: 17dd e7bd 7055 b4bd a3c7 8e3d ad8b 86be
000000d0: 0fb6 3abe 32cd 33be 7a62 4b3e 5870 0bbd
000000e0: 6569 47be 3153 3c3e f73e 893c 96f3 2cbe
000000f0: e8ba fbbd b1cc ef3d 1033 96bd 832e d33d
00000100: 2716 743e a852 08be 3663 79be 635b 263d
00000110: 0ef4 013e 50a4 2fbe 0895 01bd 6ed9 78bc
00000120: 5653 91be 302d 2abd 8447 27be 481a 7ebe
00000130: 6feb 64be cb90 4dbe 7f02 553e b348 00be
00000140: 415a 853e f637 c5bd 71ca 843d 0bf2 11bd
00000150: 638d 99be 528f 3a3d 4e65 92be d3cb 8b3e
00000160: 3948 483e ccf4 843e 1ccd 94be ca6c 193d
00000170: cf13 c13c ad91 42ba f9d3 8b3e 99f3 943e
00000180: c52f 78be e54a 33be f6c0 573e e31f 31be
00000190: ddd0 31be 4541 babd 822d 303e f301 e0bb
000001a0: 504b 8f3e 8612 65bd 90ef 313e 275e 5e3e
000001b0: 507a 4f3e 0761 1cbe c995 94bd b016 f83d
000001c0: 1739 6abe 821f 873e 3d03 64be 024d 733d
000001d0: 1a76 f0bd 922b acbd b532 393e f360 823d
000001e0: bab4 df3d 1811 533c c010 86be 166c d8bd
000001f0: d04e 8a3e 6e4b a03d f0f4 683e fd25 3dbe
00000200: 28b2 f8bd b236 6ebe 0c08 7cbe 60ed 52be
00000210: a5d3 f83d c694 3cbe be85 243d 9641 a53c
00000220: d70b 883d dfc3 2c3d 0fb0 5dbe e2e3 84bd
00000230: 3e0c 913e 0da5 5c3e 038d 30be 8ffc 08be
00000240: a13c 7abe fe73 9b3d 8ac0 4abe b590 933e
00000250: 7b84 2ebd 26e5 8fbd 4895 593d 33c3 223e
00000260: 128b 00be 3ff4 07bd 7f09 e43c 9822 323e
00000270: 6779 813e 3ffd 8bbe 4d2d e43d 2b94 073e
00000280: ae46 953e da53 87be 766e c5bd f7e8 003e
00000290: 281e f1bd c48f d2bd 1e17 763e a791 d33d
000002a0: 807f 63be ad8f 25bd 2546 713d 1084 db3d
000002b0: ced1 003e 5a22 203d 3272 c63d 49ee 0e3e
000002c0: c3d6 6a3e 71ed 2d3e 675a 1bbe 859d 733e
000002d0: 4bfc d3bd 4823 e73d 952e 853e 51ae 4b3c
000002e0: 8e8b 7d3d 28d2 973e 7efe 18be 2737 f43d
000002f0: 1932 d6bd 0695 78bd 5273 103e 12ed a53d
00000300: 1338 3fbe d153 5e3e 8e9f 7bbe 8623 07bd
00000310: b524 05be 6f73 653e 4b4c 813c 8541 bd3d
00000320: 3ac3 21be 0eda 2f3c ef0e 01be 3f2b 723e
00000330: 7c12 97be 8022 0cbd 9bbd 743e dc9d bf3d
00000340: 9f54 4c3e 9832 a93d 4ba7 8dbe 1c41 923e
00000350: 0fd4 103d 7b45 84be f550 84be 5b02 5c3d
00000360: b5a1 fa3d 7a01 843e fa45 813e ebd8 acbd
00000370: 4e20 593e bc8d 12be 5579 6abc 43d0 4dbe
00000380: 9ee5 1b3e e85f 86be 920a 513e 60db 263d
00000390: 916f b0bd 0ebe e93d a7c4 10be 3713 b23d
000003a0: d9c8 0cbe 1edc 3dbe 429e c93d 3fbb 56be
000003b0: 567d 96be 5166 f4bd e041 1bbe 231d 863d
000003c0: 1fce a33d 9e82 413c d616 163e c819 7dbe
000003d0: 4124 e43c d788 ba3d c7c8 9dbd 955e 60be
000003e0: d7b9 3dbe 9a90 55bc 3cd3 de3c ca9a 273e
000003f0: 9745 da3d 4ad1 adbd 620c 53bd 15a2 6ebe
-0.027047684 0.122597605 0.26039 -0.15855652 0.21051863 0.023190932 0.11350386 -0.2901043
-0.088410825 0.27537447 -0.10585153 0.23240513 -0.12324479 -0.15890636 0.15647487 -0.1017334
-0.21512346 -0.043423187 -0.16704006 -0.115497395 0.08180584 -0.1689937 -0.23741966 0.22609434
0.29425555 -0.14654833 0.19002709 0.115805894 0.25896809 -0.2174991 -0.0447897 0.15111597
0.16073182 0.13555688 0.013564942 -0.022584252 0.0119520025 0.008712536 0.22302653 0.27834645
-0.29115096 0.18339673 0.10584765 0.01024615 -0.08009021 -0.26320457 0.04965882 0.22932442
-0.113214664 -0.088053584 0.069716714 -0.2627844 -0.18233512 -0.17558745 0.19861785 -0.034042686
-0.19473799 0.1839111 0.016753657 -0.16889796 -0.12291509 0.11708964 -0.07333958 0.10311606
0.23836575 -0.13312781 -0.24354252 0.040614497 0.12690756 -0.17152524 -0.031636268 -0.015188558
-0.28383893 -0.041547 -0.16335875 -0.24814713 -0.22355436 -0.20074765 0.20801733 -0.12527733
0.2604542 -0.09629814 0.06483925 -0.03563122 -0.29990682 0.045546837 -0.28592914 0.27303943
0.19558801 0.25968015 -0.29062736 0.037457265 0.023569016 -0.000742222 0.2731016 0.290921
-0.24236973 -0.17509039 0.21069703 -0.1729732 -0.17364831 -0.090944804 0.1720486 -0.00683617
0.27987146 -0.05592587 0.17376542 0.21715604 0.20261502 -0.15271388 -0.07255132 0.12113702
-0.2287334 0.26391226 -0.2226686 0.059399612 -0.11741276 -0.08406748 0.1808575 0.06366148
0.10923143 0.012882493 -0.26184654 -0.10567491 0.27013254 0.07826887 0.22749686 -0.18471523
-0.121433556 -0.23263052 -0.24612445 -0.20598364 0.12149743 -0.18416128 0.04016661 0.020172875
0.06642883 0.042178985 -0.21649192 -0.06488778 0.28329653 0.21547337 -0.17241292 -0.13377593
-0.2443719 0.07590483 -0.1980001 0.2882134 -0.042606812 -0.070261285 0.05312088 0.15894775
-0.12553051 -0.033191916 0.02783656 0.17396009 0.25287935 -0.2734165 0.11141453 0.13240115
0.29155487 -0.2643116 -0.096402094 0.12588869 -0.1177333 -0.10281327 0.24032256 0.10330515
-0.22216606 -0.040420223 0.058904786 0.10718548 0.12580034 0.03909526 0.0968975 0.13958086
0.22933488 0.16985108 -0.15171205 0.23790558 -0.103508554 0.11286026 0.26012102 0.012431697
0.061900668 0.29652524 -0.14940831 0.11924582 -0.10458774 -0.060688995 0.14106491 0.08101858
-0.18673734 0.21711661 -0.24572584 -0.032992862 -0.13002284 0.22407316 0.01578345 0.092410125
-0.1579713 0.010733141 -0.12603353 0.2364931 -0.2950629 -0.03421259 0.23900454 0.09356281
0.19954155 0.08261603 -0.27666697 0.285653 0.035358485 -0.2583426 -0.25843015 0.053713184
0.122378744 0.25782377 0.252487 -0.08439811 0.2120373 -0.1431188 -0.014311154 -0.20098977
0.15224311 -0.26245046 0.20414189 0.040736556 -0.086150296 0.11413203 -0.14137517 0.08695071
-0.13748492 -0.18541 0.098446384 -0.20969866 -0.293925 -0.11933578 -0.15161848 0.06548526
0.07998299 0.011810927 0.14657149 -0.24716866 0.027849318 0.091081314 -0.07704311 -0.2191108
-0.18527924 -0.013034964 0.027200334 0.16367641 0.106578045 -0.08487184 -0.05152548 -0.23304017

lstm.bias_ih_l1 f4 [44]
00000000: 2f4a e13e 94f1 89bd 7d00 dd3b 55c6 ad3e
00000010: 2a4e d53e 7cbc 19be 3422 e03e 466c 823e
00000020: 69bd d13d 1bd7 b0bd 3070 c23e 0d50 0fbe
00000030: 3984 443d b81f 5cbc 4994 853c c0cb 7e3e
00000040: cef3 0dbc 5e7f b3bd 9bb1 84bd 609a 313e
00000050: f739 723e e4f5 393e 5dfd 1c3e c602 31be
00000060: 49a1 1cbc a541 f33d c9a4 f43d e99a fabc
00000070: f8f5 87bd 5d53 cb3d a5e3 1a3e a36b 9a3e
00000080: 6ca1 41bd 951f 823e d7ff e63e 98ce 30bd
00000090: d213 9a3e 6823 89bd 2c9c c33e a4f9 613e
000000a0: 9618 393e 99af f63e 9080 30be db3e c03e
0.4400191 -0.067355305 0.006744443 0.33940378 0.41661197 -0.15013307 0.43776095 0.2547323
0.10241205 -0.08634778 0.37976217 -0.1399538 0.04797766 -0.013435297 0.01630606 0.24882412
-0.008664085 -0.08764528 -0.06479188 0.17344046 0.23654924 0.18160206 0.15331025 -0.17286214
-0.009559938 0.11877755 0.11945493 -0.030591445 -0.06638712 0.0992801 0.15125902 0.30160245
-0.047273085 0.2541472 0.45117065 -0.043165773 0.30093247 -0.06696206 0.38205087 0.22067887
0.18075785 0.48180845 -0.17236543 0.37547955

lstm.bias_hh_l1 f4 [44]
00000000: 69e2 9b3d 702a 24be 4085 b4bd 47ba e63e
00000010: 99fd bc3d 551a 4ebd 3554 79bd c274 073b
00000020: 3399 aa3d b42b aa3e 4c56 db3e 3fbc 5f3e
00000030: df9b 17be 2e0e 8a3c 62be c6bd a6b5 4c3e
00000040: 773a ba3d 73e4 85bd da7e 26bb 152e 63be
00000050: 586f 8bbe 03d3 48be 06ac 84be 5177 883e
00000060: c2e4 82be c036 213e 2cae e5bd 96e4 863e
00000070: 6e32 d43d 4753 8fbe 639c 6e3d 703f 14bd
00000080: fd45 493d 0a3e f33e 76a2 c23e f19d b53e
00000090: 4fff c03e dc2e 933e d39e 8d3e 3ebd b03e
000000a0: d7d7 fc3e 2b8e 103f 9df1 3abe 5c89 873e
0.07611544 -0.16031814 -0.08814478 0.45063993 0.092280574 -0.05031808 -0.06087132 0.0020668958
0.08330002 0.33236468 0.42839277 0.21849154 -0.14805554 0.016852465 -0.097042814 0.19991168
0.090931825 -0.06537714 -0.00254052 -0.22185548 -0.27233386 -0.19611745 -0.25912493 0.2665353
-0.25565153 0.15743542 -0.11214861 0.26346272 0.10361181 -0.27993223 0.05825461 -0.03619331
0.04913901 0.4750827 0.38014573 0.35472062 0.37694785 0.28746688 0.27660236 0.3451938
0.49383423 0.5646693 -0.1825623 0.26471984

lstm.weight_ih_l2 f4 [44, 11]
00000000: a2f8 dd3d 288e 193e 0106 e83d 69ea 363e
00000010: 8a83 d2bd c4df 873d 0da2 d93e d8c9 dcbe
00000020: 5b98 29be 8663 793c ed71 b6be 0101 df3d
00000030: 0ea6 2b3e 76d4 523d 8dce 613e 3b5e c03e
00000040: 4972 353e 9a22 c53d 1ac0 21bd 06b0 87be
00000050: 4f25 b03e fd86 c83d 4ddb 04be 2330 40bc
00000060: 834d 0f3d 4d6b 763e 3f17 943e 1f64 66be
00000070: 84c9 d33d 189d 733e 8217 bf3b fc13 ab3c
00000080: 84f2 5bbe 5f8e b6bd 65df 2abd f881 5b3e
00000090: 4966 ccbe 93cb b43d f996 843d a7b9 55be
000000a0: 3751 8a3c 3661 48bd 46d9 443e 5bc0 303d
000000b0: 1688 9bbe ca1f d23e 995b e0be 440c 313e
000000c0: 46c2 d8bd 660e f13d dfcf 063e c18b e4be
000000d0: 8c45 0c3e dddc f23e 2944 e4be 32af 2abb
000000e0: 2633 e0bd ca97 0bbd 2b6e 78bd caba 83be
000000f0: 0867 483d 1cdd 333e 18f2 443e b459 78be
00000100: 2f3e 933e 683a 903e c5cb 7dbe d799 243d
00000110: 020a 9ebe 660a 47be 0d24 0abe 2630 c6bd
00000120: 867c 5f3e 3694 a9be 7d09 63be 3852 b73e
00000130: 0f40 393e 091b c83d b08b 85bd 0b3e 9dbb
00000140: 8ae7 043d 7e34 c13d 9536 973e 0df4 643d
00000150: 861c df3d 0a13 0bbe b159 dabd 69a0 21be
00000160: a83c 143f f94a ecbe 426b 2c3f 2c98 31bf
00000170: 6bd8 84be b733 07bf 1c1b 2dbf 2814 0d3f
00000180: 7adb 7a3e b8aa d5be 136a 683e 0597 71bd
00000190: b146 8d3e a788 c3be 76a6 d93d 8412 c83e
000001a0: 500e bb3e 5bcf a63e a45f d9be 710a a43d
000001b0: 19e5 f43d 851c 50bc e8a7 d1be e179 7c3e
000001c0: 60ed f2be e905 023e 9474 b83c dd1a f13e
000001d0: 29e4 7a3d feae 063c 8012 7fbe c16d e23b
000001e0: d3de 0fbd d71a 7a3d c4d4 793e b246 e9bc
000001f0: 05c2 04bd 7334 873c 2002 1b3e a231 1bbe
00000200: 82c0 4e3d eaa2 28be fea2 893d cdc0 19be
00000210: 6adb 6d3e 87bc 8c3e ec97 213e c710 4a3e
00000220: 5149 1e3c a6ec 69be 2057 093e 8177 2c3e
00000230: 28b1 34bd c81c 1bbe ba48 f2bc 1ce5 ab3d
00000240: 9be8 8a3d 5cfb ea3d 9a25 72be fec5 8a3e
00000250: 74db a6bd a8be 7bbd 0c86 263d 8070 8abe
00000260: c914 22ba 2d09 55be 6ccf 85be 8f06 acbd
00000270: 00cd 10be 1fa5 1c3d d446 6a3d 4c4a 153e
00000280: 6b51 5b3e 546c 443d 4cd7 94be 7241 173e
00000290: c065 94be 10aa eabd 5aa4 f3bd 9ff8 963e
000002a0: 6782 2a3c db56 903e c35d 6a3e 73c9 013e
000002b0: 4f42 7ebe cd4d 4dbc ed7b 91bd 6240 f4bd
000002c0: 10eb d93d c36d 82bd 1cb6 59be 60e8 0d3e
000002d0: f023 d33d 2c18 febd 91b2 76bd 5973 bebd
000002e0: d253 6a3e 21b8 2cbe 805a 0ebe ec84 c43d
000002f0: e1c0 85be 93b6 443e b109 8fbe b410 92bd
00000300: fbdb 26be b72a 82be 62e2 2e3e beb0 48bd
00000310: e038 ef3d 6a5d 90be 8af3 a83d bb11 43be
00000320: edae 743e bce1 5abd 5dc7 183e aebf cf3d
00000330: 163d ebbd 4102 8fbe 9095 153d d9d3 223e
00000340: a3ab 143e 009f f3bd 7111 9d3d 5f78 8bbe
00000350: b078 cb3d 496e 5fbe dd82 05be b1e6 463e
00000360: d112 36be 50e5 20bd e9d4 81be 2c50 debd
00000370: f5be 88bd 88b6 90be b0ed 82be 796b d33c
00000380: e624 443e 0093 f53d d094 973d d8d2 1ebe
00000390: 84b8 49be 5f36 46be b3e3 99bc 1083 6ebd
000003a0: 46a5 4cbe 848c 233e 044f abbd 927c 893e
000003b0: 8b0e 2ebe 19ed 873e c6fe 173e 3d82 883e
000003c0: a69f f63c ad7b 31be c84d 833e 4322 97be
000003d0: ba04 233e fbac 40be d622 b4be 4039 b1be
000003e0: f9fa c8be 0b5b 8f3b 7997 e43e 57e0 d9bb
000003f0: 5028 763d 42ca fdbe d910 ac3e ff57 2dbe
0.108384386 0.14995635 0.1132927 0.17862858 -0.10278995 0.06634477 0.42506447 -0.43122745
-0.16562025 0.015221482 -0.35633793 0.10888863 0.16762564 0.05147215 0.22051449 0.37571892
0.17719378 0.0962574 -0.039489843 -0.26501483 0.34403464 0.09791372 -0.12974282 -0.011730227
0.03498603 0.2406437 0.28923985 -0.2249913 0.103411704 0.23790395 0.00583166 0.020883553
-0.21479231 -0.08913874 -0.041716952 0.21436298 -0.39921787 0.08827891 0.06474108 -0.20871602
0.01688443 -0.048920833 0.19223508 0.043152194 -0.30377263 0.41039878 -0.43819883 0.17289835
-0.1058393 0.117703244 0.13165234 -0.44637874 0.13698405 0.4743413 -0.44583252 -0.0026044366
-0.10947256 -0.034080304 -0.06065194 -0.25728446 0.048926383 0.17564815 0.19232976 -0.24252969
0.2875838 0.2816956 -0.24784763 0.040185776 -0.3086701 -0.1943756 -0.13490315 -0.09677152
0.21824846 -0.33120888 -0.22171588 0.35804915 0.18090843 0.097707815 -0.06520784 -0.004798656
0.032447375 0.0943384 0.2953383 0.055896807 0.10894112 -0.13581482 -0.106616385 -0.15783848
0.57905054 -0.4615095 0.6735116 -0.6937282 -0.25946364 -0.52813286 -0.6761949 0.5510888
0.24497786 -0.4173181 0.22696714 -0.058981914 0.27592996 -0.38190195 0.10627453 0.39076626
0.36534357 0.32580075 -0.4245578 0.08009804 0.119577594 -0.012702112 -0.40948415 0.24655868
-0.47446728 0.12697567 0.022516526 0.47090808 0.061252747 0.008220432 -0.24909401 0.0069100563
-0.03512461 0.061060753 0.2439757 -0.028476093 -0.032411594 0.016504502 0.1513753 -0.15155652
0.05047656 -0.16468397 0.067205414 -0.15014954 0.23228231 0.27487585 0.1578061 0.19732963
0.009661035 -0.2284418 0.13412142 0.16842462 -0.044114262 -0.15147698 -0.029575694 0.083933085
0.06782647 0.11473724 -0.23647156 0.2710418 -0.08147326 -0.06146112 0.04065518 -0.27038956
-0.0006182907 -0.20804282 -0.26134813 -0.083996885 -0.14140701 0.03824341 0.057196453 0.14579123
0.21417777 0.047954872 -0.29070508 0.14771059 -0.2898388 -0.11458218 -0.11896582 0.29486558
0.010407067 0.28191265 0.2288733 0.12674503 -0.24829982 -0.012530756 -0.07103715 -0.119263425
0.10640538 -0.06368592 -0.21260875 0.13858175 0.10309589 -0.12406954 -0.060228888 -0.092993446
0.22883537 -0.16867115 -0.1390171 0.09595665 -0.26123717 0.19210272 -0.2793708 -0.07132092
-0.16294853 -0.25423214 0.17078546 -0.04899668 0.1168077 -0.2819627 0.082495764 -0.19049732
0.23894854 -0.053437933 0.14919801 0.10143982 -0.114862606 -0.27931407 0.036519587 0.15901126
0.14518599 -0.11895561 0.07669342 -0.27240273 0.09935129 -0.21819414 -0.13038202 0.1942394
-0.17780615 -0.03928119 -0.2535775 -0.10855135 -0.06677047 -0.2826426 -0.25571966 0.025808083
0.191547 0.11990929 0.074014306 -0.15510118 -0.19699293 -0.19356678 -0.018785333 -0.05823046
-0.19984922 0.15971571 -0.083646804 0.26852852 -0.16997735 0.2654808 0.14843282 0.26661864
0.030105423 -0.17332335 0.2564528 -0.29518327 0.15919772 -0.18815987 -0.35182828 -0.3461399
-0.39253977 0.004374867 0.44646814 -0.006649058 0.06009704 -0.49568373 0.33606604 -0.16928099

lstm.weight_hh_l2 f4 [44, 11]
00000000: 324c 473e 9923 13be a180 f53d d6da 6cbc
00000010: f75c 1bbb 9a1a 3cbd 6d2d 943d dbd3 b9bc
00000020: 0514 f13d 043a 673e 5894 d23c 2572 70ba
00000030: 5337 90be d0ff b43c 7f39 923e 3844 403d
00000040: 79f9 943e beff 2ebe 373f 6a3d 0b41 ce3c
00000050: d414 843e ad41 313e 393c 2ebe e820 79be
00000060: 0d38 8a3d 18b0 603e 63f4 103e 8554 573e
00000070: 3d24 3f3e 2c98 313e 878d 88bb 9cff f0bd
00000080: 86bc 88be 042d 1bbe 883c 62be 6ed9 b6bd
00000090: 9f56 4fbe 6f09 90be a7d3 6a3e fac7 34be
000000a0: ea38 49bd 0fc9 71be 2bfe 823e c65b 223e
000000b0: e4cc 8fbe 6fa3 8dbe 0f2c 88be 2d73 a13b
000000c0: b15f 35bd dae3 ae3d 013e 92bd 9beb c5bd
000000d0: 20b9 96bd d8a3 89be bfbc 5b3d d95a e3bc
000000e0: c054 413d 2861 8bbe d6be 3dbe 1315 093e
000000f0: 6eae 333e 7d86 413e ada4 1abe 8551 903e
00000100: 2466 49bd 07b6 14bc f75d c23c 873a 593e
00000110: af38 0fbd d73e 1e3e ff1e a0bc c17c 873e
00000120: 81c9 be3d 065e ba3d 55cc 273e 9973 cbbd
00000130: 8eaf 273e 4d47 cebb f1e4 30be 82b6 d13b
00000140: 59fb 86bd 13a2 7e3e ecc1 0cbc f75d 2abe
00000150: 9dec 373b 1028 1d3e 68d0 17be ab3b 2a3e
00000160: 04c1 603e b6fb a5bd be31 c53b c412 6d3d
00000170: c92b 693e 79b0 61be 7ac3 3c3e 09d0 80be
00000180: 72a0 6bbe 32e0 66be 28d3 61be df4d 953e
00000190: 46b1 903e 7f6c 3a3d e811 e7bd c962 6fbb
000001a0: 1afe 66be c801 f3bc a1bc 99be 95fc 0bbc
000001b0: 79d8 df3d 7ea8 4abe b0ee ef3a 3b49 063e
000001c0: 1fc8 8bbc ac0a cbbd 867f 1f3e a179 68bd
000001d0: 29a0 923e ed2b 0abe 4a7f 4b3e 040a 143c
000001e0: b13c b1bd c74c 7a3e cac2 293e 91a3 b43d
000001f0: 3ac2 923e a775 72bd c389 963e d762 31be
00000200: 241c 243e 256f 65be 78de 31bd 9f31 9a3d
00000210: 6b09 8dbe 0ced 58be e149 803d b741 cbbd
00000220: b629 093e 3859 babd faa4 1ebb 19ff d13d
00000230: c766 f7bd 7662 17bd 285c ccbd 2862 5d3e
00000240: 4dea 21be 86e0 8e3e f789 e73c e3e5 b63d
00000250: ca99 2c3e 7285 93bd 6540 40be d2fa 60be
00000260: 5208 18be ebf8 2cbe bbbc 75be 7ed4 d2bc
00000270: e1d4 663e bb53 8d3e 2d6a 68bd 1686 1d3e
00000280: 3894 473e 45c6 f1bd 011e 6bbe 19af 813e
00000290: e880 003e ea07 30be d4c3 213c dc46 79be
000002a0: f2c3 a33d 6de3 01bc 94eb 10be 28be c73d
000002b0: 0da5 23be 1559 33be bc11 7e3e 03b7 16be
000002c0: 2d04 823d ea87 e0bd aecf 7e3c 2319 f73d
000002d0: d6b5 373e a446 01bd c1b0 233e ac55 e7bd
000002e0: 7b59 5f3e 93b5 763e 2194 15bd e39a 9abd
000002f0: 4b2e fe3c 4047 5abd 7703 2bbe 7c75 0fbe
00000300: a8f8 79bd 3fec 903e 8b0d 10be 3547 8cbc
00000310: 9489 6c3e 2bdb b83d dad4 f93d 3e16 0dbe
00000320: 4046 983d 0045 8fbe 1fc0 53bd 6e1d 0cbe
00000330: 841a dc3c 1d24 173e 5b57 8ebe 7bd6 0cbe
00000340: 7ce0 df3a 51c5 a0bd 5111 3dbc e5bd b4bd
00000350: 26ac 883d 64cf 5a3e edaa c23c 7e72 c43d
00000360: 2915 34bd 3352 783d 755d 1dbe 9fd8 a4bd
00000370: b488 843e 4148 4e3e c121 dc3d c690 6f3e
00000380: a104 87be 0fc1 47be 6e3b 87be df21 093c
00000390: 06c1 3abe bfd5 c43d c9a3 4dbe 632d 18be
000003a0: 9886 923d f5cf c3bd 57a4 8ebe 6a69 003e
000003b0: 0eb6 4c3e ab7a 86be 8bca 8d3e 66e2 3fbe
000003c0: df74 473d f6a9 573e 9424 7dbe 9d53 27be
000003d0: c9f1 7d3e 10b6 16be 640e 95be 9d6a ea3d
000003e0: 2bfe 583e ca6a 8dbd d75d 82be 5be7 31be
000003f0: 6c47 99be be05 8dbd d28e 38be 5fd7 7c3e
0.1946266 -0.14369048 0.11987425 -0.014456471 -0.0023706534 -0.045923807 0.07235227 -0.022684028
0.117713965 0.22580725 0.025705501 -0.00091722823 -0.2816721 0.022094637 0.2855949 0.04694006
0.29096583 -0.17089745 0.057189193 0.0251775 0.2579714 0.1731021 -0.1701516 -0.24328959
0.06748972 0.21942174 0.14155726 0.21028335 0.18666168 0.17343205 -0.004167262 -0.117675036
-0.26706332 -0.15153891 -0.22093403 -0.0892819 -0.20247887 -0.28132197 0.22932301 -0.1765441
-0.049126543 -0.23611854 0.2558454 0.15855321 -0.28086007 -0.27663752 -0.26596114 0.00492706
-0.04428071 0.08539553 -0.071407326 -0.09664079 -0.073595285 -0.26882815 0.0536468 -0.02775328
0.047199965 -0.27222562 -0.1852983 0.13386945 0.17547008 0.1889896 -0.15101881 0.28187194
-0.049169675 -0.009076602 0.023726447 0.21213733 -0.034966167 0.15453659 -0.01954603 0.26462367
0.093157776 0.09099965 0.1638654 -0.09934158 0.16375563 -0.006295121 -0.17274834 0.0063999305
-0.065909095 0.24866514 -0.008591156 -0.16637407 0.0028064616 0.15347314 -0.14825594 0.16624324
0.2194863 -0.08104651 0.0060178926 0.057879224 0.22770609 -0.22039975 0.18433943 -0.25158718
-0.23010424 -0.22546461 -0.22053206 0.29160973 0.2826025 0.045513626 -0.11282712 -0.0036527386
-0.2255787 -0.029663935 -0.30026725 -0.008544107 0.10929961 -0.19790837 0.0018305387 0.13113873
-0.017063199 -0.09914145 0.1557599 -0.05675662 0.28637818 -0.13493319 0.19872776 0.009035591
-0.08654154 0.2444335 0.16578212 0.0882026 0.28663808 -0.059194233 0.2940198 -0.1732286
0.1602636 -0.2240568 -0.043425053 0.07528996 -0.27546248 -0.21184176 0.06264091 -0.099246435
0.13394818 -0.090990484 -0.002420722 0.10253734 -0.1208015 -0.036959134 -0.09978515 0.21619475
-0.15812035 0.27905673 0.028264029 0.08930566 0.16855541 -0.07203187 -0.18774565 -0.2197068
-0.14846924 -0.1689183 -0.23997776 -0.02573609 0.22542144 0.27602944 -0.056741882 0.15383181
0.19490135 -0.11805395 -0.22960664 0.253289 0.12549174 -0.17190519 0.009873349 -0.24343437
0.07996358 -0.007927758 -0.14152366 0.09753066 -0.1598093 -0.17514451 0.24811453 -0.14718251
0.06348453 -0.109634236 0.015552444 0.12065341 0.17940459 -0.03156151 0.15985395 -0.112956375
0.21811478 0.24092703 -0.03651822 -0.075490735 0.031027934 -0.053290606 -0.1670054 -0.1400966
-0.061028153 0.2830524 -0.14067666 -0.017123798 0.23099357 0.09026178 0.12198801 -0.13778016
0.07435274 -0.2798233 -0.051696893 -0.13683102 0.026868112 0.1475987 -0.27801022 -0.13753693
0.0017080451 -0.07850135 -0.011539773 -0.08825282 0.0667346 0.21368176 0.023763144 0.0959215
-0.043965492 0.060625266 -0.15367682 -0.0804913 0.25885546 0.2014475 0.107486255 0.2339507
-0.2637072 -0.1950724 -0.2641253 0.008369892 -0.18237695 0.09611081 -0.2008201 -0.14861064
0.07154578 -0.09561149 -0.27859756 0.12540212 0.19991323 -0.26265463 0.2769359 -0.18738708
0.04869544 0.21060929 -0.24720985 -0.1634049 0.24799265 -0.14717889 -0.29112542 0.11446116
0.21190707 -0.06905134 -0.2546222 -0.17373411 -0.29937303 -0.06885861 -0.18023232 0.24691533

lstm.bias_ih_l2 f4 [44]
00000000: 8321 21be 8e10 a43e ced9 dabd b007 9dbe
00000010: 80a8 c43d 6765 06bd ec19 f73e 7dd1 53be
00000020: b1ad e5be b39a 233f 2cf8 233e 52ef a93d
00000030: 604b 97bd bf64 453e 96a1 a0bd 6fa5 1d3e
00000040: 5a4c 753e ffc0 8abe c3ba f5bd 2255 9a3e
00000050: 21d4 2abe abc5 43be 4989 a9bd 9bf3 1e3e
00000060: 026b 12be 32ae d63d 5ddd e23d 340d 92bd
00000070: 1a70 803e 7ecc 1a3e bfec 8f3c 6cf8 9f3e
00000080: cffd b1be 5d69 d63d bd5f 883d f82c db3d
00000090: 700a b3be e89c 1dbd b176 343e efdc 1fbd
000000a0: c965 a73d c109 b5bd 32e9 0c3f ffb6 993d
-0.1573544 0.3204388 -0.10686074 -0.30669928 0.09602451 -0.03281155 0.48261964 -0.20685382
-0.4485908 0.6390793 0.16012639 0.082976 -0.073874235 0.19276713 -0.0784332 0.15395139
0.23954907 -0.2710037 -0.119985126 0.30143076 -0.16682483 -0.19118373 -0.08278138 0.15522616
-0.14298633 0.10482444 0.11077378 -0.071314245 0.25085527 0.1511707 0.017568944 0.31244218
-0.34763953 0.10469315 0.06658886 0.107019365 -0.349689 -0.038479716 0.17623402 -0.039029058
0.08173711 -0.08839751 0.5504333 0.07505607

lstm.bias_hh_l2 f4 [44]
00000000: 4ae3 7d3e 52e4 01be 6175 663e 3c87 463e
00000010: 313e 633e 1846 04be f5b7 28bb 65ac 1cbe
00000020: de4a aebe 4da9 ab3e 3ab8 293e 3635 533e
00000030: d86c e43c 9f04 1b3d 0498 84bd 2f59 ce3d
00000040: 4ba0 2d3e b84a 6ebd 4b15 433e 3892 4fbe
00000050: 4a9e 1fbe 5cd0 203b bd1b 25be c9ab 903e
00000060: c836 6a3e 1082 4fbe b9ba 673e 3d90 603d
00000070: 8a40 ebbc 9f25 dcbd 8890 ba3d fae9 903d
00000080: e8a9 98be 57af 43bd 831d 993e bb2c 49be
00000090: e69c 97be 9702 e93e e1b5 24bd 9bd6 cf3e
000000a0: 417f 04be b4ca 15be ecc6 ef3d 8c40 97bd
0.24793735 -0.12684754 0.22505714 0.19387525 0.22191693 -0.12917364 -0.0025744413 -0.15300138
-0.34041494 0.33527604 0.16574183 0.20625767 0.027883932 0.037846204 -0.06474307 0.10075604
0.16955678 -0.058176726 0.19051091 -0.20270622 -0.15587726 0.0024538254 -0.16123863 0.28256062
0.2287246 -0.20264459 0.22629823 0.054825056 -0.028717298 -0.10749363 0.091095984 0.070758775
-0.29817128 -0.04777464 0.29905328 -0.1964597 -0.29611892 0.45509788 -0.040212516 0.40593418
-0.12939169 -0.14628106 0.11707863 -0.07385358

out_layer.weight f4 [1, 11]
00000000: 2cfe 933e 732f 11be 2441 3ebe d285 ecbd
00000010: e923 ccbe f28c 68be 1597 b3be af26 fe3d
00000020: 8477 0e3e 12e4 b1be 70c7 343e
0.28904855 -0.14178257 -0.18579537 -0.11548962 -0.39871147 -0.22710016 -0.35076204 0.12409722
0.13912779 -0.34744316 0.17654204
