models/lstm-tune-cat-6-multi-output/LSTM_11573.pt (torch, 223243 bytes, 94 tensors)

lstm.weight_ih_l0 f4 [64, 1]
000000 10 02 55 3d d8 88 95 3d 94 6c 2d 3e 50 f6 63 bd
       0.05200392 0.073014915 0.1693595 -0.055654824
000010 c0 06 3e 3d 40 29 58 be c0 8c de bc 72 2e 35 3e
       0.046393156 -0.21109486 -0.027166724 0.17693499
000020 c0 c2 16 bc 90 4a e6 3d 1c ca 79 be 80 e7 af 3c
       -0.009201705 0.112446904 -0.24393505 0.021472692
000030 e4 ef d9 3d dc 13 85 3d 74 19 82 3d a8 b0 39 3e
       0.10641459 0.064979285 0.06352511 0.18133795
000040 9c 65 3d 3e a0 f4 27 be 80 45 2a 3c 14 41 dd 3d
       0.18495792 -0.16401911 0.010392547 0.10803428
000050 c8 c4 42 be 06 76 53 be 40 06 93 bd c8 e4 57 be
       -0.19020379 -0.20650491 -0.071789265 -0.21083367
000060 e0 36 9a bd 9a 8a 49 be 5c 15 7f be 40 d5 1b be
       -0.07529998 -0.19681779 -0.24910492 -0.15218067
000070 80 05 71 3e 68 f2 f9 bd 86 65 72 be d0 a7 db bc
       0.23537254 -0.122044384 -0.2367154 -0.026813418
000080 41 a3 2f bd 80 11 54 be 6c fe b1 bd a2 ae a7 3c
       -0.0428803 -0.207098 -0.08691105 0.020469014
000090 fc b9 07 be 08 b6 8a 3d 88 e5 75 3d 82 70 5c be
       -0.13254541 0.06773001 0.06003335 -0.21527293
0000a0 f4 93 90 3d 52 0c 27 3e ec 54 5f 3d e4 b4 f9 3d
       0.0705947 0.16313294 0.054524347 0.12192705
0000b0 40 01 33 bd d6 0a 0e 3e 2c c7 50 be a4 0f 86 bd
       -0.043702364 0.13871321 -0.20388478 -0.06545952
0000c0 d8 fc 5c be f0 45 d6 bc 40 bd 74 3e 90 2d 8d bd
       -0.21580827 -0.026156396 0.23900318 -0.06893456
0000d0 02 04 11 3e 78 e3 d6 3d 7c 6f af bd 7a 3b 68 3e
       0.14161685 0.10492605 -0.08566186 0.22678939
0000e0 80 c8 e3 3c 00 da a0 bd 02 24 0c be f0 f3 18 3e
       0.027805567 -0.0785408 -0.13685611 0.14936805
0000f0 30 48 84 3c 6c 5c 12 3e 08 87 6e 3d 8c 05 f7 3d
       0.016147703 0.14293069 0.058234245 0.12061605

lstm.weight_hh_l0 f4 [64, 16]
000000 32 27 52 3e 80 58 d2 bc 28 d5 13 3e 3a 58 20 be
       0.20522764 -0.025676966 0.14436781 -0.15658656
000010 68 64 06 bd ea b5 61 be 28 af 0a 3d c8 d9 c2 bd
       -0.0328106 -0.22042051 0.03385845 -0.09514195
000020 1c 3a 6f 3e 60 92 a6 bc d0 f1 6b bd c4 d8 75 3e
       0.2336201 -0.020333469 -0.057603657 0.24008471
000030 00 2e 86 bb b8 17 2a be b0 07 ad bd 9a 7b 2f be
       -0.004094839 -0.1661061 -0.08448732 -0.17136994
000040 1e 24 51 be d8 35 4d 3e 38 0f 7d bd 04 f2 a0 bd
       -0.20423934 0.20040071 -0.06178209 -0.07858661
000050 64 fb f4 3d ae a2 19 3e f8 df 02 be 30 15 ae 3c
       0.119620115 0.15003464 -0.1278075 0.021250337
000060 b0 4f b3 3c 6c 9c 5c 3e c0 e8 6d 3c c8 f3 16 3d
       0.021888584 0.21544045 0.014520824 0.03685358
000070 44 5f 11 3e b0 cd 0e be 90 d0 8d 3d 50 eb 8f 3d
       0.14196497 -0.13945651 0.06924546 0.07027304
000080 e0 14 1b 3e a0 39 25 be 66 e9 26 be c0 95 89 3b
       0.15144682 -0.16135263 -0.16299972 0.00419876
000090 50 d0 9e 3c ac 67 7e be 76 fd 76 be 9c 29 9d bd
       0.01938644 -0.24844235 -0.24120125 -0.07673952
0000a0 30 d4 72 3e 28 12 35 be d4 97 8b 3d e0 a2 c1 3d
       0.23713756 -0.17682707 0.06816068 0.09454894
0000b0 74 94 ce bd 40 e1 04 bc fe c1 64 3e 40 0f c8 3c
       -0.10086909 -0.008110344 0.22339627 0.024421334
0000c0 00 b4 23 3d f0 b3 f7 3d 40 7b 94 3b 50 47 b4 bd
       0.039966583 0.12094867 0.004531294 -0.08802664
0000d0 a0 7d 62 bc d6 59 10 be 94 3a 16 be 36 f2 11 be
       -0.013823897 -0.1409677 -0.14670783 -0.14252552
0000e0 24 17 a3 bd 90 5d aa bd ec e1 70 3e 78 1a e5 bd
       -0.07963398 -0.08318627 0.23523682 -0.11186689
0000f0 14 f3 4f be 84 df 8d 3d 78 47 67 bd a8 7c 19 3e
       -0.2030757 0.06927398 -0.056464642 0.14988959
000100 00 06 73 3c d0 b0 38 3d 06 42 03 be 10 63 fe bc
       0.0148329735 0.045090497 -0.12818155 -0.031053096
000110 e0 bd 97 3d 50 19 a9 bc c0 11 43 be 24 79 f8 bd
       0.07409263 -0.020641953 -0.1904974 -0.12132481
000120 d6 5b 3b 3e 20 20 59 3d c8 2f 11 bd 60 13 14 bd
       0.18296751 0.053009152 -0.03544596 -0.03615129
000130 6a 1b 2e be 36 2a 0a 3e ce ce 64 be b0 54 01 3d
       -0.17002645 0.13492665 -0.22344515 0.031574905
000140 02 df 29 be 8c e4 a8 3d 58 95 ce 3d 40 b9 c4 bc
       -0.16588977 0.08246717 0.10087079 -0.024014115
000150 a4 0a 4e be 2c a7 a6 bd 0c 3e 24 3e 00 de 10 3e
       -0.20121247 -0.08137354 0.16039294 0.14147186
000160 70 12 4b 3d 6c 50 4b 3e b0 4d 58 bd e8 7d c0 3d
       0.04957813 0.19854897 -0.052808464 0.09399015
000170 d8 6e 48 be 40 cd 0b bd 48 c2 ca 3d 92 5c 7e be
       -0.19573534 -0.03413129 0.099003375 -0.2484
000180 5c c1 73 3e ac bf 48 be 00 ce a4 bd 2c c0 c3 3d
       0.2380423 -0.19604367 -0.08047104 0.09558138
000190 46 c4 62 3e b4 e7 dd 3d 08 6a 31 bd 00 ce bd 3c
       0.22145185 0.108352095 -0.04331401 0.023169518
0001a0 00 21 72 3b e4 99 d1 3d b2 69 2e be 10 b8 a5 3c
       0.003694594 0.102344304 -0.17032507 0.02022937
0001b0 50 bf 49 3d f6 bf 4f 3e 98 2c cd 3d 24 bf 19 be
       0.049254715 0.20288071 0.10018271 -0.1501432
0001c0 9c 38 8c bd b4 29 73 be 60 20 43 bc 44 b2 dc bd
       -0.06846735 -0.23746377 -0.011909574 -0.10776189
0001d0 0e 35 0b 3e c8 58 b8 bd 98 16 3d 3e e4 49 77 be
       0.13594458 -0.09001309 0.1846565 -0.24149281
0001e0 28 06 f8 bd ae ca 68 be 10 64 62 bd a0 f7 5b 3e
       -0.12110549 -0.22733566 -0.05527121 0.2148118
0001f0 70 d8 eb 3d a0 f7 ec bd 50 c3 a2 3d 18 3b c6 3d
       0.115158916 -0.11570668 0.07947409 0.0967924
000200 58 62 37 be a2 9e 66 be ec ed 97 bd 98 c8 1f bd
       -0.17908609 -0.22521451 -0.07418427 -0.03900966
000210 10 ee 70 3d e8 82 43 3e d4 a3 16 3e 30 7e bb 3d
       0.058820784 0.19092906 0.14710933 0.09154928
000220 ba e3 3d 3e a0 a9 03 bd 3a 43 53 3e 6c f9 28 be
       0.18543902 -0.03214419 0.20631114 -0.16501397
000230 b6 66 60 be 28 1f e5 bd 28 5b 59 bd 54 21 f5 bd
       -0.21914181 -0.11187583 -0.05306545 -0.119692475
000240 60 73 b7 3d 20 8d d8 bd 00 64 47 3a 14 90 68 be
       0.08957553 -0.105737925 0.0007606149 -0.22711211
000250 02 06 71 3e 4c 54 16 3e 94 fe 7e be a6 c5 62 be
       0.23537448 0.14680594 -0.24901801 -0.2214571
000260 f8 cd 46 be 58 13 1d bd c8 63 4e bd f4 5b 70 be
       -0.19414508 -0.038348526 -0.050388128 -0.23472577
000270 ca 1a 6a be 22 67 4b 3e 70 97 c4 bc 6c 39 39 3e
       -0.22861782 0.19863561 -0.023997992 0.18088311
000280 00 46 12 be d8 58 68 3e 0c d6 31 be fc e0 3c 3e
       -0.14284515 0.22690141 -0.17366809 0.184452
000290 8c 7e 36 be 00 54 ac ba f4 39 b2 bd 70 1a 91 3d
       -0.17821711 -0.0013147593 -0.0870246 0.07085121
0002a0 7c da 33 3e 6a 13 0e 3e c4 5c 46 be 7c ff 62 3e
       0.17563814 0.13874593 -0.19371325 0.22167772
0002b0 34 88 3e be c4 48 85 bd 36 87 6d be a8 b3 7b be
       -0.18606645 -0.065080196 -0.2319611 -0.24580252
0002c0 be 45 0c 3e ee a5 4d be 90 27 28 bd ac 42 13 be
       0.1369848 -0.20082828 -0.041053355 -0.14380902
0002d0 fa 99 1f be 54 af 2c 3e 60 b5 5f bc 44 54 a4 3d
       -0.15586081 0.16863757 -0.013654083 0.08023885
0002e0 48 92 60 be c4 bc 39 be 50 6d cd 3c d2 7e 71 3e
       -0.21930802 -0.18138415 0.025076538 0.23583534
0002f0 5c c2 36 3e 3a 70 1f 3e 10 78 a1 bd 50 69 73 bd
       0.1784758 0.15570155 -0.07884228 -0.059426606
000300 bc ee 33 be d0 f1 56 be 26 84 68 3e a0 e2 37 3d
       -0.17571539 -0.20990682 0.2270666 0.04489386
000310 dd 00 5e 37 3a 5d 03 3e 76 52 05 3e c2 cb 2f 3e
       1.3232432e-05 0.12828532 0.13019738 0.17167571
000320 78 bc 51 3d 68 0d 89 bd 94 4d 7f 3e a0 44 71 bd
       0.05120513 -0.0669201 0.24931937 -0.058903337
000330 f8 6a 17 be 2c 51 eb bd 52 fe 1b 3e b8 6d 18 be
       -0.14786899 -0.11490092 0.15233734 -0.14885604
000340 94 4f b7 bd e8 f1 fe bd 40 1b 7e 3c 98 05 4a 3e
       -0.08950725 -0.12448484 0.015509427 0.19728696
000350 0e da 65 3e 5e be 6d 3e 8e e9 38 be ac 2f 0e 3e
       0.22446463 0.2321715 -0.18057844 0.13885373
000360 b2 05 11 be 98 db fa 3d 90 36 03 bd 74 66 aa 3d
       -0.14162329 0.122489154 -0.032034457 0.08320323
000370 80 15 95 bd a0 89 59 3c 58 94 b3 3d e0 2d a4 bd
       -0.072794914 0.013277441 0.08768529 -0.080165625
000380 e6 fd 65 3e 08 2a 85 bd 76 5a 1d 3e 88 39 05 3e
       0.22460136 -0.065021574 0.1536654 0.13010228
000390 12 87 13 3e 38 56 fc 3d 0c cb cc bd 58 48 73 be
       0.14406994 0.123211324 -0.099996656 -0.23758066
0003a0 7e 3e 71 3e 1e ea 22 be 30 6c ef bd 36 d5 5b 3e
       0.23558995 -0.15909621 -0.11690557 0.21468052
0003b0 74 12 46 3e 14 83 62 be 88 b7 c4 3d 18 04 f1 3d
       0.19342977 -0.22120315 0.09605318 0.11768359
0003c0 f0 18 2f 3d 80 c2 fd 3b 30 53 66 bd 54 85 50 3e
       0.04274839 0.0077441335 -0.056231678 0.2036336
0003d0 28 03 8f bd 08 2c 72 3d 60 06 d5 bd c8 3f 4d 3e
       -0.06983024 0.059124023 -0.104016066 0.20043862
0003e0 a4 32 bf 3d 1c b4 d7 bd b0 dc da 3c fe 4a 41 3e
       0.09335831 -0.105324 0.02671656 0.18876263
0003f0 5c bd d7 3d 80 4f 7f be 24 c3 01 3e 22 07 67 be
       0.10534164 -0.2493267 0.12672096 -0.22561315

lstm.bias_ih_l0 f4 [64]
000000 68 7f be bd 18 2e 84 bd be d5 15 be 40 89 fc bd
       -0.093016446 -0.06454104 -0.14632317 -0.12330866
000010 d8 02 2d bd ea 37 27 be 38 05 02 3d 88 ba 97 3d
       -0.04223904 -0.16329923 0.03174326 0.07408625
000020 34 7e a6 bd 48 f1 9b bd 30 e9 6e 3d 00 04 84 bb
       -0.0812954 -0.0761438 0.058327854 -0.004028797
000030 f8 2a c2 3d 20 67 12 be 4c b9 be bd 0e e7 77 3e
       0.09480852 -0.14297152 -0.09312686 0.24209234
000040 30 32 a5 3d 82 1e 1f be fa 54 7f be e0 41 2d 3d
       0.08066213 -0.15538982 -0.2493476 0.04229915
000050 d8 0f 2a 3d 40 7a ee bc b0 36 6c 3d 26 4f 5c be
       0.041519016 -0.029111028 0.05766934 -0.21514568
000060 28 cb a9 3d 30 3b 19 3e 02 60 79 3e dc eb bc 3d
       0.08290702 0.14963984 0.2435303 0.09224674
000070 94 8e bd bd a0 be ac bc 38 9a 9a 3d 48 fe b4 bd
       -0.0925571 -0.02108699 0.07548946 -0.08837563
000080 38 01 fb 3d 74 b1 78 3e f6 b4 29 3e fa 49 2e 3e
       0.12256092 0.24286443 0.16572937 0.17020407
000090 5a c5 57 3e b8 a4 4a 3c 64 96 97 3d 40 f4 b7 3d
       0.21071377 0.012368374 0.074017316 0.08982134
0000a0 60 2e d2 39 8c b5 c7 bd c2 97 10 3e 28 c5 54 3d
       0.00040088873 -0.09751424 0.14120391 0.051945835
0000b0 00 1f b5 bd ec 7a dc 3d 54 53 e8 bd 00 fd 37 be
       -0.088438034 0.10765633 -0.113440186 -0.17967606
0000c0 c7 13 66 3b b8 3f c7 3d 34 b8 77 be 58 8a 51 3e
       0.0035107003 0.0972895 -0.24191362 0.2046293
0000d0 96 25 39 be 90 b2 31 be 70 0e 42 3d 36 94 68 be
       -0.18080744 -0.17353272 0.04737705 -0.22712788
0000e0 b6 e3 73 3e 56 12 38 be 10 3f 9a bd 8c f4 52 be
       0.23817334 -0.17975745 -0.075315595 -0.206011
0000f0 56 81 06 3e 5c 31 23 3e 10 50 8b 3d 52 8b 76 be
       0.13135275 0.15936798 0.0680238 -0.24076584

lstm.bias_hh_l0 f4 [64]
000000 7a 02 55 3e 78 27 34 bd 30 c2 37 3d b0 1e d2 3d
       0.20801726 -0.043982953 0.044862926 0.102597594
000010 c8 e2 83 3d 30 3a d9 3c 28 55 2d be fc 1a 44 3e
       0.064397395 0.026517004 -0.16927016 0.19150919
000020 80 43 6c be c8 dd 7f be b2 3e 6d 3e e6 67 66 3e
       -0.23072624 -0.24986947 0.23168448 0.22500572
000030 f8 b6 d0 3d a8 f9 00 3d f4 32 5e be c8 a9 46 bd
       0.101911485 0.03148809 -0.21699125 -0.04850176
000040 60 1d e6 bd 00 d4 d8 3b a0 14 ef bc 48 f4 5d 3d
       -0.112360716 0.0066170692 -0.02918464 0.054188043
000050 90 fd 6c be 98 b9 7d 3e 78 f4 b4 bd 00 92 99 3d
       -0.23143601 0.2477783 -0.08835691 0.074985504
000060 c0 f2 f9 bc f4 d0 97 bd 14 60 04 ba c8 d8 da bd
       -0.03051126 -0.074129015 -0.0005049717 -0.10685879
000070 50 ad 7b bd c0 a8 4b 3d dc 7a 75 be ac 62 8c bd
       -0.06144458 0.04972148 -0.23972648 -0.06854758
000080 c2 ef 1b 3e 2a 72 37 3e ae 7e 6a be 1a cb 6a 3e
       0.15228179 0.17914644 -0.22899887 0.2292904
000090 c8 cc 61 bd b4 59 bc 3d a0 c9 09 bd c0 82 62 be
       -0.055126935 0.09196797 -0.03363955 -0.2212019
0000a0 f5 fc 1c 3c 6c 0e 79 be 8c c9 42 bb 1c 6b 70 3e
       0.009581794 -0.24321908 -0.0029722182 0.23478359
0000b0 70 c1 5c be 36 cc 4d 3e 3c c2 5b be c0 e4 68 be
       -0.21558166 0.20097432 -0.21460813 -0.22743511
0000c0 fc f5 6d 3e d2 0b 74 be 84 8c 12 3e 54 a8 2b be
       0.23238367 -0.23832634 0.14311415 -0.16763431
0000d0 d8 15 53 3e f4 e2 ef 3d 18 05 c9 bd 06 e8 14 3e
       0.20613801 0.1171321 -0.09815425 0.14541635
0000e0 d0 ac 76 3d f4 84 ad bd 60 17 3d 3e b8 51 28 3e
       0.0602234 -0.084726244 0.18465948 0.16437423
0000f0 a4 3d 5d be bc e3 1b 3e e0 74 6e 3e 54 4d 26 3e
       -0.21605545 0.15223593 0.23286772 0.16240436

lstm.weight_ih_l1 f4 [64, 16]
000000 b0 d1 1f be 18 44 ef 3d 56 cf 40 be 48 a7 43 3e
       -0.15607333 0.1168291 -0.18829092 0.19106781
000010 58 6c 34 be 00 3e bc 3c c2 4f 4b be 40 34 70 be
       -0.17619455 0.022978783 -0.19854644 -0.23457432
000020 74 a2 18 be e2 54 63 3e 08 9f 0f be 48 0d d3 bd
       -0.14905721 0.22200349 -0.1402551 -0.103052676
000030 04 2d c1 bd 60 ef 11 bd 68 4c 6c bd 7c 0a 2d 3e
       -0.09432414 -0.035628676 -0.057690054 0.1689853
000040 60 22 6f bc 68 0f 0b be 60 d1 d3 bd a0 66 7b 3d
       -0.014595598 -0.13580096 -0.103426695 0.061377168
000050 1c 63 a6 3d 00 c2 76 3c 44 16 f2 bd ec e3 56 be
       0.08124372 0.015060902 -0.11820653 -0.20985383
000060 9c 9b c8 bd 30 e5 83 3d 40 54 07 3e 80 e2 98 3b
       -0.09795305 0.064401984 0.13215733 0.004665673
000070 0a a4 0c be 7a dd 7a 3e 44 78 81 bd 66 4b 08 be
       -0.13734451 0.24498549 -0.06321767 -0.13310012
000080 82 10 56 3e 9e e2 67 be c8 2d ab bd 60 b8 8a 3d
       0.20904735 -0.22645041 -0.083583415 0.06773448
000090 76 2e 51 3e 04 ab 40 be 90 1b 3e be da 23 15 be
       0.2042788 -0.18815237 -0.18565202 -0.14564458
0000a0 c2 23 45 3e 42 6f 5a 3e be e2 55 3e 38 50 e4 3d
       0.19251922 0.21331504 0.20887277 0.11148113
0000b0 68 a3 04 bd c0 3d 85 bd 38 dc 56 bd 26 e8 71 be
       -0.0323824 -0.065059185 -0.05245611 -0.23623714
0000c0 a2 ab 2f be 90 75 02 be 60 a3 1e 3e 4e b5 15 3e
       -0.17155316 -0.12740159 0.1549201 0.14619943
0000d0 a2 10 40 3e 8c cb 06 3e 20 73 47 3d 10 dc 7b 3d
       0.18756345 0.13163584 0.048693776 0.061489165
0000e0 dc 86 22 3e 6e 2f 03 be 40 ed d5 3c 78 b6 40 3e
       0.15871757 -0.12811062 0.026114106 0.18819606
0000f0 26 93 07 3e 8a ef 1b 3e 12 4e 3f be f0 be 1e 3e
       0.13239726 0.15228096 -0.18682125 0.15502524
000100 f0 86 2f 3d ba ce 65 be 70 4a 6c bd d0 14 a4 3d
       0.042853296 -0.22442141 -0.057688177 0.08011782
000110 60 52 e0 bd d0 44 b2 3c e0 01 9e 3c 98 1c 4c 3d
       -0.10953212 0.021761328 0.019288003 0.049831957
000120 d0 d2 91 3d e8 c3 80 3d dc e1 fa 3d b0 72 1a 3d
       0.071202874 0.06287366 0.122501105 0.03770703
000130 6c b2 52 be 30 11 c8 3d f2 97 30 3e f4 a5 6f 3e
       -0.20575875 0.09768903 0.17245463 0.2340315
000140 e2 68 34 be d8 32 d5 3d d0 13 14 be 30 2a be 3d
       -0.17618135 0.10410088 -0.14460683 0.092853904
000150 a8 c6 0d 3e 32 eb 72 3e ec e0 33 be 94 76 b1 bd
       0.13845313 0.23722532 -0.1756627 -0.08665195
000160 1c 2c ef 3d 00 c9 27 3b e4 a8 11 be e6 af 53 3e
       0.11678335 0.0025601983 -0.14224583 0.20672569
000170 5c 2e d5 3d c0 86 6b be 84 7c 6b 3e 8c 0a 8f bd
       0.10409233 -0.23000622 0.22996718 -0.069844335
000180 9a 61 7c 3e 38 8c 80 3d 5c ee e4 bd d0 37 7b 3d
       0.24646607 0.062767446 -0.11178276 0.061332524
000190 b0 76 ad 3d e8 c1 07 3e b0 19 ea bc 64 6a f5 3d
       0.084699035 0.13257563 -0.028576702 0.11983183
0001a0 da 95 21 be 54 7a 29 be b8 d4 2d 3e 48 21 82 3d
       -0.1577982 -0.1655057 0.16975677 0.06354004
0001b0 00 bc a6 3b 88 81 2a be 98 25 05 bd b0 fb 44 3e
       0.0050883293 -0.16650975 -0.032506555 0.19236636
0001c0 3c 31 22 be 14 a8 ca 3d 24 c9 dd bd 00 c2 1e 3c
       -0.15839094 0.098953396 -0.1082938 0.009689808
0001d0 10 93 2e 3e 50 12 e8 3d ea 18 1a be f4 ae 23 3e
       0.17048287 0.11331618 -0.15048566 0.15984708
0001e0 20 c9 65 3e d8 71 09 bd c4 b0 f8 bd d6 17 2d 3e
       0.22440004 -0.033555835 -0.1214309 0.16903624
0001f0 40 f8 75 bc ac d6 9c 3d 22 3d 08 be 6a 69 29 3e
       -0.015012801 0.07658133 -0.1330457 0.16544119
000200 66 bf 16 3e 98 db 5a 3e 18 37 78 3d 24 46 0e be
       0.1472145 0.21372831 0.060599416 -0.13893944
000210 98 28 d3 3d ca 71 52 be 56 26 0f 3e 2c bf ff 3d
       0.10310477 -0.2055122 0.13979468 0.12487635
000220 0e 90 2b 3e c8 c3 59 3e 88 82 5c bd 04 98 ea 3d
       0.16754171 0.21266091 -0.05383542 0.11454776
000230 4a 6f 5b 3e c0 21 95 bb 44 e6 9c 3d 68 f8 e5 bd
       0.21429172 -0.0045511425 0.07661107 -0.1122902
000240 b2 c6 6a be 80 9c 30 3e b0 70 e4 3c 72 59 01 3e
       -0.22927359 0.172472 0.027885765 0.12631777
000250 58 cf e9 3d f0 64 df 3d 50 df 50 3e f2 ed 2d be
       0.11416501 0.10907924 0.20397687 -0.169853
000260 1a 80 76 be 38 a4 c1 bd 06 38 0c 3e 0c 3e 75 3a
       -0.24072304 -0.0945515 0.13693246 0.0009355254
000270 a0 43 b5 3d c0 1f 69 be 7c f3 04 be 3c 8c 11 3e
       0.08850789 -0.22766018 -0.12983507 0.14213651
000280 30 e6 f6 3c ee b6 75 3e c0 94 d7 3c 40 03 5c 3d
       0.030139059 0.23995563 0.026316047 0.053714037
000290 44 4c fc bd 9e d6 26 be e4 a3 6c 3e 7e 51 5e be
       -0.12319234 -0.16292807 0.23109394 -0.21710774
0002a0 fc fc 69 3e c0 90 c2 bb 60 a7 85 bd 5a e8 3f be
       0.22850412 -0.0059376657 -0.06526065 -0.18740979
0002b0 c4 a3 48 be 10 e5 d9 bd ac 1c 1a 3e fc 32 bf ba
       -0.19593722 -0.10639393 0.1505 -0.0014587338
0002c0 24 26 f2 3d 6c ee 67 3e 24 55 1b be 60 b1 5c bc
       0.11823681 0.22649544 -0.15169197 -0.013470024
0002d0 d4 7a 8a 3d fe 02 21 be c8 b2 e6 bd 10 7e e7 3d
       0.06761709 -0.15723798 -0.112645686 0.113033414
0002e0 40 1e d3 bd 4e ea 20 be a8 97 41 3e 88 aa 75 3d
       -0.10308504 -0.1571438 0.18905509 0.059977084
0002f0 0e ec 5b be e8 94 3e 3d 44 45 2e be 00 d3 a9 3b
       -0.21476766 0.046528727 -0.1701861 0.005182624
000300 a2 74 1d 3e b0 10 e7 3d 68 7d c5 bd de 2d 1c 3e
       0.15376523 0.1128248 -0.0964306 0.15251872
000310 00 44 ca 3b 26 55 2f be 60 ee 75 be 5c 0d c9 bd
       0.006172657 -0.17122325 -0.24016714 -0.09817001
000320 90 5c dd bc 2c fc 86 bd a0 04 e6 3d 4e 6a 64 3e
       -0.027021676 -0.06591067 0.11231351 0.22306177
000330 48 14 39 3d 78 4e 1c be 4c 70 29 be d8 5b 78 3d
       0.045185357 -0.15264308 -0.16546744 0.060634464
000340 a0 28 9e bd c0 fb 01 bc dc 8a e9 3d 02 62 19 3e
       -0.07722592 -0.007933557 0.114034384 0.14978793
000350 fa 50 38 be 10 d4 b8 bd 10 91 db 3c de cf 7d be
       -0.1799964 -0.09024823 0.02680257 -0.24786326
000360 20 52 23 3d 00 db b8 bd be 90 68 3e 0c 43 af 3d
       0.039873242 -0.09026146 0.22711465 0.0855771
000370 58 64 d1 bd f8 e6 1e bd f8 bf 4f be 48 18 b2 bd
       -0.10224217 -0.038794488 -0.20288074 -0.086960375
000380 ac 7b 9b bd 56 7b 19 be 68 85 7e 3e 88 f8 70 3e
       -0.07591948 -0.14988455 0.24855578 0.23532307
000390 b0 22 71 be c6 85 06 be c0 7b d0 bb 88 87 5b 3e
       -0.23548388 -0.13136968 -0.0063624084 0.2143842
0003a0 cc 96 13 be e4 cd c8 bd 0c e2 ec 3d 22 a4 52 be
       -0.14412993 -0.098048955 0.115665525 -0.20570424
0003b0 28 09 40 bd e2 e1 34 3e fc 15 2a be 1a 2f 66 3e
       -0.046883732 0.17664292 -0.16609949 0.22478905
0003c0 20 81 52 bc 50 a6 e3 bc 58 7a 58 3e e0 d9 f0 bc
       -0.012848169 -0.027789265 0.2114042 -0.029400766
0003d0 70 5f 40 bd 50 02 bb 3d 70 7f f3 bd 80 c9 7c bc
       -0.046966016 0.091313004 -0.11889541 -0.015428901
0003e0 d8 f3 49 3d 84 2d fa 3d 66 bd 24 3e be 01 49 be
       0.049304813 0.12215713 0.16087875 -0.19629571
0003f0 f4 a1 31 be 00 c0 db bc d0 88 cf bc bc b5 d1 3d
       -0.17346936 -0.026824951 -0.025333792 0.10239741

lstm.weight_hh_l1 f4 [64, 16]
000000 e0 f8 13 bd 20 8d 03 bc 5a bd 19 3e 10 3f 63 bd
       -0.036126018 -0.008029252 0.15013638 -0.055480063
000010 34 ac 2f be 00 3b 39 bc 36 3c 3c be b0 1f 6b 3d
       -0.17155534 -0.011305571 -0.18382344 0.057403266
000020 b8 0d 1f bd 64 dc bb 3d 8c 11 28 be a0 d9 5a bd
       -0.038831443 0.091728956 -0.16412944 -0.0534302
000030 62 0c 20 be 08 9d a5 bd 8c 34 ea 3d 98 30 65 3d
       -0.15629724 -0.08086592 0.11435804 0.055954546
000040 9a 2b 66 3e e8 be 04 bd c0 eb 06 bd 34 28 2a be
       0.2247757 -0.032408625 -0.032939672 -0.16616899
000050 9a e0 1d be c0 0f bf 3c c0 e2 63 be 98 1e 77 3d
       -0.1541771 0.02332294 -0.22254467 0.06033191
000060 3a 01 24 3e fc b2 bc bd ae 19 28 be 80 27 a9 3d
       0.16016093 -0.09213826 -0.16416046 0.08259487
000070 c0 bd 58 3c 24 41 c7 bd 1c b0 c7 bd 3c 2f 2d 3e
       0.013228834 -0.097292215 -0.09750387 0.1691255
000080 60 17 9e 3d e4 19 63 be 76 a3 1e be 7a 65 3f be
       0.07719302 -0.22177845 -0.15492043 -0.18691054
000090 80 cf 19 bd bc 6c ae bd 00 93 02 3c 80 97 76 bc
       -0.037551403 -0.08516833 0.007969618 -0.015050769
0000a0 90 b5 62 3d a8 f1 fe 3d 70 f2 40 3e e0 ae 35 bc
       0.055348933 0.12448436 0.18842483 -0.011089057
0000b0 b6 02 29 be ea ce 3a be 60 7a c8 3c f0 cc 26 bd
       -0.1650494 -0.18242994 0.024472415 -0.040722787
0000c0 28 16 5c 3d 90 c8 86 bc 12 c4 09 3e a4 9f ae bd
       0.053732067 -0.016453058 0.13453701 -0.08526543
0000d0 10 c3 9e 3d a0 8e 34 3d 64 be 0c be d8 7b 2a 3e
       0.07752049 0.04408133 -0.13744503 0.16648805
0000e0 80 aa ca 3d 96 48 64 be 84 aa 8f bd 78 3c 7d be
       0.098958015 -0.22293314 -0.07014945 -0.24730098
0000f0 d0 95 d5 3c 8e 78 63 be 38 43 21 be 04 c5 dd bd
       0.026072413 -0.22213957 -0.15748298 -0.108285934
000100 4e 6b 40 be 78 b5 fa 3d 10 7a f3 3c 80 0f 16 3c
       -0.18790933 0.12241644 0.02972129 0.009158969
000110 fa d7 14 be 30 c2 21 bd 54 21 2b be b0 65 84 3d
       -0.14535514 -0.039491832 -0.16711932 0.06464708
000120 54 90 20 3e be 02 5b be d0 c3 03 be b8 3d ca 3d
       0.15680057 -0.21387765 -0.12867665 0.09875053
000130 6e f1 77 3e a4 33 b6 bd a0 2f 82 3c c0 6f 0c 3e
       0.24213192 -0.088965684 0.01589185 0.13714504
000140 38 a3 eb 3d 70 80 c5 3d 22 f9 6b be 98 04 3e be
       0.11505741 0.09643638 -0.23044255 -0.1855644
000150 d4 de 6a 3e 68 91 34 3d 0a f7 67 be 24 99 c9 bd
       0.22936565 0.044083983 -0.22652832 -0.098436624
000160 64 44 b7 bd a4 d4 44 3e 40 9c 70 3d 04 33 49 3e
       -0.08948591 0.19221741 0.05874276 0.19648367
000170 c0 70 b4 3c 96 23 67 be a4 e5 df bd 84 c7 53 be
       0.02202642 -0.22572169 -0.10932472 -0.20681578
000180 56 60 72 3e 44 c3 e7 3d f8 06 48 3d c8 fa db bd
       0.23669562 0.11316541 0.04883477 -0.10741192
000190 e0 f9 4c 3c 28 16 95 bd 78 d6 ef 3d f0 ca 58 3e
       0.012510747 -0.072796166 0.117108285 0.21171165
0001a0 68 da 22 3d c0 88 a4 bb f0 82 97 bd 64 05 9f 3d
       0.03975907 -0.0050211847 -0.07398021 0.077647
0001b0 28 25 0c be e0 39 d8 3c 32 ac 79 3e 8a 30 33 3e
       -0.13686049 0.026394784 0.24382094 0.17498985
0001c0 58 0e 94 bd e4 ee e0 bd 60 54 77 3c 10 1e 5a bd
       -0.07229298 -0.10983065 0.0150958 -0.053251326
0001d0 48 d9 a6 bd 28 ba 44 bd 34 e9 29 3e a4 75 9f bd
       -0.08146912 -0.048029095 0.16592866 -0.0778611
0001e0 d8 d9 16 3e 18 f1 d8 bd 24 a6 88 bd 34 f9 54 3e
       0.14731538 -0.1059286 -0.06672314 0.20798188
0001f0 38 4a c2 bd 20 a8 03 3d e8 53 0d 3e 4c 80 95 bd
       -0.09486812 0.03214276 0.13801539 -0.07299861
000200 f6 f3 4f 3e cc 76 d3 3d 80 c3 4e bd 5a fc 6e be
       0.20307907 0.10325393 -0.050479412 -0.23338452
000210 0a 08 4a be a0 7b c6 bd bc ca 7b be b0 cc 75 be
       -0.19729629 -0.09691548 -0.24589056 -0.24003863
000220 54 17 11 3e 82 1d 1e 3e ce f9 4e 3e e4 66 75 be
       0.14169055 0.15440944 0.2021248 -0.23965031
000230 b0 75 d9 3c f0 f7 76 bd 2e bc 72 3e 24 55 37 3e
       0.026545376 -0.060295045 0.23704597 0.17903572
000240 7a 99 5c 3e b0 64 c4 bc 4e b0 57 3e 08 a3 6d bd
       0.21542922 -0.023973793 0.21063349 -0.058016807
000250 d0 93 bf 3d e4 4a 7e 3e 56 c4 73 3e 02 62 08 be
       0.09354365 0.24833256 0.23805365 -0.13318637
000260 28 a3 c1 bd 20 33 71 3c 58 e7 9d 3d d6 db 69 3e
       -0.09454948 0.014721662 0.07710141 0.22837767
000270 90 55 39 3e ee 68 42 be 00 f0 e3 bc d0 40 24 bd
       0.18099046 -0.1898534 -0.027824402 -0.040100873
000280 b8 d7 ef bd 86 ff 23 be b4 c5 41 3e 18 ab 32 be
       -0.11711067 -0.16015443 0.18923074 -0.1744808
000290 98 f6 46 3e 74 6d 3e 3e 80 7b 2b 3e d0 0f be bc
       0.19430006 0.1859644 0.1674633 -0.0232009
0002a0 50 46 91 bd 30 4d 30 be 46 e2 4e 3e 18 dd a8 bd
       -0.07093489 -0.17216945 0.20203504 -0.08245295
0002b0 08 e7 3a 3d 90 35 54 3e 9c 77 da 3d 2c 6d d6 3d
       0.045630485 0.20723557 0.10667345 0.10470042
0002c0 10 f2 2a 3e f4 d4 ef 3d a0 3b cf 3c c6 9b 1c 3e
       0.16693902 0.117105395 0.025296986 0.15293798
0002d0 0c 90 17 3e 0c 9a 23 be fc ba 86 3d 14 3a e5 bd
       0.14801043 -0.15976733 0.06578633 -0.11192718
0002e0 16 c4 11 be c0 06 cf bd 4c 04 3a 3e a4 d9 d3 bd
       -0.14234957 -0.10108709 0.18165702 -0.10344246
0002f0 a0 3c 2d 3e a2 e4 72 be 08 27 c0 3d e0 30 db bc
       0.16917658 -0.23720029 0.093824446 -0.026756704
000300 98 07 36 3d e0 92 2f bc ec 2f d2 bd 28 61 45 3e
       0.044440836 -0.01071617 -0.102630466 0.19275343
000310 42 e3 18 3e b0 e0 49 3d 68 15 e1 3d c8 25 34 3e
       0.14930442 0.049286544 0.10990411 0.17592537
000320 d0 76 a9 3d da 56 4e be c8 f5 d3 bd 6a ec 0b be
       0.08274615 -0.20150319 -0.103496134 -0.13664404
000330 a2 a6 71 be 78 68 13 3d 60 50 01 bd 40 85 4d bd
       -0.23598722 0.0359883 -0.031570792 -0.050175905
000340 0e 62 3e be b6 69 71 3e f6 9c 4a be 16 0e 65 3e
       -0.18592092 0.23575482 -0.19786438 0.22368655
000350 ec f8 ba 3d 1c e6 fb bd 98 2b 2a 3d da 44 22 3e
       0.09129509 -0.12299749 0.04154548 0.15846577
000360 b8 66 47 3d e0 05 df 3d 94 e6 ec bd 20 3a f2 3d
       0.048681945 0.108897924 -0.11567417 0.11827493
000370 c4 d1 7e 3e 48 39 1b 3d b4 da 46 be 88 2e 67 3d
       0.24884707 0.037896425 -0.19419366 0.05644086
000380 e0 34 60 3c 5e af 0d be 80 d4 51 3b e2 0e 44 be
       0.013684481 -0.13836429 0.003201753 -0.19146302
000390 8e 92 65 3e 10 12 3a 3e f4 1b b5 3d ae 31 31 be
       0.22419187 0.18170953 0.08843222 -0.17304108
0003a0 18 3c 3d be ac d7 8b bd c0 50 a4 bc a0 5e e7 bd
       -0.18479955 -0.068282455 -0.020058036 -0.11297345
0003b0 f4 6a 05 be 4a 53 14 3e 20 46 f2 3d 00 3b a4 3a
       -0.1302908 0.14484897 0.118297815 0.001252979
0003c0 ac f6 30 3e 1a ca 78 3e b8 2e 71 be 20 c5 2c 3e
       0.17281598 0.24295846 -0.23552978 0.16872072
0003d0 78 40 65 3e 80 59 f9 3c 54 12 57 3e b4 4a b9 bd
       0.22387874 0.030438185 0.21003085 -0.090474516
0003e0 32 d9 66 3e bc 93 59 3e e0 a7 04 3c 40 7c bc bb
       0.22543791 0.21247762 0.008096665 -0.0057521164
0003f0 00 3f c1 bd 84 55 04 be 00 8d 5a 3e d8 65 97 bd
       -0.094358444 -0.12923247 0.2134285 -0.07392472

lstm.bias_ih_l1 f4 [64]
000000 f8 fb e1 3d 18 c0 d0 3d f4 66 cb 3d ee 0a 04 be
       0.11034387 0.10192889 0.09931746 -0.12894794
000010 fc bf ae 3d 0e d5 4a 3e ec 2e 17 3e ba 7b 44 3e
       0.08532712 0.19807836 0.14763993 0.19187823
000020 84 b3 a7 bd 0c 0a 39 be 78 80 07 3e 44 06 d6 bd
       -0.08188537 -0.18070239 0.132326 -0.10450414
000030 da 35 37 3e 09 dd 43 bc 58 d7 07 be 1a 6d 00 be
       0.17891636 -0.011954554 -0.13265741 -0.12541619
000040 a8 01 d5 bd b8 fa 4a be 84 e2 1c be c0 b2 50 3c
       -0.104007065 -0.19822204 -0.15320784 0.01273793
000050 98 e3 66 be fe a8 79 be e4 ed d3 bd f4 a2 21 3e
       -0.22547758 -0.24380872 -0.103481084 0.15784818
000060 fc d0 6d 3e 40 ea ce 3c 4c b1 3a 3e 2c 32 25 3e
       0.23224252 0.025258183 0.18231696 0.1613242
000070 30 84 2e be b8 b4 64 3d f8 9c d5 bd c8 10 34 3d
       -0.17042613 0.05583641 -0.1043033 0.043961316
000080 56 ce 32 3e 14 19 eb bd 83 75 65 bd 16 30 6a 3e
       0.17461523 -0.11479393 -0.05602027 0.22869906
000090 d7 d5 03 be 9e 7b 73 be 9b dc d4 3d 8a 99 5e be
       -0.12874542 -0.23777625 0.1039364 -0.21738258
0000a0 64 61 24 be 23 9f 56 bd f8 d5 49 be ce c4 4f 3e
       -0.16052777 -0.05239786 -0.19710529 0.20289919
0000b0 c0 66 fc 3d e5 2b 86 3c 57 8c 47 3d ef b5 13 bd
       0.123242855 0.016378352 0.048717823 -0.036062177
0000c0 d8 21 40 3e 50 0f 02 bd ac eb 36 3e 28 2e 11 3d
       0.1876291 -0.031752884 0.17863339 0.03544441
0000d0 c2 49 60 3e 56 69 1b be 5b 70 4a 3d e8 b7 1c be
       0.21903136 -0.15176901 0.049423557 -0.1530453
0000e0 d0 ad 13 3e 60 c7 21 bd 3c 89 55 be bc 70 ee bd
       0.14421773 -0.03949678 -0.20853132 -0.11642596
0000f0 b0 0b 26 3e f8 aa 2d be f2 bd 26 be 9c 2a a0 bd
       0.16215396 -0.1695975 -0.16283396 -0.07820627

lstm.bias_hh_l1 f4 [64]
000000 14 98 33 3e 28 fa 91 3d bc f5 77 3e 38 06 33 3e
       0.17538482 0.07127792 0.24214834 0.17482841
000010 06 d5 05 3e 16 ac 69 be e8 c0 c3 3d 46 14 45 be
       0.13069543 -0.22819552 0.09558278 -0.19246015
000020 a8 d1 5d 3e dc ca e7 3d bc 09 ef bd 1e 93 6d 3e
       0.21662009 0.11317989 -0.116717786 0.23200652
000030 68 79 ed bd 78 18 80 3d 68 16 16 be 40 63 10 bd
       -0.11595422 0.06254667 -0.14656985 -0.035250902
000040 92 7b 60 be 66 be 6b be 17 11 51 bb 08 9c 2d 3d
       -0.21922138 -0.2302185 -0.0031901055 0.04238513
000050 f0 2b 23 be d6 e3 74 be 0c d2 e4 3d 18 16 b8 bd
       -0.1593473 -0.23915038 0.11172876 -0.08988589
000060 80 98 3c bd 48 b6 0e 3e b6 e6 05 be d4 89 2a be
       -0.046043873 0.13936722 -0.1307629 -0.1665414
000070 50 eb 45 3d 18 5f 8f bd 40 d7 13 3e c0 f4 08 3c
       0.048320115 -0.070005596 0.1443758 0.008359134
000080 be 3b 5c 3e 26 d1 58 3d 66 49 13 be 56 de 23 be
       0.21507165 0.052933834 -0.14383468 -0.16002783
000090 11 55 71 3d 68 e1 41 bd cf e8 ff 3d 2a 24 5b be
       0.058919016 -0.047334105 0.124955766 -0.21400514
0000a0 bf 1f 5a 3d dd 51 37 be 28 34 7a be c0 27 41 be
       0.05325293 -0.17902322 -0.24433959 -0.1886282
0000b0 d9 3c 5e be 1b c3 94 bc 43 fa 88 bd 90 d3 23 be
       -0.21702899 -0.01815944 -0.06688359 -0.15998673
0000c0 8b 27 38 3c 24 9b ea 3d 06 e6 11 be 48 3b 53 3d
       0.0112398965 0.11455372 -0.14247903 0.051570207
0000d0 de 12 25 3e 80 f5 e9 3c ac 35 e8 bd 38 42 5f 3e
       0.16120479 0.028559446 -0.11338362 0.21802604
0000e0 90 2c d0 bc 34 a2 2c 3e 72 f8 4f 3e 24 f2 5c 3e
       -0.025411874 0.1685875 0.20309618 0.21576744
0000f0 70 c6 96 bd ae 42 77 3e d0 b2 6f 3d f0 53 84 3d
       -0.07362068 0.2414653 0.05852014 0.06461322

lstm.weight_ih_l2 f4 [64, 16]
000000 2c 30 32 be 60 73 86 3c 88 ab 12 bd e4 51 e9 bd
       -0.17401189 0.016412437 -0.035808116 -0.113925725
000010 7a 6f 47 3e 46 05 7e be e2 7c 61 be 24 7f ff 3d
       0.19476119 -0.24806699 -0.22020295 0.12475422
000020 38 37 e0 bd 24 d5 d0 3d 30 cb 7f 3e 48 97 cb bd
       -0.10948032 0.10196903 0.24979854 -0.09940964
000030 8a 0b 16 be 7c 6f 6a be e6 6e 25 be 9c e4 e7 bd
       -0.1465284 -0.2289409 -0.16155586 -0.11322901
000040 52 7a 3e be b6 af 03 3e 18 1b 1e be 20 e5 2f bd
       -0.18601349 0.12859997 -0.15440023 -0.04294312
000050 40 a6 03 3e e2 80 7e be c2 01 68 be e0 e1 2d be
       0.12856388 -0.24853852 -0.2265692 -0.16980696
000060 a0 99 50 be 3a f0 40 3e b4 d8 6d be d0 56 d1 bc
       -0.20371103 0.18841639 -0.23227197 -0.02555409
000070 fa 2d 49 be ec 0c b9 3d 60 43 e1 3c d8 e0 85 bd
       -0.19646445 0.09035668 0.027497947 -0.06537026
000080 22 7d 34 3e 1c 8e a3 3d d0 5b 0a 3e e6 d1 2f 3e
       0.1762586 0.079860896 0.13511586 0.17169914
000090 f4 a6 3b be 68 22 44 3d 86 8b 59 3e 10 3b c3 bc
       -0.18325406 0.047884375 0.2124463 -0.023831874
0000a0 00 11 a1 3c ec 69 9e bd 16 c5 35 be b0 ed de 3c
       0.019661427 -0.07735047 -0.17750964 0.027212948
0000b0 42 50 50 3e d4 79 be 3d 18 16 75 3e b8 c1 f5 bd
       0.20343116 0.093005806 0.2393421 -0.119998395
0000c0 62 30 5c 3e e0 a0 cb 3c c0 d0 4f 3c ba db 7d be
       0.21502832 0.024856985 0.012684047 -0.2479085
0000d0 f0 3e 6e bd b4 0f 69 be 68 58 10 3e 54 62 bd 3d
       -0.05816549 -0.22759897 0.14096224 0.0924727
0000e0 84 8d 2f 3e 68 b4 ea bd 2c 9f 05 be 60 9c 13 3e
       0.17143828 -0.11460191 -0.13049 0.14415121
0000f0 50 9c 53 bb 00 64 94 3c 28 58 25 bd c8 60 46 3e
       -0.0032289214 0.01811409 -0.040367275 0.19372857
000100 3e 3d 1a be 3a 68 25 3e 36 aa 73 be 9e d7 0b be
       -0.15062425 0.1615304 -0.23795399 -0.1365647
000110 5e 7d 68 3e 14 f1 78 be 65 3a 61 bb 80 bd 41 bd
       0.22704074 -0.24310714 -0.0034367081 -0.047299862
000120 f0 77 36 3e 7c 40 5b 3e 2e 72 0b 3e 0c e3 33 be
       0.1781919 0.21411318 0.13617775 -0.1756708
000130 d2 fa 01 be 20 54 68 be 54 46 45 be 45 11 3f bb
       -0.12693337 -0.22688341 -0.1926511 -0.002915458
000140 80 b6 b5 bd 40 a8 6a bd bc b6 9b 3d d8 ff 74 3d
       -0.088727 -0.057289362 0.07603213 0.059814304
000150 c0 3a c0 3b aa 99 3c 3e d8 78 12 3d 38 56 07 3e
       0.0058663785 0.18417993 0.035759777 0.13216484
000160 ec 36 cb 3d a4 77 4c be e0 1b 75 be 36 8e 52 3e
       0.09922585 -0.19967514 -0.23936415 0.20562062
000170 7a 37 6b be 00 f0 ba 39 48 15 79 be 20 1c 22 bc
       -0.22970381 0.00035655499 -0.24324524 -0.009894401
000180 fc 9d b3 3d 70 25 e0 3d 04 ea d0 bd 58 58 85 3d
       0.087703675 0.10944641 -0.10200885 0.06510991
000190 50 e5 ac bc 7c ea 14 be 26 e3 67 be 40 ca d6 3d
       -0.021105438 -0.14542574 -0.22645244 0.10487795
0001a0 70 88 72 3d 98 1e 32 be a0 85 a0 bd ba 3f 7a be
       0.05921215 -0.17394483 -0.07837987 -0.24438372
0001b0 2a 0e 1f be ea ac 7e 3e 46 ae 64 be 6e a7 4f 3e
       -0.15532747 0.24870649 -0.22332105 0.20278713
0001c0 70 7d 5e bd a8 b2 20 be b8 79 dd bd f0 7e 0d 3e
       -0.054318845 -0.15693152 -0.10814232 0.13817954
0001d0 26 a6 62 be 66 9f 4f 3e a0 80 6f 3c fa be 76 3e
       -0.22133693 0.2027565 0.014618069 0.2409629
0001e0 ae f1 37 be 56 98 2b be 6c c4 e3 bd b0 df be bc
       -0.17963287 -0.1675733 -0.11121449 -0.023300022
0001f0 c0 13 d8 bd c2 15 36 be a4 8c d4 bd 32 1f 1c be
       -0.10550642 -0.17781737 -0.103783876 -0.15246275
000200 00 a0 65 be 7a f7 33 3e a6 aa 53 be 90 35 20 bd
       -0.22424316 0.17574874 -0.20670566 -0.03911358
000210 d0 5a a6 3d d4 ee f6 bd 94 93 9b bd 4c ba 4b be
       0.0812279 -0.120572716 -0.07596508 -0.19895285
000220 e0 40 ce 3c 7e f2 72 3e f0 c4 a1 3d e8 e2 b8 bd
       0.02517742 0.23725316 0.07898891 -0.09027654
000230 10 82 f7 3c 9c 0d 9c 3d 08 c2 cc bd 64 e7 79 3e
       0.030213386 0.07619783 -0.09997946 0.24404675
000240 04 cd f1 bd c8 61 ba bd 64 4f 08 be 30 01 97 3c
       -0.11806682 -0.091006815 -0.13311535 0.018433183
000250 dc 33 1d 3e 38 30 9e 3d 1e 14 b7 3a 34 70 33 3e
       0.15351814 0.07724041 0.0013967787 0.17523271
000260 d2 87 1e be 0b f9 ea ba 60 2c 57 3e 5c ae 88 bd
       -0.15481499 -0.0017927004 0.21013021 -0.066738814
000270 58 68 18 bd 54 bf 77 be b6 af 4a 3e b4 36 6d be
       -0.037208885 -0.2419408 0.19793591 -0.23165399
000280 16 e4 4d 3e de 51 3d be 06 28 5f be 2a bc 5b be
       0.20106539 -0.18488261 -0.21792611 -0.21458498
000290 1c 93 4d 3e 88 03 f1 3d b6 bb 34 3e 42 68 fe b9
       0.20075649 0.11768252 0.17649731 -0.00048524333
0002a0 ee 00 61 be 32 4b 17 be b0 7b 8d 3d 80 d9 27 3c
       -0.21973011 -0.14774778 0.06908357 0.010244727
0002b0 68 1f 6c be 7a fa 3a 3e da 9e 39 3e 67 1a ef 3b
       -0.23058856 0.18259612 0.18127003 0.0072968486
0002c0 ea 5c 76 be ca 89 25 be 50 10 ad bd f0 0e 01 bd
       -0.24058881 -0.16165844 -0.08450377 -0.031508386
0002d0 d4 09 0f 3e d4 d6 6f be 7c 9b 65 3e 74 8f 14 3e
       0.13968593 -0.23421794 0.22422594 0.14507848
0002e0 36 d7 39 3e 10 83 57 be 62 b0 55 be 5c 9e 31 be
       0.18148503 -0.2104609 -0.20868066 -0.17345566
0002f0 d6 77 29 be a4 7f 0d be 34 54 b4 3d d2 67 79 3e
       -0.1654962 -0.13818222 0.08805123 0.2435601
000300 a2 7b 2e be e0 1b 58 3e 8c d7 f2 3d c0 87 19 bd
       -0.1703935 0.21104383 0.118575186 -0.037482977
000310 b4 95 b0 bd 30 9a 14 3d 56 b8 13 3e 44 00 bc bd
       -0.086223036 0.036279857 0.14425787 -0.09179738
000320 f0 96 f2 bc b6 c5 22 be 20 3a 3f 3d e8 41 9f bd
       -0.029612988 -0.15895733 0.04668629 -0.077762425
000330 50 ec 17 3d 90 f3 79 be cc fd 40 be dc 92 e1 bd
       0.0370906 -0.24409318 -0.18846816 -0.11014339
000340 f6 ab 21 be 7e 95 3e be 40 bc 73 3c 30 92 d8 bd
       -0.15788254 -0.18611714 0.014876425 -0.10574758
000350 2c b3 7d be fc 0d d1 3d 1a da 39 be 6c 33 6d be
       -0.2477538 0.102077454 -0.18149605 -0.23164147
000360 08 1c 92 3d 94 64 df bd e0 e3 fd 3d b0 e2 85 3c
       0.07134253 -0.10907856 0.12396979 0.016343445
000370 b8 63 dc bd ac cf 02 be f4 5d 1c 3e 26 8b 17 be
       -0.10761207 -0.12774533 0.15270215 -0.14799175
000380 f0 86 22 3d 28 bd d7 bd 00 46 f8 3d fa 8d 51 be
       0.039679468 -0.105341256 0.121227264 -0.20464316
000390 64 3d b4 bd 30 f9 e6 3d e4 47 ef 3d 88 51 ba 3d
       -0.08800772 0.112779975 0.11683634 0.09097582
0003a0 aa e4 4c be 98 00 4c be fa b8 0b 3c c4 20 19 be
       -0.20009103 -0.19922101 0.008527989 -0.14953905
0003b0 e8 92 b2 3d 90 61 f5 bc 8e 26 67 be 18 5f 70 3d
       0.087194264 -0.029953748 -0.22573301 0.05868444
0003c0 98 9f e1 bd f0 cb e2 bd 64 af 86 3d 20 b6 f5 3c
       -0.11016768 -0.11074054 0.06576422 0.02999407
0003d0 56 e6 4e be aa 1c 38 be 44 bd 0d 3e 20 fe 84 bc
       -0.20205054 -0.17979684 0.1384173 -0.016234457
0003e0 2c 34 13 be 08 23 ec 3d 40 4d ea 3c a8 00 69 be
       -0.1437537 0.11530119 0.028601289 -0.22754157
0003f0 38 a3 4b 3e b8 4a 56 3d 44 7e 3d 3e fc e5 24 be
       0.19886482 0.05231735 0.18505198 -0.16103357

lstm.weight_hh_l2 f4 [64, 16]
000000 d4 17 27 3e 00 f6 d0 bb 74 72 48 be 84 cd e9 3d
       0.16317683 -0.0063769817 -0.1957491 0.11416152
000010 00 cc 11 3e 14 ff 64 be 2a 3e 4e 3e 44 6d 86 3d
       0.14237976 -0.2236293 0.20140901 0.065638095
000020 10 02 b6 bc cc 0b 0e 3e 32 e7 0b be e0 fa 74 3c
       -0.02221778 0.13871688 -0.13662413 0.014952391
000030 c2 07 6b be 84 b3 a5 bd 7e f2 14 be 42 1a 59 3e
       -0.22952178 -0.080908805 -0.14545628 0.21201423
000040 8c f2 51 3e c0 8c b3 3c 96 04 1e be 70 2f d5 bd
       0.2050268 0.0219177 -0.15431437 -0.104094386
000050 4c 32 c6 3d 60 ea 89 3c 6c d3 88 bd e2 c9 68 3e
       0.09677562 0.016835392 -0.066809505 0.22733262
000060 8c f9 be bd c4 9c 33 be 4c d1 18 3e 74 10 b3 bd
       -0.09324941 -0.1754027 0.1492359 -0.087433726
000070 7a 01 1d be d4 cb c0 3d 60 f1 7e 3d b0 bd 81 bd
       -0.15332595 0.09413877 0.062241912 -0.06335008
000080 ca ba 31 3e 9c 1b 25 be 90 98 a5 bd 9a 34 1a 3e
       0.1735641 -0.16123813 -0.080857396 0.15059128
000090 40 86 43 bc 1e 14 0f be 52 3e 1c 3e 90 a5 39 be
       -0.011933863 -0.13972518 0.15258148 -0.18129563
0000a0 f8 dd ee bd ee 91 79 be e2 5c 73 be 6c a0 3d 3e
       -0.11663431 -0.24372074 -0.237659 0.18518227
0000b0 9e 86 77 be 08 65 38 3d c6 c3 0d be a8 3c ac 3d
       -0.24172446 0.045018226 -0.13844213 0.08410007
0000c0 78 92 58 3d b0 0a f3 3b 38 72 ef bd 42 02 43 3e
       0.05287406 0.0074170455 -0.116917074 0.1904383
0000d0 f8 88 40 3d e4 61 dd bd e4 59 b4 bd 94 06 0c be
       0.047005624 -0.10809687 -0.08806208 -0.13674384
0000e0 b0 79 6b 3e 20 b2 a8 bd 5a 18 4e 3e 10 9d dd bd
       0.22995639 -0.082371 0.20126477 -0.10820973
0000f0 16 63 51 be a2 ae 29 be 68 64 45 3d 48 91 c9 3d
       -0.20447955 -0.16570523 0.048191458 0.09842163
000100 d0 7b 2c be 20 cb 99 bc b8 5f 2c 3d 00 9f 59 be
       -0.16844106 -0.018773615 0.042083472 -0.2125206
000110 cc 14 ae bd 20 f4 30 bd 00 41 c4 3b 60 64 12 be
       -0.085000604 -0.043201566 0.005989194 -0.14296103
000120 fc f3 9c bd e2 62 0a be 32 3b 7d be 76 1f 34 3e
       -0.07663724 -0.13514283 -0.24729612 0.17590126
000130 c2 f9 4c 3e 90 bf c7 3d 58 19 0e 3e d2 cb 00 3e
       0.2001715 0.097533345 0.13876855 0.12577751
000140 18 02 48 3d d8 56 62 bd 68 d5 49 3e ee 3d 4b 3e
       0.04883012 -0.055258602 0.19710314 0.19847843
000150 7c 46 dc bd 60 24 2b be 22 b7 6f 3e ec f8 61 3e
       -0.10755631 -0.16713095 0.23409703 0.22067612
000160 c0 82 66 3c 28 f6 b8 3d 08 d9 7a 3e b8 46 04 3d
       0.014069259 0.090313256 0.24496853 0.032294005
000170 00 20 ac ba 00 b2 35 ba 50 61 6d be a2 5c 64 3e
       -0.0013132095 -0.0006931126 -0.23181653 0.22300962
000180 b8 42 b0 bd 50 bd 3c bd 16 10 37 be 80 30 17 bd
       -0.086064756 -0.04607898 -0.1787723 -0.036911488
000190 a0 d1 14 bc de ff 50 be 52 72 78 be 30 af dd 3d
       -0.009083182 -0.20410106 -0.2426236 0.1082443
0001a0 ce e8 14 be 72 4b 71 be 92 15 36 be 9c c8 1b 3e
       -0.14541933 -0.23563936 -0.17781666 0.15213245
0001b0 c8 54 4a 3e e0 b3 e1 3c 46 95 3d 3e ba c8 5e be
       0.19758904 0.027551591 0.18513975 -0.21756259
0001c0 50 33 35 be f8 3e ad 3d 38 f5 41 be 68 b3 1c be
       -0.17695355 0.08459276 -0.189412 -0.15302813
0001d0 36 91 29 be 10 fc 49 bd 98 0a 08 be 28 ae 41 be
       -0.165593 -0.04931265 -0.13285291 -0.18914092
0001e0 08 ec e2 3d b0 0d da 3c 40 8e 7e bc e0 b3 7b bc
       0.11080176 0.026617855 -0.015536845 -0.01536271
0001f0 34 17 78 3e 40 31 a0 bb 5c f1 02 be 64 b0 a6 3d
       0.24227601 -0.0048886836 -0.12787384 0.081391126
000200 c4 5a c0 3d a0 dd 1d 3e 7a c5 0f be 54 9c 16 3e
       0.09392312 0.15416574 -0.14040175 0.14708072
000210 40 78 e0 bd 58 29 09 3e b0 a2 21 3e ca 7d 23 3e
       -0.10960436 0.13394678 0.15784717 0.15965953
000220 00 85 50 3e 48 7a 5e 3e ac 7d a5 bd 80 25 77 3b
       0.20363235 0.21726334 -0.08080611 0.003771156
000230 80 8c 19 bc b8 98 28 bd 10 5a 96 bd fc 04 51 3e
       -0.009371877 -0.04116127 -0.07341397 0.20412058
000240 c0 7f 35 3e de 54 1e 3e 30 cb 32 3d 80 32 7d be
       0.17724514 0.15462062 0.043650806 -0.24726295
000250 60 84 75 be 64 7a 7b be 34 4c 99 bd 88 6e ed 3d
       -0.23976278 -0.24558407 -0.07485238 0.11593348
000260 b8 9d fa 3d b0 c9 f3 3d 6a 92 49 be 2c f4 3a be
       0.12237114 0.11903703 -0.19684759 -0.18257207
000270 b2 ea 43 3e 56 e2 15 3e 00 50 3d bd 8a 2d 2d 3e
       0.19132498 0.14637122 -0.046218872 0.16911903
000280 c0 5c 40 bc c8 90 d6 3d 80 6d f7 3c d8 42 52 3e
       -0.011740863 0.104768336 0.03020358 0.20533311
000290 40 82 9d 3d 4c ec 60 be ac 91 f0 3d 40 a6 f4 bd
       0.07690859 -0.2196514 0.11746535 -0.11945772
0002a0 6e 5b 73 be bc c6 77 be 02 d2 18 be a8 ab 5b 3e
       -0.23765346 -0.24196905 -0.14923862 0.214522
0002b0 44 94 50 3e 72 62 46 3e fc 89 3e 3e 08 26 1e 3d
       0.20369059 0.19373491 0.18607324 0.03861049
0002c0 f2 87 41 3e d4 e0 be 3d 2a d5 00 be 82 29 05 3e
       0.18899515 0.09320226 -0.12581316 0.13004115
0002d0 28 b0 07 be 68 6a 60 3e b8 3b c1 bd 30 1e 58 bd
       -0.13250792 0.21915591 -0.094352186 -0.052763164
0002e0 98 90 0b 3e 08 df 15 3d 8c ce 09 3e d0 3c db 3d
       0.13629377 0.036589652 0.13457698 0.107049584
0002f0 c0 b2 15 be f8 ec c8 3d 60 72 07 3e 20 fe 9a 3c
       -0.14618969 0.09810823 0.13227224 0.018920004
000300 60 37 60 bd 56 ba 4e 3e d0 b0 f8 3d 2e 4c 73 3e
       -0.05474031 0.20188269 0.12143099 0.23759529
000310 1c da 51 3e 58 ea 02 3d 06 73 18 3e c4 f6 ab 3d
       0.20493358 0.03196177 0.14887628 0.08396676
000320 7c 25 6a 3e 10 a0 2b 3d 0c ba 1d be a0 1c 7f 3e
       0.22865862 0.041900694 -0.15403003 0.24913263
000330 82 fb 40 be 50 9e 2a 3d 88 22 4f 3e 78 33 05 be
       -0.18845943 0.041654885 0.20228016 -0.13007915
000340 e4 9f 08 3e 78 e3 2b 3e f6 c1 76 3e a8 f6 04 3e
       0.13342243 0.16785991 0.24097428 0.12984717
000350 80 fd ed 3d d0 83 ec 3c 28 3c df 3d ba a4 74 3e
       0.11620617 0.028871447 0.10900146 0.23890963
000360 80 07 09 3d 60 12 40 3d a6 69 70 be 06 8d 0a be
       0.03345442 0.046892524 -0.23477802 -0.13530359
000370 a2 95 71 3e d4 21 79 be 80 df f0 bd cb eb af 39
       0.23592237 -0.2432931 -0.11761379 0.0003355428
000380 fc 80 97 3d 0b a7 83 39 24 7c 58 3e 00 77 2b 3e
       0.07397649 0.00025110724 0.21141106 0.16744614
000390 40 3a ac bd 00 95 13 bb d8 c3 33 3d 38 04 5c be
       -0.08409548 -0.002251923 0.043887943 -0.21485984
0003a0 28 4f 6c 3e 48 0b 9f bd 10 b1 40 3e c0 dd 07 bd
       0.2307707 -0.077658236 0.18817544 -0.03317046
0003b0 6e 6d 29 3e 80 85 5c be 40 9e cd bd 8c ed 59 3e
       0.1654565 -0.21535301 -0.100399494 0.21282023
0003c0 f4 90 aa bd 60 3f 3e 3d 74 6e ae bd f0 60 21 3d
       -0.08328429 0.046447158 -0.08517161 0.039399087
0003d0 a0 cf 72 3e 80 26 f1 bb e0 24 3a 3d 50 69 ad 3c
       0.23712015 -0.007359326 0.045445323 0.021168381
0003e0 00 95 8c bd 2e 7b 31 be 00 9b 16 be 02 9f 06 be
       -0.06864357 -0.17332146 -0.14707565 -0.13146594
0003f0 cc 38 89 bd 40 4d fe 3b ac 86 b6 bd 72 7b 69 be
       -0.06700286 0.0077606738 -0.08912405 -0.22800997

lstm.bias_ih_l2 f4 [64]
000000 b9 31 42 3c d2 24 0e 3e 2c 4e 66 be 35 1f 26 bd
       0.011852675 0.13881233 -0.22490758 -0.040557105
000010 e3 d6 21 bd e2 2f 1c 3e 94 85 a9 3d 30 8f bd 3d
       -0.039511573 0.15252641 0.08277431 0.092558265
000020 c8 46 05 3d da 5d 6e 3e 74 32 5d 3e 6e 52 3f be
       0.032538205 0.23277989 0.21601278 -0.18683788
000030 90 97 b3 3d e3 ec 58 bd 4e 5d e9 3d 66 4e 2f be
       0.08769143 -0.052960288 0.113947496 -0.1711975
000040 a8 86 7a bd b4 87 18 3e 1a ff 14 3e 8a c9 25 3e
       -0.061163574 0.14895517 0.14550439 0.16190162
000050 c0 c7 ef 3d fe c8 39 be ba 23 1b 3e d0 08 17 bd
       0.11708021 -0.18143079 0.15150347 -0.03687364
000060 32 c5 56 3e 4a 72 23 be 2d 3f 87 bd 08 5e 11 3d
       0.20973662 -0.15961567 -0.06603847 0.035490066
000070 24 6d e9 3d b8 cd 42 be 2a 8b 68 be 18 2b cf 3d
       0.1139777 -0.19023788 -0.22709337 0.10115641
000080 a4 d0 28 bd f8 b4 f4 3d 27 56 57 be 8e ae df bd
       -0.0412146 0.119485795 -0.21028958 -0.109219655
000090 36 8b 27 3d a7 08 ee bd a4 f9 2e 3e 25 cb a0 bd
       0.040904246 -0.11622744 0.17087418 -0.07851247
0000a0 4c b3 62 3e 33 c6 20 be a0 92 73 3d b6 b9 aa bd
       0.22138709 -0.15700607 0.059466004 -0.08336203
0000b0 b4 ee 81 bd 2a 6f 38 3e 85 00 93 3c 3c be 40 3e
       -0.06344357 0.18011156 0.017944584 0.18822569
0000c0 20 f4 00 be b4 4d a0 bd ec 58 dd bd 23 6f 09 3d
       -0.12593126 -0.07827321 -0.10807976 0.033553254
0000d0 0c c0 1d be 88 7d 07 3d 86 0d 04 3e d0 47 5e 3c
       -0.15405291 0.0330787 0.12895784 0.013566926
0000e0 14 09 94 3d 04 49 d0 bd bb 95 66 3e 40 25 07 3d
       0.07228294 -0.101701766 0.22518055 0.03299451
0000f0 84 e6 c5 bb 4a 16 05 3d 22 9d 03 3e dc d8 67 3e
       -0.0060394425 0.03249196 0.1285291 0.22641319

lstm.bias_hh_l2 f4 [64]
000000 5c de 8b bc 10 8b cc bc 24 30 d9 3d 03 79 45 3d
       -0.017073803 -0.024968654 0.10604885 0.04821111
000010 55 e7 2d 3d ec 75 56 3e 8e ed 69 3e ce 89 1f be
       0.042456944 0.20943421 0.22844526 -0.15579912
000020 88 d9 85 bd e8 ea 38 bd 31 d0 a3 3d 82 ba 6b 3e
       -0.065356314 -0.0451459 0.07998694 0.23020366
000030 b1 34 91 bc 58 40 a2 bd 20 60 50 3e 20 aa 15 bd
       -0.01772532 -0.07922429 0.20349169 -0.036539197
000040 d8 92 cd bd c2 e7 5c 3e 90 d8 82 3d 02 60 67 3e
       -0.10037774 0.21572784 0.06388962 0.22595218
000050 2e c0 4b bd 98 66 13 3e 98 85 08 3d 18 dc 77 bd
       -0.049743824 0.14394605 0.03333053 -0.060512632
000060 b0 92 c0 3c 0c 77 89 3d 2c 10 2a 3e 10 7f 1a bd
       0.023507446 0.067121595 0.16607732 -0.037718832
000070 68 28 28 3d e0 05 35 3e 0c d2 c5 bd 90 b7 bb 3c
       0.04105416 0.17678022 -0.09659204 0.022914678
000080 fa e9 3a 3e 22 dd 33 3e 5c 50 5d bd 79 29 51 be
       0.18253317 0.17564824 -0.054031715 -0.20425977
000090 88 1f 60 be a1 72 16 3e c4 a6 43 be 61 f4 43 3d
       -0.21887028 0.14692165 -0.19106585 0.04784048
0000a0 8a 27 14 3e 9a dd b0 bd 5a b2 40 3e 30 46 45 3e
       0.14468208 -0.08636017 0.18818036 0.19265056
0000b0 d8 49 bd bd 98 2a 75 be b8 1a 33 be e9 32 c6 3d
       -0.092426 -0.2394203 -0.17490661 0.09677679
0000c0 e2 d1 d7 bd cc 26 bf bd 5f 9e 59 3c 44 a9 57 3e
       -0.10538079 -0.09333572 0.0132823875 0.21060663
0000d0 34 ef 82 3d e8 5c 71 3d 9c da 2a be cc 2b bf 3d
       0.063932806 0.058926493 -0.16684955 0.093345255
0000e0 9c 4f 80 bd b6 7e 16 3c e4 6e 8b bb e0 35 de 3c
       -0.06265184 0.009185484 -0.0042551626 0.027125299
0000f0 d4 de 78 be 8a 3b 69 3e 4c 46 2c 3e 06 1d 3f be
       -0.24303752 0.22776619 0.16823691 -0.18663415
