notebooks/lightning_logs/version_0/checkpoints/epoch=49-step=449.ckpt (torch, 71752 bytes, 27 tensors)

lstm.weight_ih_l0 f4 [80, 1]
-0.40321454 -0.55267817 -0.2961388 0.011888713 0.16270667 -0.02078564 0.30251554 -0.5261953
-0.29365122 -0.39832258 -0.27791744 -0.14564054 -0.54465723 -0.54053766 0.5471009 -0.38142976
-0.34865078 -0.30370897 -0.36656567 -0.21419944 0.21581633 0.09762872 -0.15032023 0.16574842
-0.035885517 -0.06609192 0.17661506 0.17279594 0.17479375 -0.21809691 -0.0009177663 -0.20731927
0.033394672 -0.04179582 0.1813977 0.032603282 0.014626284 -0.047826286 -0.1882439 0.14325573
0.4854527 0.495781 0.74486774 0.23543864 0.47820106 -0.1413604 -0.4087523 -0.5310194
0.5882287 0.086733624 0.54515576 -0.63155204 0.76305056 -0.54381794 0.5132872 -0.7290705
0.6853149 0.52248454 -0.14918998 -0.06282569 -0.1795828 -0.5563607 -0.4789835 0.32187364
0.0464051 0.30023882 0.3155395 -0.25659898 -0.42037854 -0.02935464 -0.23792061 -0.21455136
-0.43900046 -0.20380865 0.7103464 -0.55324936 -0.15559597 -0.4910029 -0.18279201 0.10052301
00000000: 2372 cebe 517c 0dbf 819f 97be e0c8 423c
00000010: 949c 263e a646 aabc 51e3 9a3e bcb4 06bf
00000020: 7459 96be f0f0 cbbe 324b 8ebe cb22 15be
00000030: a86e 0bbf ad60 0abf ce0e 0c3f c34a c3be
00000040: 5b82 b2be be7f 9bbe 7fae bbbe 1957 5bbe
00000050: f5fe 5c3e 91f1 c73d 8ced 19be f4b9 293e
00000060: b1fc 12bd 335b 87bd 94da 343e 6bf1 303e
00000070: 22fd 323e cc54 5fbe 4196 70ba 814b 54be
00000080: dac8 083d 1832 2bbd 52c0 393e 058b 053d
00000090: 15a3 6f3c 7fe5 43bd 02c3 40be a1b1 123e
000000a0: 428d f83e 02d7 fd3e a7af 3e3f d416 713e
000000b0: c5d6 f43e c8c0 10be fb47 d1be e3f0 07bf
000000c0: 2896 163f 66a1 b13d 548f 0b3f 65ad 21bf
000000d0: 4857 433f a737 0bbf ca66 033f 5da4 3abf
000000e0: cc70 2f3f 8cc1 053f 42c5 18be c1aa 80bd
000000f0: 8ee4 37be a86d 0ebf 533d f5be 9fcc a43e
00000100: 4613 3e3d e7b8 993e 658e a13e f160 83be
00000110: db3b d7be 2479 f0bc 76a1 73be 5ab3 5bbe
00000120: abc4 e0be 37b3 50be 43d9 353f c0a1 0dbf
00000130: 8d54 1fbe bb64 fbbe d42d 3bbe 02df cd3d

lstm.weight_hh_l0 f4 [80, 20]
-0.02339515 -0.17133223 -0.074592195 -0.20150873 0.14374775 0.04483911 0.029067175 0.2015538
0.0423058 0.21416892 -0.19142702 0.19374369 -0.19832826 -0.17295697 -0.22121717 0.10431903
0.12475728 -0.10593004 0.18426706 0.014504147 -0.14023325 -0.085894264 -0.18351856 -0.028528912
0.03994552 0.085517585 0.030624153 0.0073097437 0.11186172 -0.09627558 -0.13497232 0.13502148
0.017334161 0.18324137 0.19542673 0.16157627 -0.16204526 0.037432205 -0.06826323 0.17433469
0.11538882 0.15433069 0.027322274 0.0019349862 0.059417944 0.20252195 -0.1711286 -0.18978445
0.02725838 0.13388945 0.105108924 0.22210054 -0.15069011 0.030308893 -0.20757857 -0.17067793
0.08143645 0.15926407 -0.17846593 -0.09422912 -0.17901678 0.024710571 -0.07492995 -0.06746681
-0.07402522 -0.014642837 -0.12658596 0.04599137 -0.02964348 -0.08762576 0.019005014 0.09369813
0.015781183 -0.09916203 -0.13741256 -0.1170827 -0.16863489 0.20841962 0.046631485 0.11409323
0.18515947 -0.18464246 -0.07618212 -0.07529061 -0.15295054 0.092110954 0.21873048 0.2174046
-0.105485685 -0.08715189 0.1197753 -0.11539561 0.2185274 0.040776946 0.073770285 -0.18613671
0.017007919 -0.17087702 -0.16736788 0.09960158 -0.08635573 -0.17749383 -0.13843898 -0.09680174
0.054284986 0.08397716 0.055514254 0.18167236 -0.11408512 -0.07238599 -0.13700497 -0.019862724
-0.060950454 -0.056931525 0.06886854 -0.016632123 -0.09982912 -0.16713236 0.12517163 0.1433011
0.17418362 0.21081804 -0.21225826 -0.116844766 0.039735977 0.1829105 0.057841748 -0.110959575
-0.10377591 -0.020441106 -0.013458164 -0.06003775 -0.0012447556 0.2019071 -0.021000749 -0.07244106
-0.12749611 -0.02980656 0.18855047 0.09224959 -0.19214737 0.15265493 0.12787633 0.0637577
0.053893782 0.20656446 0.058891784 0.04193723 -0.17030789 -0.059463955 0.071755864 0.0029552183
0.0122022405 -0.07339068 0.06638252 -0.014808319 0.16967313 -0.17717586 0.0732458 -0.13616672
0.18897858 -0.21587479 0.17143528 0.07564359 -0.21061826 -0.20814504 0.05711452 -0.18424235
0.15228415 -0.14017847 0.20234314 0.05903967 -0.065073155 0.09350807 -0.06436783 -0.025132697
-0.20162441 -0.06836349 -0.20451955 -0.012750768 0.06346193 0.030554475 -0.17748603 0.11691623
0.18547769 0.21763721 0.0062991343 -0.03261072 0.19258387 -0.18060698 0.15862063 0.12940465
-0.15950209 -0.22212283 -0.038750716 -0.10742131 0.0040041585 0.026766576 0.17356609 -0.21111505
-0.08083293 0.018684449 -0.21322109 -0.14371683 0.024206134 0.19353898 0.22026452 0.2093236
-0.15809241 -0.1886511 0.18033057 0.14756857 -0.11845778 -0.08325775 0.19927527 -0.14735596
0.0010372652 -0.19416057 0.12874268 0.056463342 -0.17936206 0.14955175 0.127337 -0.057507243
-0.15172048 -0.16943108 -0.09464709 -0.0608667 0.15054916 0.12587598 -0.016810931 0.22166586
0.21759774 -0.025147704 0.14068924 -0.08416368 0.08001611 0.20444313 -0.092809446 0.037787847
0.21708626 0.02637236 0.03279398 0.21895479 0.11090056 0.13583507 0.008472292 -0.13941076
0.1803634 0.19292821 -0.17919922 -0.11182661 0.03932585 -0.14939395 0.057518333 0.084329635
00000000: 30a7 bfbc b771 2fbe cbc3 98bd 4e58 4ebe
00000010: 9c32 133e 37a9 373d 491e ee3c 1f64 4e3e
00000020: d948 2d3d 194f 5b3e 7205 44be bf64 463e
00000030: 9016 4bbe a21b 31be c186 62be 37a5 d53d
00000040: bf80 ff3d d9f1 d8bd 81b0 3c3e cda2 6d3c
00000050: 4e99 0fbe 55e9 afbd 4aec 3bbe 77b5 e9bc
00000060: ea9d 233d d823 af3d 81df fa3c 9386 ef3b
00000070: c217 e53d 222c c5bd 2f36 0abe 1243 0a3e
00000080: 5f00 8e3c a0a3 3b3e f21d 483e 4074 253e
00000090: 31ef 25be 8352 193d 98cd 8bbd cb84 323e
000000a0: f950 ec3d dd08 1e3e f6d2 df3c 5d9f fd3a
000000b0: 3b60 733d ea61 4f3e 563c 2fbe db56 42be
000000c0: f74c df3c 511a 093e 5943 d73d 536e 633e
000000d0: 824e 1abe 5b4a f83c 7a8f 54be 32c6 2ebe
000000e0: 27c8 a63d 1f16 233e c6bf 36be 32fb c0bd
000000f0: 2d50 37be d36d ca3c e074 99bd 0a2c 8abd
00000100: 899a 97bd 83e8 6fbc c09f 01be 7261 3c3d
00000110: e2d6 f2bc 2275 b3bd 67b0 9b3c cee4 bf3d
00000120: 8a47 813c 7615 cbbd e1b5 0cbe 0ec9 efbd
00000130: a0ae 2cbe f46b 553e a800 3f3d b6a9 e93d
00000140: 729a 3d3e ea12 3dbe 5f05 9cbd f731 9abd
00000150: 119f 1cbe aba4 bc3d e2fa 5f3e 509f 5e3e
00000160: e108 d8bd b17c b2bd c14c f53d 8954 ecbd
00000170: a6c5 5f3e ba05 273d e014 973d 9f9a 3ebe
00000180: 3154 8b3c 63fa 2ebe 7c62 2bbe eafb cb3d
00000190: 46db b0bd f1c0 35be f3c2 0dbe fe3f c6bd
000001a0: ef59 5e3d 38fc ab3d ea62 633d 5208 3a3e
000001b0: 76a5 e9bd 1b3f 94bd 084b 0cbe 27b7 a2bc
000001c0: 2fa7 79bd 0831 69bd f30a 8d3d 1740 88bc
000001d0: 3673 ccbd bf24 2bbe fe2c 003e 86bd 123e
000001e0: 315d 323e afe0 573e 3b5a 59be 4f4c efbd
000001f0: 31c2 223d e44c 3b3e 78eb 6c3d c63e e3bd
00000200: 7788 d4bd 1b74 a7bc a27f 5cbc 25ea 75bd
00000210: 1127 a3ba bcc0 4e3e c309 acbc fa5b 94bd
00000220: 578e 02be e32c f4bc 6013 413e 5aed bc3d
00000230: 48c2 44be 9351 1c3e 03f2 023e 6693 823d
00000240: babf 5c3d a285 533e 8338 713d 5fc6 2b3d
00000250: 3165 2ebe 7a90 73bd bdf4 923d 56ac 413b
00000260: e8eb 473c da4d 96bd 8ff3 873d 979e 72bc
00000270: cbbe 2d3e 976d 35be e501 963d 4a6f 0bbe
00000280: 9a83 413e 480e 5dbe bb8c 2f3e 07eb 9a3d
00000290: 50ac 57be f923 55be eaf0 693d 07aa 3cbe
000002a0: 60f0 1b3e f28a 0fbe 0a33 4f3e 95d3 713d
000002b0: 1345 85bd 2981 bf3d 48d3 83bd 16e3 cdbc
000002c0: a176 4ebe 2802 8cbd 936d 51be 99e8 50bc
000002d0: 54f8 813d 614d fa3c e6be 35be c771 ef3d
000002e0: dded 3d3e 4adc 5e3e f868 ce3b d192 05bd
000002f0: b534 453e 09f1 38be 726d 223e a782 043e
00000300: 8454 23be 2b74 63be 12b9 1ebd b4ff dbbd
00000310: 5135 833b 9445 db3c 4fbb 313e 8b2e 58be
00000320: bc8b a5bd 2110 993c a156 5abe 812a 13be
00000330: f14b c63c 152f 463e 068d 613e ed58 563e
00000340: fae2 21be c12d 41be 94a8 383e 371c 173e
00000350: fe99 f2bd 0a83 aabd d10e 4c3e 7be4 16be
00000360: d8f4 873a 07d2 46be 1fd5 033e 1b46 673d
00000370: b0aa 37be 1824 193e a164 023e b78c 6bbd
00000380: 9d5c 1bbe 577f 2dbe 55d6 c1bd 5c4f 79bd
00000390: 8f29 1a3e a2e5 003e 14b7 89bc 60fc 623e
000003a0: f1d1 5e3e 8f02 cebc d710 103e 025e acbd
000003b0: 7cdf a33d 8a59 513e e112 bebd 6ec7 1a3d
000003c0: dc4b 5e3e d90a d83c fb52 063d af35 603e
000003d0: d51f e33d 5918 0b3e 5ecf 0a3c b2c1 0ebe
000003e0: 2fb1 383e f98e 453e 0080 37be 5a05 e5bd
000003f0: 2414 213d bafa 18be 5898 6b3d 04b5 ac3d

lstm.bias_ih_l0 f4 [80]
0.27741104 0.28714198 0.15778905 0.08285522 0.21265352 -0.29394487 -0.1357807 0.19798163
0.45078278 -0.34107873 0.3422286 0.25786752 0.4573674 0.19631706 0.053733002 0.21543069
0.18806313 0.08457949 0.025524503 -0.011215327 0.08533609 -0.085481204 0.11777621 -0.15039757
0.17466861 -0.021375772 0.1659334 0.085009925 -0.18426159 0.17832866 -0.022467894 0.15112235
-0.095767036 0.19423044 0.05553627 0.14675267 -0.1473507 0.12889153 0.12116093 -0.17218287
0.060046934 0.13484481 0.21033046 -0.06621415 0.21294942 0.11967451 -0.14560592 0.18841708
0.12746625 -0.101274125 0.03003356 0.0635699 0.0002846812 0.08953002 0.33238968 0.053837087
0.14658585 -0.1318357 0.07732228 -0.06518978 -0.08635067 0.29718128 0.21595873 -0.03624856
0.06392143 -0.21703635 0.17085692 0.25477788 0.25344416 -0.21012397 0.010420593 0.07718371
0.3869653 0.009549729 0.21310195 0.41966033 0.46444088 0.096003875 -0.23679867 -0.08738592
00000000: d208 8e3e 4604 933e 7493 213e ffaf a93d
00000010: d8c1 593e f17f 96be 190a 0bbe b2bb 4a3e
00000020: 00cd e63e dfa1 aebe 9638 af3e 3607 843e
00000030: 0f2c ea3e 5707 493e 2317 5c3d dd99 5c3e
00000040: 9f93 403e 0338 ad3d c318 d13c 7ec0 37bc
00000050: b0c4 ae3d c510 afbd a734 f13d d201 1abe
00000060: 54dc 323e 3e1c afbc 72ea 293e af19 ae3d
00000070: 12af 3cbe ca9b 363e 970e b8bc d1bf 1a3e
00000080: 8221 c4bd 58e4 463e 007a 633d 5546 163e
00000090: 1ae3 16be 24fc 033e 3923 f83d b550 30be
000000a0: c6f3 753d c214 0a3e de60 573e 499b 87bd
000000b0: 6a0f 5a3e e917 f53d b819 15be 68f0 403e
000000c0: 8386 023e cf68 cfbd f108 f63c f030 823d
000000d0: 4441 9539 845b b73d fb2e aa3e 4784 5c3d
000000e0: 9a1a 163e f0ff 06be 255b 9e3d 3882 85bd
000000f0: 9fd8 b0bd 2528 983e 4924 5d3e 5f79 14bd
00000100: 3de9 823d c73e 5ebe 1ef5 2e3e 3f72 823e
00000110: 6fc3 813e bd2a 57be 23bb 2a3c 7e12 9e3d
00000120: 5120 c63e 7776 1c3c 6637 5a3e b8dd d63e
00000130: 32cb ed3e ae9d c43d 5a7b 72be 64f7 b2bd

lstm.bias_hh_l0 f4 [80]
0.06587108 0.297984 0.29951584 0.074253954 0.16374941 -0.33707705 -0.17828593 0.0634452
0.37163633 -0.19965145 0.3205064 0.22381221 0.51441276 0.10726105 0.1429138 0.47228655
0.39310554 0.22280265 0.0165748 -0.018224789 -0.076521695 -0.08358463 0.1718227 -0.19304891
0.18059506 0.022318622 -0.1551683 0.1934029 0.029899057 -0.120544806 -0.20744744 -0.075942434
0.029894846 0.094258785 -0.040965937 0.08552449 0.19328575 -0.13334145 -7.871519e-05 -0.1784537
-0.015317056 -0.2241148 -0.13266368 0.25193852 -0.03585571 -0.2501998 -0.050619856 -0.069823116
-0.027097734 0.06537361 -0.042535506 -0.09636833 0.06082955 0.07787341 -0.014059414 -0.14848672
-0.0019793154 0.118278 -0.055526685 -0.075069726 0.09187754 0.06737886 0.15097342 -0.13032311
-0.013473782 0.040342413 -0.1023327 0.314045 0.15364555 -0.23263718 0.31777337 0.17513591
0.3529201 0.123947024 0.10527644 0.2134197 0.41742867 0.2869528 -0.30615175 -0.32098255
00000000: 6be7 863d 5c91 983e 245a 993e 7512 983d
00000010: edad 273e 5d95 acbe 9690 36be 8fef 813d
00000020: 1e47 be3e 6e71 4cbe 6a19 a43e 072f 653e
00000030: 8eb0 033f aeab db3d ff57 123e 8bcf f13e
00000040: 2145 c93e 6126 643e e0c7 873c 274c 95bc
00000050: 68b7 9cbd 6b2e abbd 4af2 2f3e 9dae 45be
00000060: e9ed 383e 8bd5 b63c 70e4 1ebe 690b 463e
00000070: deee f43c 32e0 f6bd 1a6d 54be b587 9bbd
00000080: 09e6 f43c c00a c13d e6cb 27bd 7727 af3d
00000090: b3ec 453e a98a 08be e513 a5b8 91bc 36be
000000a0: 64f4 7abc 5a7e 65be fdd8 07be 16fe 803e
000000b0: 70dd 12bd 301a 80be c456 4fbd 6cff 8ebd
000000c0: 11fc ddbc 99e2 853d b639 2ebd c25c c5bd
000000d0: 6828 793d 187c 9f3d 7559 66bc e70c 18be
000000e0: 67b7 01bb bc3b f23d f36f 63bd 28be 99bd
000000f0: 4b2a bc3d eefd 893d c798 1a3e 6c73 05be
00000100: 23c1 5cbc 163e 253d ce93 d1bd 82ca a03e
00000110: 4255 1d3e 7138 6ebe 31b3 a23e d456 333e
00000120: f1b1 b43e f0d7 fd3d 2d9b d73d b28a 5a3e
00000130: 36b9 d53e 7aeb 923e ecbf 9cbe d357 a4be

lstm.weight_ih_l1 f4 [80, 20]
0.42657548 0.20857264 0.27946612 0.14059113 0.10676404 0.16723832 -0.11301469 -0.12644145
0.051459048 0.10906794 0.38707852 -0.3887331 0.26929948 -0.19186237 -0.06762414 0.013702132
0.33861408 0.08323645 -0.42997086 0.12742557 -0.2717733 -0.3085547 -0.5126257 0.09224537
-0.15105872 0.13798767 -0.06957201 0.06592227 -0.43445817 0.15915571 -0.16533758 0.29414362
-0.5555714 0.20197374 -0.13800748 0.28777805 -0.24511595 -0.39295414 0.1950139 0.11836496
0.23242958 0.04167325 -0.13614126 0.0661089 0.2987763 -0.06282022 -0.09028942 0.019160591
-0.06517239 0.285289 -0.103621356 -0.013639353 -0.029951856 -0.20472333 -0.0019935367 -0.061514914
0.029958842 0.0045091747 -0.06838085 0.14548999 -0.108025 0.14155973 -0.28895712 0.015215254
0.036647532 0.0606797 0.034568276 0.20360516 -0.28179622 0.1347053 0.16212869 -0.03931497
-0.045128807 0.021153564 -0.18828592 0.07724799 0.0778339 0.14626485 -0.11488201 0.10889706
-0.2116572 -0.41298914 -0.5424884 -0.014930706 -0.08435795 -0.12483096 0.16406189 0.105363056
-0.3877604 0.091601685 -0.41903523 0.2576991 -0.4581831 0.107274935 -0.4662781 0.17964993
-0.6070835 -0.2763591 -0.0053381105 -0.006900978 -0.09346353 -0.20533334 -0.2359477 0.16161598
0.0024607934 -0.16070743 -0.104872875 -0.08506532 -0.05106269 -0.24720564 -0.29529336 0.22854331
-0.38154083 -0.049908016 -0.3451167 0.15478784 -0.41656375 -0.1693544 0.022612987 -0.060256224
-0.0556632 0.04329201 -0.125574 0.0632011 -0.3285916 -0.17786554 0.1633159 0.20755748
-0.09325595 -0.2283621 -0.11848505 -0.051928658 -0.38968813 0.033790737 -0.06699423 0.40933836
-0.08773247 -0.12153284 -0.15707724 -0.038881 -0.16582787 -0.26722395 -0.17301363 0.0231303
-0.28057674 -0.025200032 0.15530197 0.1976825 0.032296263 0.06538097 0.013154029 0.23700637
-0.2872973 0.0376211 -0.41486728 0.29384398 -0.23031184 -0.06987622 -0.017976535 -0.17555088
0.08411299 0.062162254 -0.046391122 0.12689768 0.336577 0.040763874 -0.091655105 0.004920196
-0.05288277 0.08316924 -0.025229434 -0.2208412 -0.12607148 -0.2421038 0.14023419 -0.07698873
-0.19333038 0.14565805 -0.27539173 0.13359398 0.5868097 0.2256774 0.021833906 -0.020627711
0.35370633 0.03427768 -0.029580293 -0.23158658 0.17660394 0.26517916 0.37608945 -0.18251744
0.34688962 -0.3821078 0.12274251 -0.19129962 0.39809474 0.2963801 -0.11497206 -0.05987913
-0.35081717 -0.194415 -0.46271726 0.0039790873 -0.3184209 -0.10068986 0.22837725 0.18419139
-0.40535668 0.1271193 -0.42714867 0.09125932 -0.21255113 0.12029612 -0.2601376 0.36127478
-0.3657494 -0.362309 0.11128267 0.0039081015 0.1068632 0.012108095 -0.17090426 -0.025578361
0.16972977 -0.0687756 0.02760181 -0.10031176 -0.14551249 0.018175779 -0.047629904 -0.18636453
-0.014947296 0.07598863 -0.11485945 0.15833354 -0.07729992 -0.025482625 0.038399924 0.041129723
-0.22420417 -0.2781895 -0.44160485 0.02735498 -0.27058175 0.02033541 0.03532125 0.3485152
-0.10959432 -0.054649457 -0.22049837 0.008910225 -0.25130245 0.3027864 -0.26742122 0.30062467
00000000: 1a68 da3e 1194 553e 2f16 8f3e 1ff7 0f3e
00000010: 1ba7 da3d 8640 2b3e 3f74 e7bd de79 01be
00000020: b9c6 523d 035f df3d 282f c63e 0608 c7be
00000030: 9fe1 893e 9277 44be 867e 8abd e87e 603c
00000040: d35e ad3e df77 aa3d 2425 dcbe d97b 023e
00000050: df25 8bbe e2fa 9dbe 703b 03bf 24eb bc3d
00000060: 23af 1abe a44c 0d3e c57b 8ebd 4102 873d
00000070: 4d71 debe b7f9 223e 414e 29be fe99 963e
00000080: ed39 0ebf 34d2 4e3e d551 0dbe a557 933e
00000090: adff 7abe 4931 c9be b9b1 473e 5469 f23d
000000a0: 0502 6e3e 92b1 2a3d 9d68 0bbe 1a64 873d
000000b0: 35f9 983e e3a7 80bd a9e9 b8bd acf6 9c3c
000000c0: 1a79 85bd 6611 923e 6f37 d4bd 9877 5fbc
000000d0: 985d f5bc fea2 51be ffa5 02bb 10f7 7bbd
000000e0: 3f6c f53c b3c1 933b 420b 8cbd 54fb 143e
000000f0: 363c ddbd 09f5 103e 30f2 93be 6749 793c
00000100: b91b 163d 478b 783d 7797 0d3d df7d 503e
00000110: 9847 90be 30f0 093e 1005 263e bc08 21bd
00000120: fcd8 38bd 3d4a ad3c 06ce 40be 3234 9e3d
00000130: 6167 9f3d 74c6 153e 4247 ebbd 6c05 df3d
00000140: aabc 58be 5073 d3be 85e0 0abf eb9f 74bc
00000150: dcc3 acbd 60a7 ffbd d7ff 273e 96c8 d73d
00000160: 8888 c6be aa99 bb3d c98b d6be 23f1 833e
00000170: fa96 eabe f6b2 db3d 01bc eebe 27f6 373e
00000180: d369 1bbf f17e 8dbe 51eb aebb 9921 e2bb
00000190: cf69 bfbd e742 52be 469c 71be a97e 253e
000001a0: 4345 213b 7d90 24be 97c7 d6bd ba36 aebd
000001b0: 1c27 51bd 7a23 7dbe b130 97be 4207 6a3e
000001c0: 5259 c3be 596c 4cbd 23b3 b0be b480 1e3e
000001d0: d847 d5be 3d6b 2dbe df3e b93c 3bcf 76bd
000001e0: 18ff 63bd f652 313d 7896 00be 946f 813d
000001f0: 283d a8be 6222 36be 493c 273e f389 543e
00000200: fafc bebd c1d7 69be 4aa8 f2bd 25b3 54bd
00000210: 3485 c7be 2868 0a3d 4534 89bd cc94 d13e
00000220: 15ad b3bd 36e6 f8bd dbd8 20be af41 1fbd
00000230: c8ce 29be 94d1 88be 7c2a 31be c17b bd3c
00000240: c1a7 8fbe 4c70 cebc 7b07 1f3e 486d 4a3e
00000250: 1649 043d 75e6 853d ff83 573c ccb1 723e
00000260: a218 93be 9518 1a3d 7c69 d4be b872 963e
00000270: ded6 6bbe 431b 8fbd 8743 93bc 9cc3 33be
00000280: 6e43 ac3d d99d 7e3d 9e04 3ebd 77f1 013e
00000290: d253 ac3e 05f8 263d acb5 bbbd 9839 a13b
000002a0: 9a9b 58bd a254 aa3d f5ad cebc 3224 62be
000002b0: e218 01be 0fea 77be 8d99 0f3e 44ac 9dbd
000002c0: 66f8 45be 6227 153e 2500 8dbe dccc 083e
000002d0: 2939 163f fa17 673e 05dd b23c 72fb a8bc
000002e0: ff18 b53e c166 0c3d 5f52 f2bc 0825 6dbe
000002f0: aad7 343e 90c5 873e cc8e c03e dae5 3abe
00000300: 849b b13e a2a3 c3be 6d60 fb3d 0ce4 43be
00000310: 13d3 cb3e 22bf 973e 7976 ebbd d243 75bd
00000320: 4f9e b3be ba14 47be 47e9 ecbe 0163 823b
00000330: 1008 a3be 7c36 cebd badb 693e ab9c 3c3e
00000340: e98a cfbe 902b 023e 3bb3 dabe 2be6 ba3d
00000350: 01a7 59be d05d f63d c130 85be 02f9 b83e
00000360: 8143 bbbe 9180 b9be 2be8 e33d 880f 803b
00000370: 18db da3d 0861 463c 8701 2fbe b689 d1bc
00000380: a4cd 2d3e 39da 8cbd 311d e23c 4170 cdbd
00000390: 3a01 15be 5fe5 943c 9317 43bd 58d6 3ebe
000003a0: 81e5 74bc ed9f 9b3d 6e3b ebbd 3022 223e
000003b0: 6c4f 9ebd f0c0 d0bc 3d49 1d3d a477 283d
000003c0: c795 65be db6e 8ebe 081a e2be 8d17 e03c
000003d0: b189 8abe 7296 a63c 04ad 103d 9670 b23e
000003e0: fd72 e0bd 1cd8 5fbd 53ca 61be 31fc 113c
000003f0: b7aa 80be d206 9b3e 6feb 88be 7aeb 993e

lstm.weight_hh_l1 f4 [80, 20]
0.09019641 -0.1139362 -0.14257933 -0.21733722 0.037214983 -0.010872559 0.029266138 0.03324628
0.20728365 -0.066717 -0.074252866 -0.06310165 0.17662649 0.13196173 0.14167948 0.07985175
-0.074620746 0.05705289 -0.13807948 -0.18841745 -0.17782539 0.089947015 -0.094552726 0.19374341
-0.15526298 0.2149154 -0.15399727 0.12659109 -0.20213552 0.17513287 0.026277358 -0.2010427
-0.15563701 0.17561412 0.08182976 -0.0301718 0.14502966 0.08495328 -0.08476442 0.1742169
0.12371085 0.05538697 -0.1172637 -0.006330322 -0.018204773 0.17920144 0.06773283 -0.14717768
-0.17679925 0.06261331 0.013148209 -0.046276134 0.10938394 -0.046048652 -0.020784115 -0.018893512
-0.15037318 0.12266028 -0.1604945 -0.09837693 -0.09004176 -0.15295912 -0.19304067 0.020959405
0.08903395 0.07196141 -0.008695376 0.047498178 -0.19909497 -0.07515043 -0.109228745 -0.07543845
-0.1146352 0.08968158 -0.01122975 0.058241643 0.16835676 -0.092728384 -0.06743794 -0.0013064109
0.07426305 -0.21073936 -0.18412322 0.051537737 -0.16337489 0.16166708 0.14711058 0.13819002
-0.1616967 -0.10045836 -0.16811047 0.20941018 -0.16582574 0.0796035 -0.051245347 -0.0897081
-0.08628091 -0.18493125 0.10794571 -0.053677842 -0.22067498 -0.07580009 -0.18875761 0.21638949
0.20237966 -0.07550789 -0.08349901 -0.014077064 -0.1259165 0.18188833 0.12189297 -0.08174217
0.21868084 -0.15482345 -0.13339692 -0.18337376 -0.061804697 -0.064135954 0.13931546 -0.21171251
0.045989104 -0.005153406 0.20107132 0.13554487 0.19777773 0.21346411 0.18724726 0.15330896
-0.14941832 -0.13810237 0.19243686 -0.035760287 -0.08514997 -0.055524305 -0.2021981 0.11101793
-0.16077186 0.0421279 -0.16726106 0.07175517 -0.1836795 0.19702524 -0.06729181 0.024660433
0.06343652 0.16379309 0.21672615 0.09929038 -0.09157069 0.2031687 0.12700412 0.2000713
-0.022028659 0.004570439 0.16712628 -0.119705595 0.11972724 0.106068596 -0.16323476 0.18415913
-0.21270227 0.1836272 -0.006000747 -0.19168247 0.005071412 -0.21637215 -0.20506771 -0.05105092
-0.02299555 0.12633695 -0.066306606 0.01591665 0.05881067 0.19799976 -0.08966369 -0.06579657
0.0074203927 0.17421322 0.117668755 0.078205846 0.2068166 -0.16973746 0.15212888 0.07175696
0.006381768 0.020829191 0.11190999 -0.18008055 0.110251404 0.11937581 -0.18191096 0.08523381
0.13240753 -0.22106522 -0.011501054 0.13179365 0.046102818 0.08996685 0.1501539 0.13829198
-0.215115 0.0020951089 0.06794992 -0.016438307 0.16711573 0.15282273 0.053473525 0.14554153
0.046451345 -0.03712177 0.1976274 0.12653911 -0.17845117 0.18672423 -0.055719987 -0.009343836
-0.12407094 0.11720857 0.19585565 -0.06363954 0.19169474 0.123977065 0.023637747 -0.18998778
-0.050420716 0.1060086 0.13930325 0.018001787 -0.119864546 -0.15837656 0.0690539 0.12985362
-0.1731409 0.10498092 0.15936376 0.114811845 -0.0447416 0.09699303 -0.16968954 -0.20974885
0.05379766 -0.13408086 0.17347002 -0.09645292 0.11621347 0.008308784 0.06022157 0.0053630555
0.12915401 -0.09988566 -0.003837932 0.13964619 -0.13745303 0.17727135 0.09662824 -0.14788313
00000000: e5b8 b83d 6257 e9bd 5100 12be a68d 5ebe
00000010: bd6e 183d d122 32bc 8abf ef3c 402d 083d
00000020: 2a42 543e eca2 88bd e311 98bd 703b 81bd
00000030: 93dd 343e fa20 073e 6d14 113e 5089 a33d
00000040: c3d2 98bd 4bb0 693d b564 0dbe 81f0 40be
00000050: dc17 36be 2436 b83d dca4 c1bd ac64 463e
00000060: 42fd 1ebe c812 5c3e 76b1 1dbe 18a1 013e
00000070: 9dfc 4ebe 0856 333e 9d43 d73c 23de 4dbe
00000080: 4f5f 1fbe 30d4 333e 5c96 a73d da2a f7bc
00000090: a882 143e fcfb ad3d f898 adbd ea65 323e
000000a0: 1d5c fd3d 73dd 623d f327 f0bd 976e cfbb
000000b0: 2d22 95bc 9580 373e 83b7 8a3d bfb5 16be
000000c0: dd0a 35be 683b 803d 966b 573c 0b8c 3dbd
000000d0: b004 e03d 839d 3cbd 7343 aabc 91c6 9abc
000000e0: 6dfb 19be 5035 fb3d ac58 24be d879 c9bd
000000f0: d067 b8bd 51a1 1cbe 74ac 45be 0fb3 ab3c
00000100: 6e57 b63d 8160 933d 0d77 0ebc 738d 423d
00000110: 8ddf 4bbe 78e8 99bd 52b3 dfbd 797f 9abd
00000120: dcc5 eabd faaa b73d fcfc 37bc ca8e 6e3d
00000130: b765 2c3e 61e8 bdbd e71c 8abd e03b abba
00000140: 3a17 983d 0fcc 57be cc8a 3cbe 3c19 533d
00000150: bf4b 27be 0e8c 253e 28a4 163e af81 0d3e
00000160: d293 25be 1dbd cdbd 2725 2cbe 9f6f 563e
00000170: 39ce 29be 2907 a33d a4e6 51bd e1b8 b7bd
00000180: 0cb4 b0bd 9e5e 3dbe a412 dd3d 4cdd 5bbd
00000190: 9ff8 61be 143d 9bbd ad49 41be 3595 5d3e
000001a0: 9d3c 4f3e e1a3 9abd 8701 abbd 7ca3 66bc
000001b0: 41f0 00be ef40 3a3e 05a3 f93d 7068 a7bd
000001c0: dfed 5f3e 0a8a 1ebe 3499 08be 55c6 3bbe
000001d0: ec26 7dbd b659 83bd b6a8 0e3e 2acb 58be
000001e0: 125f 3c3d e7dd a8bb a4e5 4d3e 46cc 0a3e
000001f0: 3f86 4a3e 5696 5a3e bfbd 3f3e 06fd 1c3e
00000200: 1e01 19be b56a 0dbe 2b0e 453e 6179 12bd
00000210: 1c63 aebd 746d 63bd 050d 4fbe 5e5d e33d
00000220: 61a1 24be 4e8e 2c3d 7c46 2bbe 60f4 923d
00000230: 7b16 3cbe fcc0 493e 4ad0 89bd ad04 ca3c
00000240: 02eb 813d 60b9 273e 76ed 5d3e c158 cb3d
00000250: 6a89 bbbd 750b 503e 5e0d 023e 7edf 4c3e
00000260: 7275 b4bc 9fc3 953b 2723 2b3e 3528 f5bd
00000270: 8e33 f53d 7e3a d93d 0327 27be 3694 3c3e
00000280: a0ce 59be c508 3c3e eaa1 c4bb 6948 44be
00000290: 162e a63b a990 5dbe 45fd 51be c51a 51bd
000002a0: 2a61 bcbc 795e 013e c2cb 87bd a263 823c
000002b0: 75e3 703d 73c0 4a3e 99a1 b7bd 5ac0 86bd
000002c0: c426 f33b f364 323e 51fc f03d 632a a03d
000002d0: bbc7 533e a8cf 2dbe acc7 1b3e 50f5 923d
000002e0: 261e d13b fba1 aa3c 1131 e53d 0967 38be
000002f0: 7dcb e13d 4e7b f43d de46 3abe 108f ae3d
00000300: d795 073e ec5e 62be eb6e 3cbc eaf4 063e
00000310: 4fd6 3c3d 8a40 b83d f2c1 193e 6a9c 0d3e
00000320: 1b47 5cbe 184e 093b 5429 8b3d a1a9 86bc
00000330: 6320 2b3e 907d 1c3e 0e07 5b3d d708 153e
00000340: c443 3e3d ff0c 18bd d65e 4a3e 7893 013e
00000350: e7bb 36be a334 3f3e a43a 64bd e416 19bc
00000360: e818 febd 0c0b f03d 628e 483e 7255 82bd
00000370: a04b 443e b0e7 fd3d f3a3 c13c 288c 42be
00000380: f485 4ebd 091b d93d 83a5 0e3e 7c78 933c
00000390: 8b7b f5bd 772d 22be 226c 8d3d 59f8 043e
000003a0: d94b 31be 3d00 d73d 4130 233e 7922 eb3d
000003b0: f842 37bd 48a4 c63d 18c3 2dbe 67c8 56be
000003c0: ef5a 5c3d 7e4c 09be 20a2 313e 1c89 c5bd
000003d0: 5401 ee3d 9121 083c e5aa 763d 92bc af3b
000003e0: f340 043e da90 ccbd d085 7bbb 69ff 0e3e
000003f0: 7dc0 0cbe 9f86 353e 07e5 c53d ad6e 17be

lstm.bias_ih_l1 f4 [80]
-0.23754892 0.27609298 -0.1620398 -0.07965709 0.02888579 0.22473 0.18007435 0.06714277
-0.1623008 -0.27711692 -0.04743849 0.059490874 0.32278344 0.27172178 -0.19616134 0.14729746
-0.09475943 -0.09438236 0.1765407 -0.18131396 -0.13584098 -0.14393423 0.11883424 -0.20725462
0.17484128 0.06698945 -0.06810626 0.15340607 -0.2081446 0.15417197 0.20975149 -0.17385067
0.12731512 -0.11485538 -0.102814056 -0.11137549 0.10410922 -0.02395386 -0.17608996 0.07493571
0.12612133 0.18412417 -0.10557032 -0.054867607 -0.13202932 0.14635673 -0.14577048 0.25546134
0.16897945 -0.10541868 0.21313402 -0.065908745 -0.20740168 -0.03175946 0.08547475 -0.20984542
-0.09981703 -0.18047734 -0.22486736 -0.20548286 -0.2748068 0.22903487 -0.19600973 0.15580565
0.12949893 0.08955041 -0.07452977 -0.093255594 0.077174835 0.04927682 -0.10503701 -0.25093445
0.020845238 0.19678652 -0.08442491 0.28219554 0.2862588 0.14131089 -0.15217465 -0.19590773
00000000: 0640 73be 0f5c 8d3e c3ed 25be 4223 a3bd
00000010: e4a1 ec3c 9f1f 663e 6965 383e 2682 893d
00000020: 2e32 26be 45e2 8dbe dd4e 42bd b4ac 733d
00000030: df43 a53e 1e1f 8b3e 85de 48be 25d5 163e
00000040: 3b11 c2bd 8a4b c1bd 16c7 343e 5eaa 39be
00000050: e619 0bbe 7f63 13be 5e5f f33d 8e3a 54be
00000060: 9809 333e c431 893d 4b7b 8bbd 7b16 1d3e
00000070: dc23 55be 42df 1d3e 18c9 563e e905 32be
00000080: e55e 023e 4c39 ebbd 2d90 d2bd d518 e4bd
00000090: 3737 d53d e33a c4bc ed50 34be e577 993d
000000a0: f325 013e 0c8b 3c3e 4035 d8bd dbbc 60bd
000000b0: b232 07be 8ade 153e db44 15be d4cb 823e
000000c0: f308 2d3e c0e5 d7bd ce3f 5a3e 2afb 86bd
000000d0: 1b61 54be 3516 02bd 630d af3d b8e1 56be
000000e0: df6c ccbd 0dcf 38be a143 66be 196a 52be
000000f0: 7ab3 8cbe 1e88 6a3e c6b6 48be 848b 1f3e
00000100: 5e9b 043e 3566 b73d 10a3 98bd cafc bebd
00000110: d70d 9e3d 7ed6 493d a51d d7bd 7b7a 80be
00000120: a2c3 aa3c 6882 493e f8e6 acbd ef7b 903e
00000130: 8390 923e cdb3 103e acd3 1bbe 099c 48be

lstm.bias_hh_l1 f4 [80]
-0.15342 0.06907749 -0.0064620404 0.14788198 0.18305588 0.25403166 0.051705886 0.012547274
0.08089328 -0.06317448 0.20162916 -0.05442161 0.186098 0.057247367 -0.12182592 -0.041663177
0.06579782 -0.15866941 0.044654623 -0.12434977 0.053862516 -0.023418821 -0.18994701 0.20378806
-0.03070055 0.12254326 -0.1875547 -0.051602673 0.058230367 -0.041727714 -0.062307645 -0.21940014
-0.058119692 -0.16052714 0.114014804 0.15759575 -0.093790226 -0.16560823 0.06932689 0.14816742
-0.13690527 0.23439066 0.040905185 0.018631274 -0.124365725 0.0994103 0.035807572 -0.033370268
-0.1705596 0.06018702 0.017761784 0.12026481 0.026954569 -0.23124272 0.08601006 -0.010001775
-0.09909604 0.11868076 -0.19552286 -0.08347221 -0.021790339 0.2900164 -0.13687965 0.02538911
0.06189066 -0.019929597 0.018392822 -0.12702912 0.09959503 0.021070978 0.028935436 0.025091054
0.16507724 0.195463 -0.1535866 0.05213422 0.10455029 0.08284388 0.14217186 0.13254516
00000000: 221a 1dbe 8078 8d3d 86bf d3bb 606e 173e
00000010: 0073 3b3e 7010 823e 8dc9 533d 1593 4d3c
00000020: 60ab a53d 9f61 81bd e077 4e3e 32e9 5ebd
00000030: 7990 3e3e 377c 6a3d de7f f9bd 02a7 2abd
00000040: 02c1 863d 3c7a 22be c4e7 363d 18ab febd
00000050: f19e 5c3d d4d8 bfbc 7881 42be d1ad 503e
00000060: b87f fbbc f6f7 fa3d 570e 40be 535d 53bd
00000070: f782 6e3d aeea 2abd 4d36 7fbd 6eaa 60be
00000080: ea0e 6ebd 3a61 24be 9880 e93d c860 213e
00000090: 1715 c0bd 3495 29be 42fb 8d3d 33b9 173e
000000a0: e530 0cbe 1b04 703e 328c 273d 9da0 983c
000000b0: 75b3 febd a197 cb3d f6aa 123d 43af 08bd
000000c0: 2da7 2ebe aa86 763d 2981 913c 664d f63d
000000d0: d4cf dc3c e4ca 6cbe 0b26 b03d 7cde 23bc
000000e0: ddf2 cabd e60e f33d 2537 48be 7af3 aabd
000000f0: a781 b2bc 087d 943e 2e2a 0cbe d3fc cf3c
00000100: 1081 7d3d 6543 a3bc 8bac 963c ec13 02be
00000110: 7bf8 cb3d 0b9d ac3c 020a ed3c c18b cd3c
00000120: 020a 293e 7427 483e ce45 1dbe b18a 553d
00000130: 761e d63d 0daa a93d 8095 113e ebb9 073e

fully_conencted_layer.weight f4 [1, 20]
-0.021399897 -0.29871556 0.08048116 0.13466159 0.26782084 -0.15858555 0.21140754 -0.23166159
-0.123605266 -0.042324424 -0.30510727 0.0656737 0.22045386 0.19037783 0.049455505 0.29429677
0.22744557 0.10937024 0.1437172 0.14339773
00000000: d64e afbc 3ff1 98be 4ed3 a43d bae4 093e
00000010: d01f 893e 4064 22be 387b 583e b238 6dbe
00000020: c224 fdbd 605c 2dbd 0537 9cbe ef7f 863d
00000030: a8be 613e 68f2 423e db91 4a3d 11ae 963e
00000040: 7ee7 683e 81fd df3d 9a2a 133e dbd6 123e

exp_avg f4 [80, 1]
2.730231e-05 5.279608e-05 0.00011208501 -3.4951854e-06 1.8725668e-05 -1.3604367e-06 -1.5171754e-07 6.900417e-05
5.394962e-05 6.706457e-07 5.2766314e-05 5.272885e-05 7.345115e-05 4.6199595e-05 -6.925668e-06 0.000105469786
9.79775e-05 5.3811273e-05 2.2195213e-06 -8.4919736e-07 0.0 0.0 0.0 0.0
0.0 0.0 0.0 0.0 0.0 0.0 0.0 0.0
0.0 0.0 0.0 0.0 0.0 0.0 0.0 0.0
-0.00030034 -0.00041935287 -0.0005813703 -5.7406094e-05 -0.00030125814 2.7241029e-05 8.776523e-05 0.00036106465
-0.0006280799 -1.6026295e-05 -0.00043146408 0.0003195208 -0.0006496369 0.00021535615 -0.00030299745 0.00077748083
-0.0008948101 -0.00035564165 4.6463992e-05 1.5684147e-05 4.1445404e-05 6.7249144e-05 0.00011038116 -3.8314315e-06
1.9361876e-05 -1.0964974e-06 4.003129e-08 7.336997e-05 6.766941e-05 7.6094955e-07 7.308378e-05 6.116579e-05
0.000110857814 7.064051e-05 -5.3657304e-06 0.00010058015 9.7658674e-05 4.6460893e-05 3.282224e-06 -1.0691441e-06
00000000: 4407 e537 5c71 5d38 2e0f eb38 d48e 6ab6
00000010: 1115 9d37 4098 b6b5 cde7 22b4 55b6 9038
00000020: f747 6238 6c06 3435 6651 5d38 2c29 5d38
00000030: c909 9a38 70c6 4138 0963 e8b6 a92f dd38
00000040: 4579 cd38 6ab3 6138 16f3 1436 66f4 63b5
00000050: 0000 0000 0000 0000 0000 0000 0000 0000
00000060: 0000 0000 0000 0000 0000 0000 0000 0000
00000070: 0000 0000 0000 0000 0000 0000 0000 0000
00000080: 0000 0000 0000 0000 0000 0000 0000 0000
00000090: 0000 0000 0000 0000 0000 0000 0000 0000
000000a0: f476 9db9 97dc dbb9 1a67 18ba 53c7 70b8
000000b0: 2ff2 9db9 aa83 e437 990e b838 474d bd39
000000c0: bba5 24ba 3570 86b7 2136 e2b9 5b85 a739
000000d0: 654c 2aba 3ad1 6139 a1db 9eb9 dbcf 4b3a
000000e0: b091 6aba 6a75 bab9 55e2 4238 7391 8337
000000f0: aad5 2d38 1c08 8d38 6f7c e738 bf8f 80b6
00000100: 506b a237 5d2b 93b5 deee 2b33 34de 9938
00000110: bde9 8d38 0e44 4c35 8e44 9938 2246 8038
00000120: 567c e838 d624 9438 460b b4b6 8fee d238
00000130: 1ace cc38 01df 4238 2e44 5c36 837f 8fb5

exp_avg_sq f4 [80, 1]
1.0309677e-07 2.9326483e-07 9.2628215e-07 4.061163e-09 5.7136937e-08 1.996973e-09 5.9698664e-09 5.287425e-07
2.4992238e-07 3.0498262e-09 3.3608833e-07 2.9629302e-07 5.2292125e-07 2.6310363e-07 6.382141e-08 8.675745e-07
7.702679e-07 2.8408914e-07 4.468346e-09 6.5584356e-09 0.0 0.0 0.0 0.0
0.0 0.0 0.0 0.0 0.0 0.0 0.0 0.0
0.0 0.0 0.0 0.0 0.0 0.0 0.0 0.0
8.795809e-06 1.7985582e-05 2.8327731e-05 5.6264327e-07 9.207648e-06 3.3425076e-07 9.264123e-07 1.3781103e-05
3.2231685e-05 2.6670904e-07 1.9730292e-05 9.456712e-06 3.693996e-05 5.132392e-06 7.753597e-06 4.8582657e-05
6.14422e-05 1.1520247e-05 7.5617294e-07 5.349361e-07 1.9697364e-07 4.4352126e-07 9.506457e-07 6.1852536e-09
7.602393e-08 1.5052859e-09 4.2116928e-09 5.3389624e-07 4.1089834e-07 3.3019398e-09 5.8497375e-07 3.9778106e-07
9.845978e-07 5.2506334e-07 5.6822817e-08 8.5584884e-07 6.640461e-07 2.2686154e-07 9.335528e-09 1.14233e-08
00000000: 0c66 dd33 0372 9d34 a0a5 7835 5e8a 8b31
00000010: ba66 7533 1f3b 0931 801f cd31 e8ee 0d35
00000020: 122d 8634 1c95 5131 a16f b434 3412 9f34
00000030: e05e 0c35 b040 8d34 310e 8933 44e3 6835
00000040: 68c4 4e35 ea84 9834 fd87 9931 9c58 e131
00000050: 0000 0000 0000 0000 0000 0000 0000 0000
00000060: 0000 0000 0000 0000 0000 0000 0000 0000
00000070: 0000 0000 0000 0000 0000 0000 0000 0000
00000080: 0000 0000 0000 0000 0000 0000 0000 0000
00000090: 0000 0000 0000 0000 0000 0000 0000 0000
000000a0: b691 1337 bedf 9637 57a1 ed37 8d08 1735
000000b0: 8c7a 1a37 1373 b334 92ae 7835 6335 6737
000000c0: 8230 0738 3630 8f34 7b82 a537 45a8 1e37
000000d0: fbef 1a38 e936 ac36 7215 0237 3bc5 4b38
000000e0: 88da 8038 1647 4137 cffb 4a35 8798 0f35
000000f0: b47f 5334 191d ee34 e02f 7f35 1186 d431
00000100: 9942 a333 8ae2 ce30 71b6 9031 1251 0f35
00000110: 7099 dc34 57e8 6231 1707 1d35 9d8e d534
00000120: 8626 8435 14f2 0c35 590d 7433 7cbd 6535
00000130: e740 3235 3a97 7334 1662 2032 3440 4432

exp_avg f4 [80, 20]
0.0 0.0 0.0 0.0 0.0 0.0 0.0 0.0
0.0 0.0 0.0 0.0 0.0 0.0 0.0 0.0
0.0 0.0 0.0 0.0 0.0 0.0 0.0 0.0
0.0 0.0 0.0 0.0 0.0 0.0 0.0 0.0
0.0 0.0 0.0 0.0 0.0 0.0 0.0 0.0
0.0 0.0 0.0 0.0 0.0 0.0 0.0 0.0
0.0 0.0 0.0 0.0 0.0 0.0 0.0 0.0
0.0 0.0 0.0 0.0 0.0 0.0 0.0 0.0
0.0 0.0 0.0 0.0 0.0 0.0 0.0 0.0
0.0 0.0 0.0 0.0 0.0 0.0 0.0 0.0
0.0 0.0 0.0 0.0 0.0 0.0 0.0 0.0
0.0 0.0 0.0 0.0 0.0 0.0 0.0 0.0
0.0 0.0 0.0 0.0 0.0 0.0 0.0 0.0
0.0 0.0 0.0 0.0 0.0 0.0 0.0 0.0
0.0 0.0 0.0 0.0 0.0 0.0 0.0 0.0
0.0 0.0 0.0 0.0 0.0 0.0 0.0 0.0
0.0 0.0 0.0 0.0 0.0 0.0 0.0 0.0
0.0 0.0 0.0 0.0 0.0 0.0 0.0 0.0
0.0 0.0 0.0 0.0 0.0 0.0 0.0 0.0
0.0 0.0 0.0 0.0 0.0 0.0 0.0 0.0
0.0 0.0 0.0 0.0 0.0 0.0 0.0 0.0
0.0 0.0 0.0 0.0 0.0 0.0 0.0 0.0
0.0 0.0 0.0 0.0 0.0 0.0 0.0 0.0
0.0 0.0 0.0 0.0 0.0 0.0 0.0 0.0
0.0 0.0 0.0 0.0 0.0 0.0 0.0 0.0
0.0 0.0 0.0 0.0 0.0 0.0 0.0 0.0
0.0 0.0 0.0 0.0 0.0 0.0 0.0 0.0
0.0 0.0 0.0 0.0 0.0 0.0 0.0 0.0
0.0 0.0 0.0 0.0 0.0 0.0 0.0 0.0
0.0 0.0 0.0 0.0 0.0 0.0 0.0 0.0
0.0 0.0 0.0 0.0 0.0 0.0 0.0 0.0
0.0 0.0 0.0 0.0 0.0 0.0 0.0 0.0
00000000: 0000 0000 0000 0000 0000 0000 0000 0000
00000010: 0000 0000 0000 0000 0000 0000 0000 0000
00000020: 0000 0000 0000 0000 0000 0000 0000 0000
00000030: 0000 0000 0000 0000 0000 0000 0000 0000
00000040: 0000 0000 0000 0000 0000 0000 0000 0000
00000050: 0000 0000 0000 0000 0000 0000 0000 0000
00000060: 0000 0000 0000 0000 0000 0000 0000 0000
00000070: 0000 0000 0000 0000 0000 0000 0000 0000
00000080: 0000 0000 0000 0000 0000 0000 0000 0000
00000090: 0000 0000 0000 0000 0000 0000 0000 0000
000000a0: 0000 0000 0000 0000 0000 0000 0000 0000
000000b0: 0000 0000 0000 0000 0000 0000 0000 0000
000000c0: 0000 0000 0000 0000 0000 0000 0000 0000
000000d0: 0000 0000 0000 0000 0000 0000 0000 0000
000000e0: 0000 0000 0000 0000 0000 0000 0000 0000
000000f0: 0000 0000 0000 0000 0000 0000 0000 0000
00000100: 0000 0000 0000 0000 0000 0000 0000 0000
00000110: 0000 0000 0000 0000 0000 0000 0000 0000
00000120: 0000 0000 0000 0000 0000 0000 0000 0000
00000130: 0000 0000 0000 0000 0000 0000 0000 0000
00000140: 0000 0000 0000 0000 0000 0000 0000 0000
00000150: 0000 0000 0000 0000 0000 0000 0000 0000
00000160: 0000 0000 0000 0000 0000 0000 0000 0000
00000170: 0000 0000 0000 0000 0000 0000 0000 0000
00000180: 0000 0000 0000 0000 0000 0000 0000 0000
00000190: 0000 0000 0000 0000 0000 0000 0000 0000
000001a0: 0000 0000 0000 0000 0000 0000 0000 0000
000001b0: 0000 0000 0000 0000 0000 0000 0000 0000
000001c0: 0000 0000 0000 0000 0000 0000 0000 0000
000001d0: 0000 0000 0000 0000 0000 0000 0000 0000
000001e0: 0000 0000 0000 0000 0000 0000 0000 0000
000001f0: 0000 0000 0000 0000 0000 0000 0000 0000
00000200: 0000 0000 0000 0000 0000 0000 0000 0000
00000210: 0000 0000 0000 0000 0000 0000 0000 0000
00000220: 0000 0000 0000 0000 0000 0000 0000 0000
00000230: 0000 0000 0000 0000 0000 0000 0000 0000
00000240: 0000 0000 0000 0000 0000 0000 0000 0000
00000250: 0000 0000 0000 0000 0000 0000 0000 0000
00000260: 0000 0000 0000 0000 0000 0000 0000 0000
00000270: 0000 0000 0000 0000 0000 0000 0000 0000
00000280: 0000 0000 0000 0000 0000 0000 0000 0000
00000290: 0000 0000 0000 0000 0000 0000 0000 0000
000002a0: 0000 0000 0000 0000 0000 0000 0000 0000
000002b0: 0000 0000 0000 0000 0000 0000 0000 0000
000002c0: 0000 0000 0000 0000 0000 0000 0000 0000
000002d0: 0000 0000 0000 0000 0000 0000 0000 0000
000002e0: 0000 0000 0000 0000 0000 0000 0000 0000
000002f0: 0000 0000 0000 0000 0000 0000 0000 0000
00000300: 0000 0000 0000 0000 0000 0000 0000 0000
00000310: 0000 0000 0000 0000 0000 0000 0000 0000
00000320: 0000 0000 0000 0000 0000 0000 0000 0000
00000330: 0000 0000 0000 0000 0000 0000 0000 0000
00000340: 0000 0000 0000 0000 0000 0000 0000 0000
00000350: 0000 0000 0000 0000 0000 0000 0000 0000
00000360: 0000 0000 0000 0000 0000 0000 0000 0000
00000370: 0000 0000 0000 0000 0000 0000 0000 0000
00000380: 0000 0000 0000 0000 0000 0000 0000 0000
00000390: 0000 0000 0000 0000 0000 0000 0000 0000
000003a0: 0000 0000 0000 0000 0000 0000 0000 0000
000003b0: 0000 0000 0000 0000 0000 0000 0000 0000
000003c0: 0000 0000 0000 0000 0000 0000 0000 0000
000003d0: 0000 0000 0000 0000 0000 0000 0000 0000
000003e0: 0000 0000 0000 0000 0000 0000 0000 0000
000003f0: 0000 0000 0000 0000 0000 0000 0000 0000

exp_avg_sq f4 [80, 20]
0.0 0.0 0.0 0.0 0.0 0.0 0.0 0.0
0.0 0.0 0.0 0.0 0.0 0.0 0.0 0.0
0.0 0.0 0.0 0.0 0.0 0.0 0.0 0.0
0.0 0.0 0.0 0.0 0.0 0.0 0.0 0.0
0.0 0.0 0.0 0.0 0.0 0.0 0.0 0.0
0.0 0.0 0.0 0.0 0.0 0.0 0.0 0.0
0.0 0.0 0.0 0.0 0.0 0.0 0.0 0.0
0.0 0.0 0.0 0.0 0.0 0.0 0.0 0.0
0.0 0.0 0.0 0.0 0.0 0.0 0.0 0.0
0.0 0.0 0.0 0.0 0.0 0.0 0.0 0.0
0.0 0.0 0.0 0.0 0.0 0.0 0.0 0.0
0.0 0.0 0.0 0.0 0.0 0.0 0.0 0.0
0.0 0.0 0.0 0.0 0.0 0.0 0.0 0.0
0.0 0.0 0.0 0.0 0.0 0.0 0.0 0.0
0.0 0.0 0.0 0.0 0.0 0.0 0.0 0.0
0.0 0.0 0.0 0.0 0.0 0.0 0.0 0.0
0.0 0.0 0.0 0.0 0.0 0.0 0.0 0.0
0.0 0.0 0.0 0.0 0.0 0.0 0.0 0.0
0.0 0.0 0.0 0.0 0.0 0.0 0.0 0.0
0.0 0.0 0.0 0.0 0.0 0.0 0.0 0.0
0.0 0.0 0.0 0.0 0.0 0.0 0.0 0.0
0.0 0.0 0.0 0.0 0.0 0.0 0.0 0.0
0.0 0.0 0.0 0.0 0.0 0.0 0.0 0.0
0.0 0.0 0.0 0.0 0.0 0.0 0.0 0.0
0.0 0.0 0.0 0.0 0.0 0.0 0.0 0.0
0.0 0.0 0.0 0.0 0.0 0.0 0.0 0.0
0.0 0.0 0.0 0.0 0.0 0.0 0.0 0.0
0.0 0.0 0.0 0.0 0.0 0.0 0.0 0.0
0.0 0.0 0.0 0.0 0.0 0.0 0.0 0.0
0.0 0.0 0.0 0.0 0.0 0.0 0.0 0.0
0.0 0.0 0.0 0.0 0.0 0.0 0.0 0.0
0.0 0.0 0.0 0.0 0.0 0.0 0.0 0.0
00000000: 0000 0000 0000 0000 0000 0000 0000 0000
00000010: 0000 0000 0000 0000 0000 0000 0000 0000
00000020: 0000 0000 0000 0000 0000 0000 0000 0000
00000030: 0000 0000 0000 0000 0000 0000 0000 0000
00000040: 0000 0000 0000 0000 0000 0000 0000 0000
00000050: 0000 0000 0000 0000 0000 0000 0000 0000
00000060: 0000 0000 0000 0000 0000 0000 0000 0000
00000070: 0000 0000 0000 0000 0000 0000 0000 0000
00000080: 0000 0000 0000 0000 0000 0000 0000 0000
00000090: 0000 0000 0000 0000 0000 0000 0000 0000
000000a0: 0000 0000 0000 0000 0000 0000 0000 0000
000000b0: 0000 0000 0000 0000 0000 0000 0000 0000
000000c0: 0000 0000 0000 0000 0000 0000 0000 0000
000000d0: 0000 0000 0000 0000 0000 0000 0000 0000
000000e0: 0000 0000 0000 0000 0000 0000 0000 0000
000000f0: 0000 0000 0000 0000 0000 0000 0000 0000
00000100: 0000 0000 0000 0000 0000 0000 0000 0000
00000110: 0000 0000 0000 0000 0000 0000 0000 0000
00000120: 0000 0000 0000 0000 0000 0000 0000 0000
00000130: 0000 0000 0000 0000 0000 0000 0000 0000
00000140: 0000 0000 0000 0000 0000 0000 0000 0000
00000150: 0000 0000 0000 0000 0000 0000 0000 0000
00000160: 0000 0000 0000 0000 0000 0000 0000 0000
00000170: 0000 0000 0000 0000 0000 0000 0000 0000
00000180: 0000 0000 0000 0000 0000 0000 0000 0000
00000190: 0000 0000 0000 0000 0000 0000 0000 0000
000001a0: 0000 0000 0000 0000 0000 0000 0000 0000
000001b0: 0000 0000 0000 0000 0000 0000 0000 0000
000001c0: 0000 0000 0000 0000 0000 0000 0000 0000
000001d0: 0000 0000 0000 0000 0000 0000 0000 0000
000001e0: 0000 0000 0000 0000 0000 0000 0000 0000
000001f0: 0000 0000 0000 0000 0000 0000 0000 0000
00000200: 0000 0000 0000 0000 0000 0000 0000 0000
00000210: 0000 0000 0000 0000 0000 0000 0000 0000
00000220: 0000 0000 0000 0000 0000 0000 0000 0000
00000230: 0000 0000 0000 0000 0000 0000 0000 0000
00000240: 0000 0000 0000 0000 0000 0000 0000 0000
00000250: 0000 0000 0000 0000 0000 0000 0000 0000
00000260: 0000 0000 0000 0000 0000 0000 0000 0000
00000270: 0000 0000 0000 0000 0000 0000 0000 0000
00000280: 0000 0000 0000 0000 0000 0000 0000 0000
00000290: 0000 0000 0000 0000 0000 0000 0000 0000
000002a0: 0000 0000 0000 0000 0000 0000 0000 0000
000002b0: 0000 0000 0000 0000 0000 0000 0000 0000
000002c0: 0000 0000 0000 0000 0000 0000 0000 0000
000002d0: 0000 0000 0000 0000 0000 0000 0000 0000
000002e0: 0000 0000 0000 0000 0000 0000 0000 0000
000002f0: 0000 0000 0000 0000 0000 0000 0000 0000
00000300: 0000 0000 0000 0000 0000 0000 0000 0000
00000310: 0000 0000 0000 0000 0000 0000 0000 0000
00000320: 0000 0000 0000 0000 0000 0000 0000 0000
00000330: 0000 0000 0000 0000 0000 0000 0000 0000
00000340: 0000 0000 0000 0000 0000 0000 0000 0000
00000350: 0000 0000 0000 0000 0000 0000 0000 0000
00000360: 0000 0000 0000 0000 0000 0000 0000 0000
00000370: 0000 0000 0000 0000 0000 0000 0000 0000
00000380: 0000 0000 0000 0000 0000 0000 0000 0000
00000390: 0000 0000 0000 0000 0000 0000 0000 0000
000003a0: 0000 0000 0000 0000 0000 0000 0000 0000
000003b0: 0000 0000 0000 0000 0000 0000 0000 0000
000003c0: 0000 0000 0000 0000 0000 0000 0000 0000
000003d0: 0000 0000 0000 0000 0000 0000 0000 0000
000003e0: 0000 0000 0000 0000 0000 0000 0000 0000
000003f0: 0000 0000 0000 0000 0000 0000 0000 0000

exp_avg f4 [80]
-5.5948934e-05 -1.9863326e-05 -0.00019202231 -2.0930263e-05 -9.699605e-05 -7.735966e-06 -5.0395483e-05 -1.9716923e-05
-0.00012534428 2.8666594e-07 -6.066012e-05 -8.1807215e-05 -0.00013600421 2.355665e-06 -0.00021488858 -0.00021506919
-0.0002760273 -5.729988e-05 -1.2879777e-06 -2.5377947e-06 0.0 0.0 0.0 0.0
0.0 0.0 0.0 0.0 0.0 0.0 0.0 0.0
0.0 0.0 0.0 0.0 0.0 0.0 0.0 0.0
-0.00069284823 -0.0008928083 -0.0014155195 -0.00018690558 -0.0006592634 7.074567e-05 0.00029810166 0.00081346405
-0.0012688827 -3.220276e-05 -0.0011662819 0.00089071173 -0.0017597963 0.0005574274 -0.0010303924 0.0018424436
-0.0018927328 -0.00075032597 4.3853404e-05 2.8783266e-05 -7.481987e-05 -2.951496e-05 -0.00020156706 -2.4207531e-05
-0.00011614424 -6.301007e-06 -4.251534e-05 -3.2485637e-05 -0.00016523822 1.6643253e-07 -8.329094e-05 -9.655399e-05
-0.00018830817 -1.674529e-05 -0.00020490141 -0.00022359406 -0.00024617577 -5.1268395e-05 -2.0686998e-06 -2.8612913e-06
00000000: b6aa 6ab8 2ba0 a6b7 9959 49b9 6693 afb7
00000010: 5c6a cbb8 b9c9 01b7 bd5f 53b8 c565 a5b7
00000020: d96e 03b9 11e7 9934 4f6d 7eb8 ea8f abb8
00000030: 5a9c 0eb9 0416 1e36 b753 61b9 3284 61b9
00000040: c2b7 90b9 4755 70b8 94de acb5 fb4e 2ab6
00000050: 0000 0000 0000 0000 0000 0000 0000 0000
00000060: 0000 0000 0000 0000 0000 0000 0000 0000
00000070: 0000 0000 0000 0000 0000 0000 0000 0000
00000080: 0000 0000 0000 0000 0000 0000 0000 0000
00000090: 0000 0000 0000 0000 0000 0000 0000 0000
000000a0: 42a0 35ba 5a0b 6aba f488 b9ba 16fc 43b9
000000b0: 6bd2 2cba 4b5d 9438 874a 9c39 a63e 553a
000000c0: a350 a6ba 7311 07b8 eddd 98ba a77e 693a
000000d0: f7a8 e6ba 5220 123a 3b0e 87ba 267e f13a
000000e0: 9315 f8ba 86b1 44ba 3cef 3738 9873 f137
000000f0: 9de8 9cb8 e596 f7b7 bf5b 53b9 4711 cbb7
00000100: 7792 f3b8 3d6d d3b6 8052 32b8 3041 08b8
00000110: cc43 2db9 a0b4 3234 7cac aeb8 077d cab8
00000120: 9774 45b9 3d78 8cb7 ceda 56b9 9374 6ab9
00000130: 2711 81b9 0509 57b8 fed3 0ab6 9c04 40b6

exp_avg_sq f4 [80]
2.2994338e-07 6.7679116e-07 1.8583627e-06 2.317863e-08 1.4756881e-07 9.451561e-09 3.920357e-08 1.2810583e-06
5.2353147e-07 1.7498111e-08 7.613147e-07 6.3827866e-07 1.130652e-06 7.043333e-07 4.884013e-07 1.8193439e-06
1.7805196e-06 5.967883e-07 1.8310429e-08 3.7935514e-08 0.0 0.0 0.0 0.0
0.0 0.0 0.0 0.0 0.0 0.0 0.0 0.0
0.0 0.0 0.0 0.0 0.0 0.0 0.0 0.0
2.8521712e-05 5.7959514e-05 8.8511144e-05 1.812412e-06 2.7522618e-05 8.520121e-07 3.1214415e-06 4.8475184e-05
9.1073816e-05 1.0133747e-06 7.2791634e-05 3.5228262e-05 0.00012279654 1.9630428e-05 2.847821e-05 0.00014681669
0.00017725762 3.6965972e-05 2.5110542e-06 1.8794032e-06 4.1142738e-07 9.937145e-07 1.9364588e-06 3.2509337e-08
2.0670537e-07 6.430574e-09 2.7409685e-08 1.1880081e-06 8.702387e-07 1.6654946e-08 1.2839566e-06 8.5292356e-07
2.0054154e-06 1.2325123e-06 4.3266445e-07 1.836717e-06 1.4337404e-06 4.897289e-07 3.4883662e-08 5.835395e-08
00000000: 5be6 7634 bcac 3535 db6c f935 591a c732
00000010: 6873 1e34 6860 2232 c860 2833 d4f0 ab35
00000020: cf88 0c35 c14e 9632 265d 4c35 2d56 2b35
00000030: e8c0 9735 6a11 3d35 af1a 0335 2e30 f435
00000040: 30fa ee35 fb32 2035 0f49 9d32 8aee 2233
00000050: 0000 0000 0000 0000 0000 0000 0000 0000
00000060: 0000 0000 0000 0000 0000 0000 0000 0000
00000070: 0000 0000 0000 0000 0000 0000 0000 0000
00000080: 0000 0000 0000 0000 0000 0000 0000 0000
00000090: 0000 0000 0000 0000 0000 0000 0000 0000
000000a0: e941 ef37 8e19 7338 0f9f b938 0142 f335
000000b0: 5fe0 e637 d3b5 6435 f579 5136 d551 4b38
000000c0: e2fe be38 4a03 8835 b6a7 9838 0fc2 1338
000000d0: f2c2 0039 06ac a437 7ee4 ee37 cef2 1939
000000e0: 3bde 3939 e90b 1b38 9583 2836 cd3f fc35
000000f0: 26e2 dc34 c55f 8535 1cf4 0136 65a0 0b33
00000100: bdf2 5d34 edf3 dc31 8972 eb32 a673 9f35
00000110: 599a 6935 9d10 8f32 6a54 ac35 76f4 6435
00000120: c694 0636 cd6c a535 f348 e834 1e85 f635
00000130: f26e c035 ea75 0335 fed2 1533 d9a0 7a33

exp_avg f4 [80]
-5.5948934e-05 -1.9863326e-05 -0.00019202231 -2.0930263e-05 -9.699605e-05 -7.735966e-06 -5.0395483e-05 -1.9716923e-05
-0.00012534428 2.8666594e-07 -6.066012e-05 -8.1807215e-05 -0.00013600421 2.355665e-06 -0.00021488858 -0.00021506919
-0.0002760273 -5.729988e-05 -1.2879777e-06 -2.5377947e-06 0.0 0.0 0.0 0.0
0.0 0.0 0.0 0.0 0.0 0.0 0.0 0.0
0.0 0.0 0.0 0.0 0.0 0.0 0.0 0.0
-0.00069284823 -0.0008928083 -0.0014155195 -0.00018690558 -0.0006592634 7.074567e-05 0.00029810166 0.00081346405
-0.0012688827 -3.220276e-05 -0.0011662819 0.00089071173 -0.0017597963 0.0005574274 -0.0010303924 0.0018424436
-0.0018927328 -0.00075032597 4.3853404e-05 2.8783266e-05 -7.481987e-05 -2.951496e-05 -0.00020156706 -2.4207531e-05
-0.00011614424 -6.301007e-06 -4.251534e-05 -3.2485637e-05 -0.00016523822 1.6643253e-07 -8.329094e-05 -9.655399e-05
-0.00018830817 -1.674529e-05 -0.00020490141 -0.00022359406 -0.00024617577 -5.1268395e-05 -2.0686998e-06 -2.8612913e-06
00000000: b6aa 6ab8 2ba0 a6b7 9959 49b9 6693 afb7
00000010: 5c6a cbb8 b9c9 01b7 bd5f 53b8 c565 a5b7
00000020: d96e 03b9 11e7 9934 4f6d 7eb8 ea8f abb8
00000030: 5a9c 0eb9 0416 1e36 b753 61b9 3284 61b9
00000040: c2b7 90b9 4755 70b8 94de acb5 fb4e 2ab6
00000050: 0000 0000 0000 0000 0000 0000 0000 0000
00000060: 0000 0000 0000 0000 0000 0000 0000 0000
00000070: 0000 0000 0000 0000 0000 0000 0000 0000
00000080: 0000 0000 0000 0000 0000 0000 0000 0000
00000090: 0000 0000 0000 0000 0000 0000 0000 0000
000000a0: 42a0 35ba 5a0b 6aba f488 b9ba 16fc 43b9
000000b0: 6bd2 2cba 4b5d 9438 874a 9c39 a63e 553a
000000c0: a350 a6ba 7311 07b8 eddd 98ba a77e 693a
000000d0: f7a8 e6ba 5220 123a 3b0e 87ba 267e f13a
000000e0: 9315 f8ba 86b1 44ba 3cef 3738 9873 f137
000000f0: 9de8 9cb8 e596 f7b7 bf5b 53b9 4711 cbb7
00000100: 7792 f3b8 3d6d d3b6 8052 32b8 3041 08b8
00000110: cc43 2db9 a0b4 3234 7cac aeb8 077d cab8
00000120: 9774 45b9 3d78 8cb7 ceda 56b9 9374 6ab9
00000130: 2711 81b9 0509 57b8 fed3 0ab6 9c04 40b6

exp_avg_sq f4 [80]
2.2994338e-07 6.7679116e-07 1.8583627e-06 2.317863e-08 1.4756881e-07 9.451561e-09 3.920357e-08 1.2810583e-06
5.2353147e-07 1.7498111e-08 7.613147e-07 6.3827866e-07 1.130652e-06 7.043333e-07 4.884013e-07 1.8193439e-06
1.7805196e-06 5.967883e-07 1.8310429e-08 3.7935514e-08 0.0 0.0 0.0 0.0
0.0 0.0 0.0 0.0 0.0 0.0 0.0 0.0
0.0 0.0 0.0 0.0 0.0 0.0 0.0 0.0
2.8521712e-05 5.7959514e-05 8.8511144e-05 1.812412e-06 2.7522618e-05 8.520121e-07 3.1214415e-06 4.8475184e-05
9.1073816e-05 1.0133747e-06 7.2791634e-05 3.5228262e-05 0.00012279654 1.9630428e-05 2.847821e-05 0.00014681669
0.00017725762 3.6965972e-05 2.5110542e-06 1.8794032e-06 4.1142738e-07 9.937145e-07 1.9364588e-06 3.2509337e-08
2.0670537e-07 6.430574e-09 2.7409685e-08 1.1880081e-06 8.702387e-07 1.6654946e-08 1.2839566e-06 8.5292356e-07
2.0054154e-06 1.2325123e-06 4.3266445e-07 1.836717e-06 1.4337404e-06 4.897289e-07 3.4883662e-08 5.835395e-08
00000000: 5be6 7634 bcac 3535 db6c f935 591a c732
00000010: 6873 1e34 6860 2232 c860 2833 d4f0 ab35
00000020: cf88 0c35 c14e 9632 265d 4c35 2d56 2b35
00000030: e8c0 9735 6a11 3d35 af1a 0335 2e30 f435
00000040: 30fa ee35 fb32 2035 0f49 9d32 8aee 2233
00000050: 0000 0000 0000 0000 0000 0000 0000 0000
00000060: 0000 0000 0000 0000 0000 0000 0000 0000
00000070: 0000 0000 0000 0000 0000 0000 0000 0000
00000080: 0000 0000 0000 0000 0000 0000 0000 0000
00000090: 0000 0000 0000 0000 0000 0000 0000 0000
000000a0: e941 ef37 8e19 7338 0f9f b938 0142 f335
000000b0: 5fe0 e637 d3b5 6435 f579 5136 d551 4b38
000000c0: e2fe be38 4a03 8835 b6a7 9838 0fc2 1338
000000d0: f2c2 0039 06ac a437 7ee4 ee37 cef2 1939
000000e0: 3bde 3939 e90b 1b38 9583 2836 cd3f fc35
000000f0: 26e2 dc34 c55f 8535 1cf4 0136 65a0 0b33
00000100: bdf2 5d34 edf3 dc31 8972 eb32 a673 9f35
00000110: 599a 6935 9d10 8f32 6a54 ac35 76f4 6435
00000120: c694 0636 cd6c a535 f348 e834 1e85 f635
00000130: f26e c035 ea75 0335 fed2 1533 d9a0 7a33
