notebooks/lightning_logs/version_3/checkpoints/epoch=49-step=499.ckpt (torch, 73096 bytes, 30 tensors)

lstm.weight_ih_l0 f4 [80, 1]
0	0x3e4d418e	0.20044538
1	0xbd7bcf63	-0.061477076
2	0x3ee258d3	0.44208393
3	0xbf02445d	-0.50885564
4	0xbe48fdb1	-0.19628026
5	0xbe25e78c	-0.1620161
6	0xba886b9a	-0.0010408044
7	0x3f0d37b6	0.55163133
8	0xbeb931c5	-0.36170784
9	0xbd329439	-0.043598387
10	0x3e84c210	0.25929308
11	0xbeac5a69	-0.33662727
12	0x3dc0aac0	0.09407568
13	0x3f6ae6e5	0.9175857
14	0x3ee2a6ae	0.44267792
15	0x3e61b5a8	0.22041953
16	0x3e2c531e	0.16828582
17	0xbf13c393	-0.577203
18	0x3f3c3e92	0.73532975
19	0x3f094502	0.5362092
20	0x3da9f0aa	0.08297856
21	0x3c7cbf07	0.015426404
22	0x3f63e1ad	0.8901623
23	0xbf21f17b	-0.63259095
24	0xbdf3c1a2	-0.11902167
25	0xbcd484ca	-0.025942225
26	0xbe0fc16e	-0.14038631
27	0x3f60a397	0.8774962
28	0xbeb5d7a8	-0.35516095
29	0xbe86a338	-0.262964
30	0x3f2b8832	0.6700469
31	0xbe60f0c2	-0.21966842
32	0xbcc0eb82	-0.023549799
33	0x3f5072ae	0.8142499
34	0x3e89b94d	0.26899186
35	0x3e19b1ea	0.15009275
36	0x3e50bc3b	0.20384304
37	0xbed7411b	-0.4204186
38	0x3f5faabe	0.87369907
39	0x3e5ef2a9	0.21772255
40	0xbf04bb8c	-0.51848674
41	0x3eec9080	0.46203995
42	0xbe9cd2e4	-0.30629647
43	0xbf39d12d	-0.725848
44	0x3cb5ad92	0.022177491
45	0xbf019adc	-0.5062692
46	0xbe85ca0c	-0.26130712
47	0xbf14baa1	-0.58097273
48	0xbf32a990	-0.6978998
49	0xbf2a3dbd	-0.66500455
50	0x3f0e21bf	0.5552024
51	0xbe2e8851	-0.17044188
52	0x3f28327a	0.6570202
53	0xbf3b13c6	-0.73077047
54	0x3e1cc145	0.15308101
55	0xbefeb7a9	-0.49749497
56	0xbe8dfc2e	-0.2773146
57	0x3f1f1edd	0.6215647
58	0x3f688a89	0.9083639
59	0x3e63fc6d	0.22264262
60	0x3d61f336	0.055163585
61	0xbbde2716	-0.0067795618
62	0x3f3e4da2	0.7433721
63	0xbf294cb5	-0.6613267
64	0x3e2d53d7	0.16926514
65	0xbd7fdf6c	-0.06246893
66	0x3e08b79c	0.13351291
67	0x3ec14249	0.37745884
68	0xbeb39643	-0.35075578
69	0xbe1bd704	-0.1521874
70	0x3f0f1c97	0.55903
71	0xbec06323	-0.37575635
72	0xbd266dbe	-0.040632002
73	0x3f5fe45b	0.8745782
74	0x3e642f2e	0.22283623
75	0x3e7491ca	0.23883739
76	0x3e6193cb	0.22029035
77	0xbf203ce5	-0.6259292
78	0x3f845967	1.0339783
79	0x3f14da35	0.5814546

lstm.weight_hh_l0 f4 [80, 20]
0	0xbd7fc9af	-0.0624482
1	0xbdb38b49	-0.08766801
2	0x3ddd92bf	0.10819005
3	0x3e715393	0.23567037
4	0xbe82c1c3	-0.25538453
5	0xbd4becb6	-0.049786292
6	0xbd18a279	-0.03726432
7	0x3dc2ed3a	0.095179036
8	0x3e1e8135	0.15478976
9	0x3de6d301	0.112707146
10	0x3e2dc24b	0.16968648
11	0x3e7ab959	0.24484767
12	0xbe0e0803	-0.13870244
13	0x3d718cec	0.058972284
14	0xbe01904d	-0.12652703
15	0x3d8acf5d	0.06777833
16	0xbdc6380d	-0.096786596
17	0x3db05124	0.08609226
18	0x3e5234da	0.20527974
19	0x3e27cfb4	0.16387826
20	0xbde01993	-0.10942378
21	0xbdd41df3	-0.10357275
22	0xbe033baa	-0.12815729
23	0xbdf7e107	-0.121034674
24	0xbc7f94a1	-0.015599401
25	0xbe39a2f4	-0.18128568
26	0xbe416911	-0.18887736
27	0xbe33d50f	-0.17561744
28	0x3d6e5daa	0.058194794
29	0x3cf627e1	0.030048313
30	0x3e438eb7	0.1909741
31	0xbe454246	-0.19263563
32	0xbe4aefe1	-0.19818069
33	0x3d8cb5f8	0.06870645
34	0x3e47ac58	0.19499338
35	0x3d60c53d	0.0548756
36	0x3d1d1d32	0.03835792
37	0xbdf5fa62	-0.12010647
38	0x3d79dfd7	0.061004486
39	0xbddc75c0	-0.107646465
40	0xbdaccb88	-0.08437258
41	0x3ddd8bda	0.1081769
42	0xbe123ca2	-0.14280942
43	0xbe012798	-0.1261276
44	0xbd7da011	-0.06192023
45	0x3c8e75ee	0.017390218
46	0xbe54ff08	-0.20800412
47	0x3da35ebd	0.07977054
48	0xbe960971	-0.29304078
49	0xbe3c7a7d	-0.184061
50	0x3e7c240b	0.24623124
51	0xbe41e96e	-0.18936703
52	0x3e2cd22d	0.1687705
53	0xbdd8f651	-0.10593856
54	0x3e63580a	0.22201553
55	0xbeb52a57	-0.35383865
56	0x3e08fe8b	0.1337835
57	0x3e33e1a0	0.17566538
58	0x3caac1b9	0.020844327
59	0xbe88e7bf	-0.26739308
60	0x3e97be1a	0.29637223
61	0xbe98c813	-0.29840145
62	0x3ddaf6d8	0.10691613
63	0x3dc8669b	0.097851954
64	0x3da7376f	0.0816487
65	0x3e863422	0.2621165
66	0x3d374821	0.04474652
67	0x3c1b4892	0.009477751
68	0x3e0ce5ad	0.1375949
69	0x3ebeca78	0.37263846
70	0xbe145ce6	-0.14488563
71	0x3e19da85	0.15024765
72	0xbed1b3d7	-0.4095752
73	0xbe2507a2	-0.16116193
74	0xbe65f77d	-0.2245769
75	0x3e1989fe	0.14994046
76	0x3d835924	0.064134866
77	0xbe2120c8	-0.15735161
78	0x3e00b57e	0.12569234
79	0xbe237db0	-0.15965915
80	0xbda55b6f	-0.0807408
81	0xbd2b10e8	-0.04176417
82	0x3e9d2d06	0.30698413
83	0xbe0e477d	-0.13894458
84	0xbd3fa335	-0.046786506
85	0x3e772a4c	0.24137229
86	0xbe6790f1	-0.22613885
87	0x3e7d4468	0.24733126
88	0xbeb6c383	-0.3569604
89	0x3e919ae3	0.28438482
90	0x3e30fae6	0.1728321
91	0xbdbcc219	-0.09216709
92	0xbe49f647	-0.19722854
93	0x3e26c630	0.1628654
94	0x3d312227	0.04324546
95	0xbeb37aec	-0.3505472
96	0xbe3073f8	-0.17231739
97	0x3d80ae36	0.06283228
98	0xbe11a386	-0.14222535
99	0xbd9ca523	-0.07648685
100	0xbe3db3a0	-0.18525553
101	0x3dd90f2d	0.10598598
102	0x3d351576	0.04420992
103	0xbe89f564	-0.2694503
104	0x3d463725	0.048392434
105	0x3e15b00f	0.14617942
106	0xbd81bc47	-0.06334739
107	0x3cbe01ab	0.023194155
108	0xbe793342	-0.2433596
109	0x3e261c96	0.16221842
110	0x3d2fb9f6	0.042901956
111	0xbeac5852	-0.33661133
112	0x3dea4d83	0.114405654
113	0xbeb381ad	-0.35059872
114	0x3e029fa1	0.12756206
115	0xbb3f8cc1	-0.0029228183
116	0xbd6e5e6c	-0.058195516
117	0xbdb47b12	-0.08812536
118	0x3e4161dd	0.18884988
119	0xbe08f38b	-0.13374154
120	0xbdabfac1	-0.08397437
121	0xbd93aa63	-0.07210233
122	0x3c9523e4	0.01820559
123	0xbe62e83e	-0.22158906
124	0x3dbb83ab	0.09155973
125	0xbdc97127	-0.09836035
126	0x3e228cac	0.15873975
127	0x3e67a15f	0.22620152
128	0xbd54011c	-0.05175887
129	0xbe084efe	-0.13311383
130	0x3e2599a7	0.16171895
131	0xbeac46b0	-0.3364768
132	0xbe46390b	-0.19357698
133	0x3e8c162d	0.2736067
134	0x3e3214b8	0.17390716
135	0x3ccb31cc	0.024804018
136	0x3e0dafd1	0.138366
137	0x3e081c3c	0.1329202
138	0xbe8c3764	-0.2738601
139	0x3df08f63	0.11746099
140	0xbe7af7f2	-0.24508646
141	0xbccf5162	-0.025307361
142	0x3de0e621	0.109813936
143	0xbe46d7d4	-0.1941827
144	0x3e35f4e0	0.17769194
145	0xbcf44b1b	-0.02982097
146	0xbe59f824	-0.21286064
147	0xbe5e71ee	-0.21723148
148	0xbdc5bdd0	-0.096553445
149	0xbd32a631	-0.043615524
150	0x3dc35c7a	0.09539123
151	0xbd8c40fe	-0.06848334
152	0x3e7bbde8	0.24584162
153	0xbe18948a	-0.14900413
154	0x3bb4eb46	0.005521211
155	0xbd7941c6	-0.060853742
156	0xbe8d5f6e	-0.2761187
157	0xbab523e5	-0.0013819902
158	0x3e6b6a09	0.22989668
159	0xbe100e5d	-0.14067979
160	0x3da05d4b	0.07830294
161	0xbdb9cf0d	-0.09072695
162	0xbb7ca291	-0.0038549046
163	0x3ea7a1f7	0.32740757
164	0x3de02a6b	0.109455906
165	0xbd8c297b	-0.06843849
166	0xbd9db29f	-0.07700085
167	0x3e075e71	0.1321962
168	0x3eac8426	0.3369457
169	0x3eca78d3	0.39545307
170	0x397c3e7c	0.0002405587
171	0x3e4b9906	0.19882593
172	0xbe105d5b	-0.14098112
173	0x3c5237d4	0.012830693
174	0xbe8086d1	-0.25102857
175	0x3e3e0645	0.18557079
176	0xbde53fa9	-0.11193783
177	0x3d0a1531	0.033711616
178	0x3d6db47a	0.058033444
179	0x3e499117	0.19684254
180	0xbd508570	-0.050908506
181	0x3d8d5295	0.06900517
182	0xbdd80ab1	-0.10548914
183	0x3ebc7e3d	0.36815062
184	0x3e87cb19	0.2652214
185	0x3d3cd280	0.046099186
186	0xbdd31f08	-0.10308653
187	0xbe1c4044	-0.1525889
188	0x3e8ffcee	0.28122658
189	0x3c0526d2	0.008126931
190	0xbdf61c0f	-0.120170705
191	0x3e2c8f16	0.16851458
192	0x3dde53cb	0.10855826
193	0xbeee498e	-0.46540493
194	0xbe5e9c7f	-0.21739386
195	0xbd5f3120	-0.05449021
196	0x3c89ced0	0.016822249
197	0xbeaa413a	-0.3325289
198	0x3efad445	0.48990074
199	0xbd970379	-0.07373709
200	0x3d035094	0.032059267
201	0x3e954d74	0.29160655
202	0xbd852c32	-0.0650257
203	0x3d75c7f0	0.06000513
204	0xbd993837	-0.07481425
205	0xbd53db05	-0.051722545
206	0x3c15f65c	0.009152975
207	0x3bd37cb0	0.006454073
208	0xbdb7c307	-0.089727454
209	0x3e778c69	0.24174656
210	0xbc65381e	-0.01399043
211	0xbda1591e	-0.07878326
212	0xbdc577c2	-0.096419826
213	0xbe6711cc	-0.22565383
214	0x3eb71a66	0.35762328
215	0xbeafe896	-0.34357136
216	0xbeac41da	-0.3364399
217	0x3e7872ed	0.2426259
218	0x3e587342	0.21137717
219	0xbe033a1b	-0.12815134
220	0x3d5e3e9f	0.05425894
221	0x3e2055d3	0.1565774
222	0x3ec21783	0.37908563
223	0xbdc3c90f	-0.09559833
224	0xbd7fcc4d	-0.062450696
225	0x3b116d8e	0.0022190544
226	0xbcc0bea9	-0.023528414
227	0x3eeec5c1	0.4663525
228	0xbbb59744	-0.005541714
229	0x3edb16bd	0.42790785
230	0x3bd07599	0.006361675
231	0xbe177095	-0.1478904
232	0xbd865a07	-0.0656014
233	0x3dc2767b	0.094952546
234	0xbdee82b2	-0.11646022
235	0xbe51efab	-0.20501582
236	0xbde0bae9	-0.1097315
237	0x3da2b1d2	0.07944073
238	0xbe15964d	-0.14608116
239	0x3e0973e2	0.13423112
240	0x3d3091b4	0.043107703
241	0xbcc8eaa2	-0.024525944
242	0xbe17214c	-0.14758795
243	0x3e736558	0.23769128
244	0xbe08205a	-0.13293591
245	0x3d683572	0.056691594
246	0xbd302bee	-0.043010645
247	0xbcbbef55	-0.02294127
248	0x3e11401d	0.14184614
249	0x3e23f84b	0.16012685
250	0xbd0baf90	-0.034102976
251	0x3e781d1d	0.24229856
252	0x3ca41a8b	0.020032188
253	0xbeb63c73	-0.35592994
254	0x3de701f8	0.112796724
255	0xbdda0f6a	-0.10647471

lstm.bias_ih_l0 f4 [80]
0	0xbd3cbb86	-0.046077274
1	0xbda8d8aa	-0.082444504
2	0xbed9d3bc	-0.42544353
3	0xbe4d50b3	-0.20050316
4	0xbea18f09	-0.3155444
5	0xbeedb2e3	-0.46425542
6	0xbd958360	-0.073004484
7	0xbe1ba70f	-0.15200447
8	0xbe20555a	-0.15657559
9	0xbe094ef8	-0.1340903
10	0xbe85974b	-0.2609199
11	0xbe3e91d1	-0.18610312
12	0xbd70e390	-0.05881077
13	0xbe7317a4	-0.23739487
14	0xbf33f13c	-0.7028997
15	0xbead5fa1	-0.33862022
16	0xbec03239	-0.37538317
17	0xbe85c518	-0.26126933
18	0xbe4f9179	-0.20270337
19	0xbe569455	-0.20955022
20	0x3d86136b	0.065466724
21	0xbe670530	-0.22560573
22	0xbeaa3098	-0.332402
23	0x3dd6c04a	0.10485895
24	0xbde050a7	-0.10952883
25	0xbe653d61	-0.22386695
26	0xbe551528	-0.20808852
27	0xbcc12450	-0.023576885
28	0xbd9d211c	-0.07672331
29	0x3eb33272	0.34999424
30	0xbe1d3b0f	-0.1535456
31	0xbe9b1f73	-0.3029743
32	0x3ee27195	0.4422728
33	0x3de5c594	0.11219326
34	0xbe6d4fe6	-0.2317501
35	0xbe607c74	-0.21922475
36	0xbd726b47	-0.05918434
37	0xbd6587df	-0.05603778
38	0xbcfb41a6	-0.030670952
39	0xbe8c8746	-0.27446955
40	0xbc4bb241	-0.012432636
41	0x3da2a736	0.07942049
42	0x3c50a0da	0.0127336625
43	0xbe680002	-0.22656253
44	0x3e4d830d	0.20069523
45	0x3df34310	0.118780255
46	0xbdea7d4b	-0.11449679
47	0xbc99d976	-0.018780451
48	0xbd074bd0	-0.033031285
49	0xbd8a4fd7	-0.067535095
50	0x3d958dcc	0.07302436
51	0xbd03dd3d	-0.03219341
52	0x3e0b13c0	0.13581753
53	0xbc7cfaac	-0.015440624
54	0x3da52f46	0.08065657
55	0xbdc6ad0d	-0.097009756
56	0xbce4db42	-0.027936582
57	0x3d9c6160	0.0763576
58	0xbb25faa0	-0.0025326386
59	0xbe338f0f	-0.17535041
60	0x3db71bb6	0.08940832
61	0xbe18907b	-0.14898865
62	0xbe8805c2	-0.26566893
63	0xbe109467	-0.14119111
64	0xbe8d66b1	-0.2761741
65	0xbe5799c7	-0.21054755
66	0xbed0db61	-0.40792373
67	0xbe696783	-0.22793393
68	0xbe35dc16	-0.17759737
69	0xbc8bb060	-0.017051876
70	0xbe423bc9	-0.18968119
71	0xbea20d1b	-0.31650624
72	0x3cdfe1dc	0.027329378
73	0xbe0c10c9	-0.13678278
74	0xbf24b916	-0.6434492
75	0xbe947e37	-0.29002544
76	0xbea87a48	-0.32905793
77	0xbd75e477	-0.060032334
78	0x3d99298c	0.074786276
79	0xbec2ff8e	-0.38085598

lstm.bias_hh_l0 f4 [80]
0	0xbe9c2ffb	-0.30505356
1	0xbe929761	-0.28631118
2	0xbd34d45a	-0.044147827
3	0xbe273bff	-0.1633148
4	0xbeb9c1f9	-0.36280802
5	0xbdf54fd1	-0.119781144
6	0xbe9c8431	-0.30569604
7	0xbe43f9cb	-0.19138257
8	0xbe1df83e	-0.15426728
9	0xbe1f754a	-0.15572086
10	0xbecf2d5c	-0.40464294
11	0xbdd41b66	-0.10356788
12	0xbdb8b558	-0.090189636
13	0xbece168f	-0.40251586
14	0xbee6daec	-0.450889
15	0xbe19f88c	-0.1503622
16	0xbec55d6c	-0.38547838
17	0x3a849777	0.0010115941
18	0xbd914498	-0.07093161
19	0xbdb160d6	-0.08661048
20	0xbcc6e6b0	-0.024279922
21	0x3ce2f5fc	0.027705185
22	0xbe4c355b	-0.19942228
23	0x3dfeef6f	0.12448012
24	0xbe9a071b	-0.30083546
25	0xbdfdcba5	-0.12392358
26	0xbdb59f18	-0.08868235
27	0x3dbf903e	0.09353684
28	0x3df97ad7	0.12181633
29	0x3ed834e7	0.4222786
30	0x3da41c10	0.08013165
31	0xbdaff575	-0.08591739
32	0x3f04cdbf	0.51876444
33	0xbe03dea8	-0.12877905
34	0xbeac3dc4	-0.33640873
35	0x3d062b51	0.032756153
36	0xbd47a8ff	-0.04874515
37	0xbe81e244	-0.2536794
38	0x3ea36d58	0.3191936
39	0xbe92e96c	-0.28693712
40	0xbdbd8e17	-0.09255617
41	0xbd920b59	-0.07131071
42	0x3d617f5f	0.05505311
43	0xbb8cd023	-0.004297273
44	0xbe41c0dc	-0.18921226
45	0xbdd02112	-0.10162558
46	0x3da63be9	0.08116896
47	0xbc9ed229	-0.019387322
48	0xbe08d8c5	-0.13363941
49	0xbe322421	-0.17396595
50	0xbdc68787	-0.096938185
51	0x3d68cb6a	0.056834616
52	0x3c720f52	0.01477416
53	0x3e0eb9d5	0.13938077
54	0xbd89b849	-0.06724603
55	0x3e24647d	0.16053958
56	0x3c546fff	0.012966155
57	0x3c9887af	0.018619386
58	0xbdd82767	-0.105543904
59	0x3de6001e	0.11230491
60	0x3d97332e	0.073828086
61	0xbe20d1b5	-0.15704997
62	0xbef7d5e1	-0.48405364
63	0xbe40faa7	-0.18845616
64	0xbe5ba79a	-0.21450654
65	0xbdb58983	-0.08864119
66	0xbe61a9eb	-0.22037475
67	0xbdb0e545	-0.0863748
68	0x3d454ea7	0.04817071
69	0xbcccc92e	-0.024998274
70	0xbca6dc3f	-0.020368693
71	0xbeff2f5b	-0.49840817
72	0xbd386496	-0.0450178
73	0xbed2c68a	-0.41167098
74	0xbee57c85	-0.44821563
75	0xbe9bde6e	-0.30443138
76	0xbd370353	-0.044680905
77	0xbe734d3e	-0.23759934
78	0xbe20fcd8	-0.15721452
79	0xbeb16edc	-0.34654891

lstm.weight_ih_l1 f4 [80, 20]
0	0xbe2db1aa	-0.16962305
1	0x3e904aa1	0.28181937
2	0xbdb3617f	-0.0875883
3	0xbdaab7e3	-0.08335855
4	0x3ddcc7fa	0.1078033
5	0x3e54e794	0.20791465
6	0x3cb5a085	0.022171268
7	0xbd98b3c6	-0.07456164
8	0xbe200530	-0.15626979
9	0xbd9c676e	-0.07636915
10	0x3e1af575	0.15132697
11	0x3da6427d	0.081181504
12	0xbe1aae98	-0.15105665
13	0x3ebc3813	0.3676153
14	0xbd007b5e	-0.031367652
15	0x3bf0257f	0.0073286886
16	0xbdf022c1	-0.11725379
17	0x3ddafd15	0.10692803
18	0xbeacbed0	-0.33739328
19	0xbe324d45	-0.17412288
20	0x3ddd55f3	0.10807409
21	0x3e23fb97	0.16013943
22	0xbdab3f81	-0.08361722
23	0xbdfea96d	-0.12434659
24	0xbd0b2602	-0.033971794
25	0x3d8142e2	0.06311585
26	0xbd54cf9e	-0.05195581
27	0x3aff7966	0.0019491136
28	0xbc4016a1	-0.011724145
29	0xbdb25f23	-0.08709552
30	0x3eb1fd87	0.3476374
31	0xbe812333	-0.25222167
32	0xbe726166	-0.23669967
33	0x3d691ded	0.056913305
34	0x3e5a3165	0.21307905
35	0x3d261496	0.040546976
36	0xbd3b7e4c	-0.045774743
37	0x3e6b601a	0.22985879
38	0xbd976486	-0.0739222
39	0xbe124ca3	-0.14287047
40	0x3e92a1fb	0.28639206
41	0xbe47835b	-0.19483702
42	0xbe5b946c	-0.21443337
43	0x3f085080	0.53247833
44	0xbdac1e57	-0.08404224
45	0x3d8e1bce	0.06938897
46	0xbceae4c5	-0.028673539
47	0x3e05551d	0.1302075
48	0x3ee68712	0.45024925
49	0x3e4197c8	0.18905556
50	0xbdd5c679	-0.10438246
51	0x3e98f2f7	0.29872867
52	0xbebf8e70	-0.3741336
53	0x3db0ee94	0.08639255
54	0xbe6fc4fc	-0.23414987
55	0xbe0c4d68	-0.13701403
56	0xbe0c602d	-0.13708563
57	0xbe1cc3f1	-0.1530912
58	0xbd81f260	-0.063450575
59	0xbe448a96	-0.19193491
60	0x3e6fa1df	0.23401593
61	0xbe27c346	-0.16383085
62	0xbe6fb918	-0.23410451
63	0x3e4b8b7c	0.19877428
64	0x3dbfbd99	0.09362335
65	0x3d43ff88	0.047851115
66	0x3cee0cae	0.02905878
67	0x3d53b3bb	0.051685076
68	0x3e386cd7	0.18010269
69	0x3e8acfc5	0.2711164
70	0x3df26495	0.11835591
71	0x3d96fe2e	0.073727
72	0xbedae760	-0.4275465
73	0xbe89866a	-0.26860362
74	0x3e1fb9b6	0.15598187
75	0xbd5000c4	-0.05078198
76	0xbe0d5155	-0.13800557
77	0xbee5306e	-0.4476351
78	0x3ded8491	0.11597551
79	0xbe3b92a2	-0.18317655
80	0xbe4b2aeb	-0.1984059
81	0xbcbbca5c	-0.02292364
82	0x3e2009a7	0.15628682
83	0x3d3dcb12	0.04633624
84	0xbdc84d2a	-0.09780343
85	0xbd8b037c	-0.06787774
86	0xbdad0c03	-0.08449557
87	0x3db0eb87	0.08638673
88	0xbe6b5314	-0.2298091
89	0x3d869f96	0.06573407
90	0xbd905ff4	-0.070495516
91	0xbe5157c8	-0.20443642
92	0xbd2bbd00	-0.04192829
93	0x3ee694e5	0.45035473
94	0x3e4a9433	0.19783096
95	0x3d20479c	0.039130792
96	0xbe3113dc	-0.17292732
97	0x3de96931	0.11397017
98	0xbe2a7cb2	-0.1664913
99	0xbd62bd30	-0.055356205
100	0xbe1c035b	-0.15235655
101	0x3ddb47d3	0.10707059
102	0x3e8c3cf4	0.27390254
103	0xbef5b05a	-0.47986108
104	0xbcfba3ee	-0.030717816
105	0xbe134ad7	-0.14384018
106	0x3ddf18c0	0.108933926
107	0x3e593135	0.21210177
108	0xbe485ef8	-0.19567478
109	0xbe3ef98c	-0.18649882
110	0xbe8296cd	-0.25505677
111	0xbde22d91	-0.11043847
112	0x3d808244	0.06274846
113	0x3e1e00c2	0.15429977
114	0x3da79559	0.08182783
115	0xbe63de8e	-0.22252867
116	0xbce7daef	-0.028302638
117	0x3ed6ee7b	0.4197882
118	0xbd87794a	-0.06614931
119	0x3d4ebd10	0.050473273
120	0xbd9b1cf9	-0.075738855
121	0x3e8f98d7	0.28046295
122	0x3d1e041c	0.038578138
123	0xbe8c26ef	-0.27373454
124	0x3cf99c87	0.030470146
125	0x3d75a535	0.059972007
126	0x3d8d0c3f	0.068871014
127	0x3e0a1e3c	0.13488096
128	0xbe58a8a2	-0.21158078
129	0xbe50d970	-0.20395446
130	0x3d6058c4	0.054772153
131	0xbdaaf4e1	-0.08347488
132	0x3eb6408f	0.3559613
133	0x3e4a866e	0.19777843
134	0x3ea179c2	0.31538206
135	0xbe6f7407	-0.23384105
136	0x3d29958c	0.041402385
137	0x3ec2d83a	0.38055593
138	0xbdd24e4f	-0.102688424
139	0xbd1b09b8	-0.037851065
140	0xbe56474c	-0.20925635
141	0x3e9f2da2	0.31089503
142	0xbd8c8643	-0.06861546
143	0xbd218575	-0.039433915
144	0x3e8b7272	0.27235752
145	0xbe8414d7	-0.2579715
146	0xbe166c81	-0.14689828
147	0xbebe2ee7	-0.3714516
148	0xbe0a1b2c	-0.13486928
149	0xbe895fa5	-0.26830783
150	0x3ea4b417	0.32168648
151	0xbe8a6272	-0.27028233
152	0x3e6233e3	0.22090106
153	0xbe703adb	-0.23459952
154	0x3e53cdfa	0.20684043
155	0xbc138ed8	-0.009006225
156	0xbd7c2f85	-0.061568756
157	0x3da157a9	0.07878048
158	0x3eef7e36	0.4677598
159	0x3e64763c	0.22310728
160	0xbe85280f	-0.26007125
161	0x3ed036a3	0.40666685
162	0xbd1e3a19	-0.038629625
163	0xbd72d2be	-0.05928301
164	0xbebbb8d3	-0.36664447
165	0xbe37b840	-0.1794138
166	0xbe43c082	-0.19116405
167	0xbee931e8	-0.45545888
168	0xbe8d8063	-0.27637014
169	0xbf09c0c1	-0.53809744
170	0x3e08899a	0.13333741
171	0xbe4df4c0	-0.20112896
172	0x3ea572d7	0.32314178
173	0xbed740b0	-0.4204154
174	0x3eb72909	0.35773495
175	0xbe40b579	-0.18819226
176	0xbe6cf06b	-0.23138587
177	0x3ecad6fe	0.3961715
178	0x3e438c41	0.19096471
179	0x3dba1683	0.09086325
180	0x3e2ad671	0.16683365
181	0xbcad01a7	-0.021118952
182	0x3e5f3b37	0.21799932
183	0x3e9d140d	0.3067936
184	0x3d9b66e2	0.07587983
185	0xbc57cbaa	-0.013171116
186	0x3cf9bcf6	0.030485611
187	0x3ebc83b1	0.36819223
188	0xbd356f68	-0.0442957
189	0x3cbbe0f5	0.022934416
190	0xbddc4ede	-0.1075723
191	0xbe075be7	-0.13218652
192	0xbe877340	-0.26455116
193	0x3ed0582f	0.4069228
194	0xbdb2a895	-0.08723561
195	0x3b99ce88	0.00469381
196	0x3e74a9d3	0.23892908
197	0xbe54bb64	-0.20774609
198	0xbe8b45cb	-0.27201685
199	0xbe69820d	-0.22803517
200	0xbd4eabef	-0.050456937
201	0xbd9f8c15	-0.077903904
202	0xbdf12007	-0.11773687
203	0xbbedcc18	-0.007256996
204	0x3d3ff309	0.046862636
205	0xbe570ca9	-0.21000923
206	0xbd9ad95c	-0.07560989
207	0x3bddd227	0.006769437
208	0x3e7aac97	0.244799
209	0x3d16297b	0.036660653
210	0x3dc24860	0.09486461
211	0x3e023348	0.12714875
212	0x3d0fca29	0.035104904
213	0xbd8997cb	-0.06718405
214	0xbdc40013	-0.09570327
215	0x3d3a421d	0.045473207
216	0xbd84c1fb	-0.06482311
217	0xbe6fae31	-0.23406292
218	0x3e9a3fde	0.30126852
219	0x3e395f9c	0.18102878
220	0x3e60c9cf	0.21951984
221	0x3d90b898	0.070664585
222	0xbdbc353b	-0.091898404
223	0x3eb8f79f	0.3612642
224	0x3e79aeb7	0.24383055
225	0x3dfeef06	0.12447934
226	0x3e20a2b1	0.15687062
227	0x3e4b1257	0.19831215
228	0x3e2d8c11	0.16947962
229	0x3e6cafe4	0.23113972
230	0x3d30e702	0.043189056
231	0x3df20cfe	0.11818884
232	0xbedc7ce3	-0.4306403
233	0x3d6501bd	0.05590986
234	0xbdba0c62	-0.09084393
235	0x3d0add34	0.033902362
236	0x3cbca23c	0.023026578
237	0x3d9eec8b	0.07759961
238	0xbe0243ec	-0.12721223
239	0xbc523dfe	-0.012832163
240	0x3e03c4aa	0.1286799
241	0xbe4748a4	-0.19461304
242	0xbe680fa6	-0.2266222
243	0x3e8f55bc	0.27995098
244	0xbe7cd89f	-0.2469201
245	0x3e7173b8	0.235793
246	0x3e015056	0.12628302
247	0xbcfb05d9	-0.030642437
248	0x3deb454f	0.11487829
249	0xbc274b2a	-0.010210792
250	0xbd1f57ea	-0.0389022
251	0xbe49afad	-0.19695921
252	0xbe5427aa	-0.20718256
253	0x3cd700a8	0.02624543
254	0xbdadf864	-0.084946424
255	0xbdadacf3	-0.08480253

lstm.weight_hh_l1 f4 [80, 20]
0	0xbcd54b62	-0.026036922
1	0x3d135f9e	0.03597986
2	0x3e57f2b6	0.2108868
3	0xbd8a20a8	-0.0674451
4	0x3dda74ea	0.10666831
5	0xbed7e212	-0.42164665
6	0xbdad21da	-0.08453722
7	0xbc3d7e5c	-0.011565771
8	0xbd97375b	-0.07383605
9	0xbead0bef	-0.33798167
10	0xbd4ffa80	-0.050776005
11	0x3e317237	0.17328726
12	0x3e91ac89	0.28451946
13	0xbe25469e	-0.1614022
14	0xbcaf8227	-0.021424366
15	0xbe8c84c8	-0.27445054
16	0x3b7eef53	0.0038899973
17	0x39c6195a	0.0003778439
18	0xbe0c357f	-0.13692282
19	0xbe6ae015	-0.22937043
20	0xbc845b28	-0.016156748
21	0xbed69213	-0.4190832
22	0x3d808881	0.06276036
23	0xbb1560ce	-0.0022793296
24	0xbd24ee44	-0.04026629
25	0xbdb4f76f	-0.08836257
26	0x3e9c4ba9	0.30526474
27	0xbe17a899	-0.14810409
28	0xbe177c4c	-0.14793509
29	0xbe29885b	-0.16555922
30	0xbe530532	-0.2060745
31	0xbcc61f12	-0.024184737
32	0xbd9acfa8	-0.075591385
33	0x3ee3afec	0.44470155
34	0xbde62875	-0.11238185
35	0xbd7f8463	-0.062382113
36	0x3db4e6b9	0.08833069
37	0xbe892c7d	-0.26791754
38	0xbeb3cb50	-0.35116053
39	0x3c9406d1	0.018069657
40	0xbe4431b1	-0.19159581
41	0x3e6bb52d	0.23018332
42	0xbe33aec8	-0.17547143
43	0x3d80b19c	0.06283876
44	0xba0c83ae	-0.0005360198
45	0x3e4b2c3c	0.19841093
46	0x3e8ef8a9	0.27924088
47	0xbe3662c9	-0.17811121
48	0xbdd98e76	-0.106228754
49	0xbe2cb5d1	-0.16866232
50	0x3d8d29e9	0.06892759
51	0x3e136616	0.14394411
52	0xbe216b15	-0.15763505
53	0xbe5ef1d5	-0.21771939
54	0x3e192bfc	0.14958185
55	0x3b7a56c2	0.0038198684
56	0x3e2d1f26	0.16906413
57	0x3e03c083	0.12866406
58	0xbdf8d613	-0.121502064
59	0x3df31bc2	0.11870529
60	0x3d57c52d	0.052678276
61	0x3e6954e8	0.22786295
62	0x3dac1331	0.08402098
63	0xbdcfcd1e	-0.10146545
64	0x3d1fb89a	0.03899441
65	0x3e2bf8ff	0.16794203
66	0xbddff1a3	-0.109347604
67	0xbe072fac	-0.13201779
68	0xbc2bde4a	-0.01049001
69	0xbde5d8e9	-0.11223013
70	0xbdcd1d84	-0.10015395
71	0x3d545498	0.051838487
72	0x3e50c6db	0.20388357
73	0xbe0ed6ad	-0.1394908
74	0xbc291e2c	-0.010322135
75	0xbe0d1961	-0.13779213
76	0x3e13a853	0.1441968
77	0x3d41e266	0.04733505
78	0xbbe5eca8	-0.007016737
79	0x3d3e05ec	0.046392366
80	0x3e9d3005	0.30700698
81	0x3e03a0af	0.12854265
82	0xbdd3e4d2	-0.103463784
83	0xbdc0a7f7	-0.09407037
84	0x3e562086	0.20910844
85	0xbeb96426	-0.3620922
86	0x3e4971c2	0.19672301
87	0x3ef9bce6	0.4877693
88	0x3da38cc4	0.07985833
89	0xbcc5445f	-0.024080453
90	0xbe95d7a1	-0.29266074
91	0x3dfdf892	0.12400927
92	0x3e685418	0.22688329
93	0xbeb0ce7b	-0.34532532
94	0xbe1162e2	-0.14197877
95	0x3d23150e	0.039815
96	0xbe2d226a	-0.16907659
97	0xbe26db3e	-0.16294572
98	0x3e01e833	0.12686233
99	0xbce8d19e	-0.028420266
100	0x3eb01f77	0.34399006
101	0xbdd103ae	-0.1020578
102	0x3d5c642c	0.05380647
103	0xbe99b71a	-0.30022508
104	0xbeade07f	-0.3396034
105	0xbe87f9f4	-0.26557887
106	0x3e1a3c4d	0.15062065
107	0x3e9dddc7	0.30833265
108	0x3e2c5188	0.16827977
109	0xbe216f30	-0.15765071
110	0x3d828311	0.06372655
111	0x3ea9e52d	0.3318266
112	0xbe94fd13	-0.2909933
113	0xbe74e197	-0.2391418
114	0x3e638e4b	0.22222249
115	0xbe7d2be7	-0.24723779
116	0x3e21418f	0.15747665
117	0xbda2defd	-0.07952688
118	0x3c2191f8	0.009861462
119	0x3d80b9b2	0.062854186
120	0x3e4fec6b	0.2030503
121	0xbe97db58	-0.29659534
122	0x3e107d92	0.14110401
123	0xbe06a940	-0.13150501
124	0xbe42d057	-0.19024788
125	0xbe68bfe6	-0.22729453
126	0x3e1a7231	0.15082623
127	0x3dccb16a	0.099947765
128	0x3e46c2b3	0.1941021
129	0xbea0b108	-0.31385064
130	0x3d9f2870	0.07771385
131	0x3ea5b05d	0.32361117
132	0x3e67ab75	0.22624
133	0x3e4af641	0.19820501
134	0x3e0a3043	0.13494973
135	0x3d246b09	0.04014114
136	0x3ddea9bf	0.1087222
137	0xbd71c412	-0.059024878
138	0xbe8eb315	-0.27871004
139	0xbea026a5	-0.31279483
140	0xbc7fb7aa	-0.015607754
141	0xbd647507	-0.05577567
142	0x3c4a0883	0.012331131
143	0x3e241357	0.16023003
144	0xbd12da25	-0.03585257
145	0xbe785b32	-0.24253538
146	0x3db8746e	0.09006582
147	0x3d6f2e39	0.05839369
148	0x3e086aa3	0.13321929
149	0xbe864814	-0.26226866
150	0xbca54377	-0.020173771
151	0x3e136e81	0.14397623
152	0x3e30932f	0.17243646
153	0x3da38089	0.079835005
154	0xbe8d0e2e	-0.2754988
155	0xbe87c507	-0.26517507
156	0xbe75920d	-0.23981495
157	0xbd9ed429	-0.0775531
158	0x3de32046	0.1109014
159	0xbe476c58	-0.19474924
160	0xbe13db42	-0.14439109
161	0xbd6fc217	-0.058534708
162	0x3e2c014b	0.16797368
163	0xbd270251	-0.040773693
164	0x3e0a429c	0.13501972
165	0xbc7bd9b8	-0.015371732
166	0x3df46e80	0.11935139
167	0xbdeea587	-0.116526656
168	0x3dc8b6e4	0.098005086
169	0xbea59404	-0.3233949
170	0xbea574dd	-0.32315722
171	0x3eafa95f	0.34308907
172	0x3db95559	0.09049482
173	0x3e873daf	0.26414248
174	0xbe3048d2	-0.17215279
175	0xbca47516	-0.020075362
176	0xbeab0888	-0.33404946
177	0xbe2bdbe9	-0.16783108
178	0xbe28f90b	-0.16501252
179	0xbe0d3155	-0.1378835
180	0x3d5366ca	0.0516117
181	0x3e112802	0.14175418
182	0x3d7b6320	0.06137383
183	0xbc89d343	-0.01682437
184	0x3e2ec39c	0.17066807
185	0xbe290846	-0.16507062
186	0xbd8f6a97	-0.07002752
187	0x3d93438b	0.07190617
188	0x3e6e71ff	0.23285674
189	0xbe7b72af	-0.24555467
190	0xbe04b94d	-0.12961312
191	0x3d92ebed	0.071739055
192	0xbcd35300	-0.025796413
193	0xbd2ca6ea	-0.04215137
194	0xbe0150de	-0.12628505
195	0xbe000338	-0.12501228
196	0x3d385196	0.04499968
197	0x3c94f2e7	0.018182231
198	0xbe142e3b	-0.1447076
199	0xbcd1f42b	-0.025629124
200	0xbe0cbe1e	-0.13744399
201	0x3e3c456e	0.1838586
202	0x3e3e6437	0.18592916
203	0x3e3f165d	0.18660875
204	0xbe74f899	-0.23922957
205	0xbd7911ca	-0.06080798
206	0xbe233017	-0.15936314
207	0x3e26142f	0.16218637
208	0x3eae0336	0.33986825
209	0x3dff8ae0	0.1247766
210	0x3d9ede10	0.07757199
211	0x3e1847f9	0.14871205
212	0xbe580c80	-0.21098518
213	0x3e104901	0.14090349
214	0xbdb99ed5	-0.09063498
215	0x3da89825	0.08232144
216	0x3e8751aa	0.26429492
217	0xbe8f689d	-0.280095
218	0x3e35fb18	0.17771566
219	0x3cae9617	0.021311803
220	0x3d4a4735	0.049384315
221	0xbb13aee8	-0.0022534672
222	0x3e11b6e3	0.14229922
223	0xbcd01feb	-0.025405845
224	0x3e501c31	0.20323254
225	0xbe51fc4f	-0.20506404
226	0xbdc15e10	-0.09441769
227	0x3e9b1fe4	0.30297768
228	0x3df2025a	0.11816855
229	0xbe8820d8	-0.26587558
230	0x3bfce107	0.007717255
231	0x3e56c706	0.20974359
232	0xbe2d03f1	-0.16896035
233	0xbe432799	-0.19058074
234	0xbe65524b	-0.22394674
235	0xbe77cfe3	-0.24200396
236	0xbe8471bc	-0.25868022
237	0xbe96b1ca	-0.29432517
238	0x3d6a1414	0.057148054
239	0xbd5831d1	-0.052781884
240	0xbd1685b5	-0.036748607
241	0x3e31b366	0.17353591
242	0x3d07df64	0.033172026
243	0xbdc29ec8	-0.09502941
244	0x3e558aa6	0.20853671
245	0x3defc4d4	0.11707464
246	0xbde785db	-0.11304828
247	0xbe098beb	-0.1343228
248	0xbeb4e041	-0.35327342
249	0xbe16c3e8	-0.1472317
250	0xbe8a9152	-0.27063996
251	0x3e820250	0.2539239
252	0x3e0e31e3	0.13886218
253	0xbe35c092	-0.17749241
254	0xbbdef770	-0.006804399
255	0x3d323ff7	0.043518033

lstm.bias_ih_l1 f4 [80]
0	0xbe828d20	-0.25498295
1	0xbe2e47ef	-0.17019628
2	0xbde136f3	-0.10996809
3	0x3df3111a	0.11868496
4	0xbd85985d	-0.065232016
5	0xbd0c8ca7	-0.034313824
6	0xbedeed1c	-0.43540275
7	0xbd5061a5	-0.05087437
8	0x3d47a0f5	0.048737485
9	0xbe75923d	-0.23981567
10	0xbd0b31b4	-0.033982947
11	0xbe788f52	-0.24273422
12	0x3e0e4962	0.13895181
13	0xbd4ac000	-0.04949951
14	0xbe94ca37	-0.29060528
15	0xbd5e0922	-0.05420793
16	0xbe305391	-0.17219378
17	0xbee146da	-0.43999368
18	0xbdacdf6c	-0.08441052
19	0xbce25bc5	-0.02763165
20	0xbeaff447	-0.34366056
21	0xbe85eae8	-0.26155782
22	0x3e220d2b	0.15825336
23	0x3e94508a	0.28967696
24	0x3d03527d	0.03206109
25	0xbe3552cc	-0.17707366
26	0xbdaffd76	-0.08593266
27	0xbd9ad40b	-0.07559975
28	0xbd93b577	-0.07212346
29	0xbe3a1b82	-0.18174556
30	0x3d8271fc	0.06369397
31	0xbe595004	-0.2122193
32	0x3da654f2	0.08121671
33	0xbe97dae4	-0.29659188
34	0xbe9af9d7	-0.30268738
35	0x3e5cdd9b	0.21568911
36	0xbdf8d312	-0.121496335
37	0xbe94b45c	-0.29043853
38	0xbe87c955	-0.26520792
39	0xbd040e94	-0.032240465
40	0xbc99796a	-0.018734653
41	0x3e14fbd7	0.14549194
42	0xbe8a2b79	-0.26986292
43	0xbd96d0e9	-0.07364065
44	0x3d7bdacb	0.061487954
45	0x3df6c415	0.120491184
46	0x3da14e39	0.07876248
47	0xbe3fc0a1	-0.18725826
48	0xbd04ac85	-0.03239109
49	0x3de1d57f	0.11027049
50	0x3e575cbf	0.21031474
51	0xbe8e2115	-0.27759615
52	0xbdca5bce	-0.098807916
53	0x3d445318	0.047930807
54	0x3e05fb95	0.13084252
55	0x3e2fb48c	0.17158717
56	0xbda35e90	-0.07977021
57	0x3de25f0f	0.11053287
58	0x3e571eaf	0.21007799
59	0x3d578bf6	0.05262371
60	0xbeaaf5ea	-0.33390743
61	0xbec59456	-0.38589734
62	0x3e802625	0.25029102
63	0x3e360378	0.1777476
64	0xbae40dc6	-0.0017399124
65	0xbe9a36a2	-0.30119807
66	0xbdc2e939	-0.0951714
67	0xbe508ef9	-0.2036704
68	0xbe097dbe	-0.13426873
69	0xbe5b9363	-0.21442942
70	0xbbb42e47	-0.0054986808
71	0xbea4d58c	-0.32194173
72	0xbe4f5835	-0.20248492
73	0xbe6d9a25	-0.23203333
74	0xbdbd3d26	-0.09240179
75	0xbdc03c3a	-0.09386487
76	0x3cd4a0b1	0.02595553
77	0xbee40995	-0.4453856
78	0xbe38d1b2	-0.18048742
79	0xbe3b1759	-0.18270625

lstm.bias_hh_l1 f4 [80]
0	0xbee1b8b2	-0.44086224
1	0xbe85a692	-0.26103646
2	0x3d5ed461	0.05440176
3	0xbe1666d0	-0.14687657
4	0xbe02e36e	-0.1278207
5	0xbd5e6b9b	-0.05430184
6	0xbea00996	-0.31257313
7	0x3d01f561	0.031728152
8	0xbb899e4a	-0.0041997777
9	0xbe0ca8cd	-0.13736267
10	0xbe57fb0d	-0.21091862
11	0xbe927647	-0.28605863
12	0x3c42295e	0.011850683
13	0xbec1593d	-0.37763396
14	0xbe9868fe	-0.29767603
15	0x3d826b98	0.06368178
16	0xbe17f79f	-0.14840554
17	0xbe075499	-0.13215865
18	0xbddabd80	-0.106806755
19	0xbe856f61	-0.26061538
20	0xbe41e7c4	-0.18936068
21	0xbda97724	-0.082746774
22	0x3e3c442a	0.18385378
23	0x3c96a78a	0.018390436
24	0xbe827bcc	-0.25485075
25	0x3b118bb3	0.0022208511
26	0xbe8d491e	-0.27594846
27	0x3e16443a	0.14674464
28	0xbd143522	-0.036183484
29	0xbe9a2dbc	-0.30113018
30	0xbc3096ae	-0.010778112
31	0xbc8252c3	-0.015908604
32	0x3d9aedd4	0.07564893
33	0x3c69c9ac	0.014269274
34	0xbea209cb	-0.31648096
35	0xbd594e9d	-0.053053487
36	0xbe8e649b	-0.2781113
37	0xbe5ae8b3	-0.2137783
38	0x3de79d60	0.11309314
39	0x3cc82278	0.024430498
40	0xbdf00679	-0.117199846
41	0x3e372cf5	0.17888243
42	0xbe514d08	-0.20439541
43	0x3e35b8a7	0.1774622
44	0xbdc2a20f	-0.095035665
45	0xbc10967d	-0.008824942
46	0xbdeb660b	-0.114940725
47	0x3dc5eeca	0.09664686
48	0xbe3efba3	-0.1865068
49	0x3d97163c	0.07377288
50	0x3c0e704c	0.008693766
51	0xbde74dc6	-0.11294131
52	0x3e17671e	0.1478543
53	0xbe636b3e	-0.22208878
54	0x3d33c6f0	0.043890893
55	0xbcfdf33f	-0.030999778
56	0x3df802e7	0.121099286
57	0xbc9b46a1	-0.018954577
58	0x3ddd0b74	0.107932
59	0x3dbb600b	0.09149178
60	0xbe9ddcf0	-0.30832624
61	0xbe94c86e	-0.29059166
62	0xbd714b52	-0.05890972
63	0x3e8a5285	0.27016082
64	0x3c577836	0.013151219
65	0xbd76a13c	-0.06021236
66	0xbea028bb	-0.31281075
67	0x3c69a729	0.0142610455
68	0xbb9ecd82	-0.004846276
69	0xbd63f5a1	-0.05565417
70	0xbe907467	-0.28213808
71	0xbe8c6c2a	-0.27426273
72	0x3d51b49f	0.051197644
73	0xbe8f0b77	-0.27938434
74	0x3d8704b2	0.065926924
75	0xbc8145a5	-0.01578028
76	0xbdd4852f	-0.10376965
77	0xbe758960	-0.23978186
78	0xbeb77f87	-0.35839483
79	0x3cb3bd0d	0.021940732

fully_conencted_layer.weight f4 [7, 20]
0	0x3e1d81a6	0.15381488
1	0xbde0f04f	-0.10983335
2	0x3e05ff9b	0.13085787
3	0xbed12db2	-0.40855175
4	0x3e3789ea	0.17923704
5	0x3e3e5832	0.18588331
6	0x3b4f9550	0.003167469
7	0xbe86ebae	-0.26351684
8	0xbe801c40	-0.25021553
9	0xbcb3c9dc	-0.02194684
10	0xbd92dfb8	-0.07171577
11	0x3d4b7ba8	0.049678475
12	0x3e5d3b94	0.21604759
13	0x3e24fddb	0.16112463
14	0x3dd357a8	0.103194535
15	0xbe161532	-0.14656523
16	0xbe893eae	-0.26805633
17	0x3dd67b45	0.104727305
18	0xbe47bfaa	-0.19506708
19	0x3de6ab05	0.11263088
20	0xbe6961b3	-0.22791176
21	0x3e9ad1bf	0.3023815
22	0x3e58d8f1	0.21176507
23	0xbe5cb10b	-0.21551912
24	0xbdc32909	-0.09529311
25	0x3e929450	0.28628778
26	0xbadc6e70	-0.0016817581
27	0xbe072152	-0.13196304
28	0xbe905bb9	-0.2819498
29	0xbe7c4c6c	-0.24638528
30	0x3db71469	0.0893944
31	0xbd13827a	-0.036013104
32	0x3e59374c	0.212125
33	0x3ced8ce9	0.028997855
34	0xbe6a19b9	-0.22861375
35	0xbe9a5a04	-0.301468
36	0x3d8df04a	0.06930597
37	0x3e598b03	0.21244435
38	0xbe23b570	-0.15987182
39	0xbd0153df	-0.031574126
40	0x3d2923b4	0.041293815
41	0x3e20c3cb	0.15699689
42	0x3e0de862	0.13858178
43	0xbec1b8fa	-0.37836438
44	0x3cf2c591	0.029635223
45	0x3d813af8	0.063100755
46	0x3d881cd1	0.06646121
47	0xbe553c97	-0.20823894
48	0xbd99243e	-0.07477616
49	0xbd934b17	-0.071920566
50	0xbe6a4b2a	-0.22880235
51	0xbdbdcee5	-0.092679776
52	0x3ea6000f	0.3242192
53	0xbe19039c	-0.14942783
54	0xbdc943c9	-0.09827382
55	0xbd94fe28	-0.07275039
56	0xbd232f24	-0.03983988
57	0x3e0b7718	0.1361965
58	0x3e41ddcd	0.18932267
59	0x3d7696d2	0.060202427
60	0x3df143a2	0.11780478
61	0xbddfd283	-0.10928824
62	0x3e27c3af	0.16383241
63	0xbe937de6	-0.2880699
64	0x3e192f97	0.1495956
65	0xbdfde9b8	-0.12398094
66	0x3ce3f3f6	0.02782629
67	0x3ddbb2af	0.107274406
68	0xbd287afd	-0.041132916
69	0xbe259754	-0.16171008
70	0xbe02a4a4	-0.12758118
71	0x3e9f2b5a	0.31087762
72	0x3ec618ac	0.38690698
73	0x3da84964	0.08217123
74	0xbce1a181	-0.027542831
75	0xbe9d819f	-0.30762956
76	0xbe7da409	-0.24769606
77	0x3e33aba8	0.1754595
78	0xbcfccbb0	-0.030858845
79	0xbe837b8d	-0.256802
80	0xbe8e397f	-0.2777824
81	0xbd3d2088	-0.046173602
82	0x3dfc1584	0.12308791
83	0xbe937d0e	-0.28806347
84	0x3e1c68e2	0.15274385
85	0x3d878856	0.06617801
86	0xbe8853f0	-0.2662654
87	0xbe50ca00	-0.20389557
88	0xbeba0491	-0.3633161
89	0xbdffa89d	-0.12483332
90	0xbc23dbf4	-0.010001171
91	0x3d97b001	0.07406617
92	0x3e2c3218	0.16815984
93	0xbce1ff8f	-0.02758768
94	0xbe163ae0	-0.14670897
95	0xbea69293	-0.32533702
96	0xbdc1ad39	-0.09456868
97	0xbd64011f	-0.05566513
98	0x3e06565c	0.13118881
99	0xbda5b6e4	-0.08091524
100	0xbdafb1ca	-0.085788324
101	0xbe10fbcb	-0.14158551
102	0x3eb63369	0.35586098
103	0xbe98e392	-0.29861122
104	0xbe07676a	-0.13223043
105	0xbd402b20	-0.046916127
106	0xbe086e9a	-0.13323441
107	0xbe07d4d9	-0.13264789
108	0xbe24b58a	-0.16084877
109	0xbe5e0d9a	-0.21684876
110	0xbc164c19	-0.0091734165
111	0x3e3dfa63	0.18552546
112	0x3e8136be	0.25237077
113	0xbd02b1b7	-0.031907763
114	0xbe3a3e7d	-0.181879
115	0xbd8e2132	-0.06939925
116	0x3c9a5c17	0.01884274
117	0x3e09781e	0.13424727
118	0xbe788b41	-0.24271871
119	0x3df17c50	0.11791289
120	0xbd2bfd20	-0.041989446
121	0xbdb44bb1	-0.088034995
122	0x3eaacf00	0.33361053
123	0xbedd41dd	-0.43214312
124	0xbd625155	-0.055253346
125	0xbdb181d5	-0.086673416
126	0x3d848059	0.06469793
127	0xbe04d333	-0.12971191
128	0xbda8183e	-0.08207749
129	0x3d5e8bdf	0.05433261
130	0xbe97e6da	-0.29668313
131	0x3e101b56	0.14072928
132	0xbc015d78	-0.00789582
133	0x3eb408ce	0.35162967
134	0xbda5727b	-0.08078476
135	0xbe3ab192	-0.182318
136	0x3cc13334	0.023583986
137	0x3d30a55e	0.043126456
138	0xbe51f4ca	-0.20503536
139	0xbe310ae4	-0.1728931

fully_conencted_layer.bias f4 [7]
0	0xbdf55eea	-0.11980994
1	0xbe298ac1	-0.16556837
2	0xbe221aed	-0.15830584
3	0xbd14adcf	-0.03629857
4	0xbe1b399d	-0.15158696
5	0xbcf45261	-0.029824438
6	0x3d4ac00c	0.049499556

exp_avg f4 [80, 1]
0	0x38ed4f6d	0.00011315835
1	0x37121204	8.706473e-06
2	0xb801e2ba	-3.0967152e-05
3	0x399712d0	0.0002881498
4	0x35b289ea	1.3302172e-06
5	0x37fe3886	3.030548e-05
6	0x33f7e9e7	1.15443804e-07
7	0x38090462	3.2667427e-05
8	0x390843f1	0.00012995281
9	0x39b76237	0.00034977656
10	0xb7a77048	-1.9960236e-05
11	0x36621708	3.369003e-06
12	0x39909138	0.00027574017
13	0xb899313c	-7.304779e-05
14	0xb606f431	-2.0109694e-06
15	0xb786cdc3	-1.606986e-05
16	0xb5a73799	-1.2458651e-06
17	0x391afc5b	0.00014780594
18	0xb71da836	-9.397094e-06
19	0xb6bc8b02	-5.6190192e-06
20	0x38bb7e56	8.940387e-05
21	0x368d9d14	4.2204138e-06
22	0xb7d46dc4	-2.5323483e-05
23	0x39aa659e	0.00032500637
24	0x3501a9a4	4.8303104e-07
25	0x374dc20c	1.2264132e-05
26	0x34b987a5	3.455763e-07
27	0x37d5d1c3	2.5489257e-05
28	0x3913af14	0.00014084234
29	0x39a76782	0.00031929841
30	0xb7a907e6	-2.0150048e-05
31	0x361f3794	2.3725197e-06
32	0x39a97086	0.00032318028
33	0xb89773f5	-7.22184e-05
34	0xb598f106	-1.139503e-06
35	0xb768fa63	-1.3886575e-05
36	0xb59f89f6	-1.1886575e-06
37	0x39301609	0.00016792877
38	0x3764385b	1.360298e-05
39	0xb59ed807	-1.183479e-06
40	0x39f15f42	0.00046038075
41	0xb88b1258	-6.631453e-05
42	0x38438b22	4.66212e-05
43	0x3af4cfe4	0.0018677679
44	0xb88fd086	-6.857612e-05
45	0x3936d8b9	0.00017437608
46	0x37d60875	2.5514726e-05
47	0x36a10367	4.79857e-06
48	0x3a5d084f	0.0008431719
49	0x3b248f52	0.002510984
50	0xb89046b9	-6.879628e-05
51	0x37d3ce57	2.5249245e-05
52	0xbad3ade3	-0.0016149845
53	0x38c462fa	9.364444e-05
54	0xb7f8055c	-2.95664e-05
55	0x38a970b2	8.079539e-05
56	0x37a505b4	1.9672189e-05
57	0xba249ccf	-0.000627947
58	0x39f893f4	0.0004741248
59	0x38d643ae	0.000102169215
60	0x38ce4206	9.835143e-05
61	0x3704c1e8	7.91296e-06
62	0xb8224264	-3.868564e-05
63	0x39d86090	0.00041270675
64	0x35ad2f84	1.2903333e-06
65	0x37d3e86d	2.5261392e-05
66	0x355c7176	8.2121494e-07
67	0x359270d2	1.0910683e-06
68	0x3911593d	0.00013861521
69	0x39ebd748	0.0004498309
70	0xb7713199	-1.4376267e-05
71	0x36979b4f	4.518231e-06
72	0x39db778b	0.00041860002
73	0xb8c221b4	-9.2569186e-05
74	0xb606ecae	-2.0105322e-06
75	0xb7a0e0b4	-1.9178122e-05
76	0xb5d5f580	-1.5941187e-06
77	0x392fff80	0.00016784482
78	0xb8d807b6	-0.00010301119
79	0xb6bf475e	-5.700552e-06

exp_avg_sq f4 [80, 1]
0	0x358e242c	1.0590352e-06
1	0x33cb9f4c	9.4819e-08
2	0x32ee9b7e	2.7777556e-08
3	0x365e5693	3.313097e-06
4	0x331c77b0	3.6430436e-08
5	0x34888663	2.5429753e-07
6	0x329ca3c7	1.8235268e-08
7	0x34c23302	3.617243e-07
8	0x351e5fd1	5.899902e-07
9	0x36a729d4	4.9818573e-06
10	0x340da58a	1.3191871e-07
11	0x32c088f0	2.2414014e-08
12	0x367401c5	3.6359863e-06
13	0x34495a42	1.875242e-07
14	0x32ce4349	2.4012154e-08
15	0x33f10ca1	1.1224734e-07
16	0x3278297b	1.44449315e-08
17	0x358a9bfb	1.0327198e-06
18	0x354a33b8	7.5326125e-07
19	0x32633e9f	1.3227377e-08
20	0x3519ef78	5.7345414e-07
21	0x338955f8	6.395197e-08
22	0x329aaec3	1.8007432e-08
23	0x36696d9b	3.4783504e-06
24	0x32db1e5b	2.550876e-08
25	0x340527a7	1.2401016e-07
26	0x327b961c	1.4644254e-08
27	0x345ccf72	2.0564565e-07
28	0x351967d5	5.7148037e-07
29	0x36562fd6	3.191633e-06
30	0x335c114a	5.1238466e-08
31	0x33036c49	3.05993e-08
32	0x3641edb9	2.8897614e-06
33	0x33e92859	1.0857247e-07
34	0x321dfd96	9.1962615e-09
35	0x338de5ae	6.6076026e-08
36	0x324f2d3b	1.205927e-08
37	0x35945a13	1.1053074e-06
38	0x34ff56f4	4.7560718e-07
39	0x3226de7f	9.7130615e-09
40	0x37e93495	2.780025e-05
41	0x36a1d444	4.822885e-06
42	0x359eadaf	1.1822466e-06
43	0x38b8d25a	8.812985e-05
44	0x358d1fb5	1.0514547e-06
45	0x370d927f	8.438364e-06
46	0x3622b8c3	2.4247427e-06
47	0x37393645	1.1039495e-05
48	0x37d26e12	2.5085206e-05
49	0x39484b69	0.00019101579
50	0x36b9df1a	5.539402e-06
51	0x35ec4dec	1.7606048e-06
52	0x3908f636	0.00013061691
53	0x3736487f	1.0864925e-05
54	0x3563757a	8.473504e-07
55	0x368cec8e	4.1998637e-06
56	0x35a1a11e	1.2042326e-06
57	0x377bce16	1.5008749e-05
58	0x37e132e3	2.6845786e-05
59	0x3597639b	1.1279366e-06
60	0x3543bd19	7.2918334e-07
61	0x33d96407	1.0123045e-07
62	0x332ee3d4	4.071974e-08
63	0x36bd5394	5.6423687e-06
64	0x338074ce	5.981711e-08
65	0x345bea2f	2.048116e-07
66	0x3301f249	3.025551e-08
67	0x3516d09c	5.618292e-07
68	0x35263ac9	6.192536e-07
69	0x36ccaca0	6.09977e-06
70	0x33b2e99e	8.3312656e-08
71	0x33813863	6.017287e-08
72	0x36c21959	5.7846014e-06
73	0x343b4e21	1.7444155e-07
74	0x32c707e3	2.3170236e-08
75	0x3418525f	1.418607e-07
76	0x32405d04	1.119702e-08
77	0x35a6d1ae	1.2428989e-06
78	0x355c76c4	8.2129213e-07
79	0x32d87304	2.5198013e-08

exp_avg f4 [80, 20]
0	0xb7edc006	-2.834202e-05
1	0x3702a67a	7.787365e-06
2	0x3683946a	3.921382e-06
3	0xb886fd99	-6.436854e-05
4	0x361ed95d	2.3670357e-06
5	0xb6fa544d	-7.4603945e-06
6	0xb5c5fe4c	-1.4751654e-06
7	0xb716521b	-8.959813e-06
8	0xb82c273f	-4.1044546e-05
9	0xb87adbb1	-5.980925e-05
10	0x33b9b280	8.647203e-08
11	0xb6d3006d	-6.2883396e-06
12	0x38691605	5.5572036e-05
13	0x370924c3	8.174396e-06
14	0x352704bd	6.2219243e-07
15	0xb59c012f	-1.162325e-06
16	0x359d117e	1.1702502e-06
17	0x383e0542	4.5304427e-05
18	0xb6d44695	-6.326309e-06
19	0x36a97eeb	5.0513677e-06
20	0xb5c486b8	-1.4642346e-06
21	0xb50fc8d5	-5.35639e-07
22	0x36677714	3.4490995e-06
23	0xb7151f77	-8.888418e-06
24	0x34df08e5	4.1543458e-07
25	0x324f6cc5	1.2073717e-08
26	0x34bdd655	3.535994e-07
27	0x36ab79fb	5.1103975e-06
28	0xb6abf3b1	-5.1245665e-06
29	0xb686a11c	-4.012267e-06
30	0xb63b1c95	-2.7881808e-06
31	0xb561d19e	-8.4124065e-07
32	0x3674d488	3.6482543e-06
33	0x36dc5736	6.5666636e-06
34	0xb4b5052b	-3.3717637e-07
35	0x35bab840	1.3911704e-06
36	0x3565df86	8.563442e-07
37	0x36c09b51	5.740127e-06
38	0xb732d43b	-1.06590405e-05
39	0x353ead49	7.103268e-07
40	0x3733d040	1.0717718e-05
41	0xb6b87344	-5.497046e-06
42	0x37077281	8.073287e-06
43	0x3678045a	3.6957413e-06
44	0x34a7bfa2	3.1245605e-07
45	0x3682e16b	3.900544e-06
46	0x35d6c83e	1.6002521e-06
47	0x37aff4b4	2.0975574e-05
48	0x3682846c	3.889718e-06
49	0x37977328	1.8054227e-05
50	0xb7138af2	-8.7942335e-06
51	0x35614688	8.392167e-07
52	0xb7a3d4dd	-1.9530236e-05
53	0x378ccc5f	1.6784468e-05
54	0xb5af4230	-1.3057779e-06
55	0x36b07505	5.2588316e-06
56	0x3601f961	1.9367656e-06
57	0xb692c062	-4.3735354e-06
58	0xb80ca80e	-3.3535114e-05
59	0xb5e3770a	-1.6947463e-06
60	0xb840ad3a	-4.5937697e-05
61	0x37b3a774	2.141644e-05
62	0xb674030b	-3.6360605e-06
63	0xb8e9dd8d	-0.00011151573
64	0x366d68fa	3.5376856e-06
65	0xb7bd9952	-2.2601951e-05
66	0xb6cd9943	-6.127318e-06
67	0xb7ade1bc	-2.0728323e-05
68	0xb8963d2d	-7.163952e-05
69	0xb8ba1ca1	-8.874504e-05
70	0x37408049	1.14739605e-05
71	0xb75d5300	-1.3191951e-05
72	0x38a79000	7.9900026e-05
73	0xb6c81f30	-5.964095e-06
74	0x359a1e56	1.1482723e-06
75	0xb7645b88	-1.361117e-05
76	0xb5b15a49	-1.3213804e-06
77	0x38b3e54c	8.578095e-05
78	0x376ed51f	1.4235527e-05
79	0x36fdb551	7.5610956e-06
80	0xb4321a13	-1.6587028e-07
81	0x33d1f5db	9.777042e-08
82	0xb36ac639	-5.4662653e-08
83	0xb52eb2f0	-6.508044e-07
84	0x30ccfd83	1.4915006e-09
85	0xb3f4d03b	-1.1400012e-07
86	0xb20a1f63	-8.039794e-09
87	0xb3582cc7	-5.0332144e-08
88	0xb4ae98ed	-3.2521294e-07
89	0xb4ce8a84	-3.8471273e-07
90	0x339e34c2	7.367045e-08
91	0xb3dec2fb	-1.0373147e-07
92	0x34cd739a	3.8268337e-07
93	0xb3d53f53	-9.930104e-08
94	0xb18a77a8	-4.029932e-09
95	0xb3f34076	-1.1327295e-07
96	0x324ebf07	1.2034213e-08
97	0x350ca145	5.238874e-07
98	0x344925e8	1.8733374e-07
99	0x335c3aac	5.1276103e-08
100	0xb64662e8	-2.956187e-06
101	0x35751a49	9.130786e-07
102	0x36151fd7	2.2221263e-06
103	0xb772040c	-1.4425266e-05
104	0x34d220de	3.9139462e-07
105	0xb5c3e954	-1.459654e-06
106	0x344932e3	1.8738096e-07
107	0x367c933e	3.7636632e-06
108	0xb70940a4	-8.180887e-06
109	0xb702ad49	-7.78895e-06
110	0xb5e29c96	-1.6883885e-06
111	0xb5fe6ca3	-1.8956092e-06
112	0x36fdf43c	7.56842e-06
113	0x36b4c3e3	5.3872222e-06
114	0xb49761c9	-2.819709e-07
115	0xb3888066	-6.356349e-08
116	0x355f2f86	8.314313e-07
117	0x37356997	1.0813025e-05
118	0xb715008b	-8.8812185e-06
119	0x3590a638	1.0777212e-06
120	0xb4efb038	-4.4645435e-07
121	0x338542b8	6.205431e-08
122	0xb29748a8	-1.7611754e-08
123	0xb4ff14a9	-4.7512484e-07
124	0x320720a8	7.865459e-09
125	0xb263027e	-1.3213706e-08
126	0x32d6920f	2.4979299e-08
127	0xb4eb265c	-4.380007e-07
128	0xb49e13e1	-2.9444257e-07
129	0xb5812eed	-9.624906e-07
130	0x33306024	4.1065633e-08
131	0xb31e7cad	-3.6900634e-08
132	0x358e99fb	1.0624639e-06
133	0xb365bec5	-5.349172e-08
134	0x32e494f8	2.6610437e-08
135	0x32045192	7.701958e-09
136	0x32fe49cc	2.960305e-08
137	0x34989461	2.8420166e-07
138	0x34ddd4f1	4.1319393e-07
139	0x34025d0f	1.2141048e-07
140	0xb771ea6f	-1.4419303e-05
141	0x36082106	2.0284801e-06
142	0x36b8b644	5.504846e-06
143	0xb7e77f53	-2.7596636e-05
144	0x3594da6f	1.1090432e-06
145	0xb5e1faed	-1.6836835e-06
146	0x3403df12	1.2281478e-07
147	0xb6111190	-2.1616906e-06
148	0xb7a0429e	-1.9104507e-05
149	0xb80056a9	-3.0598287e-05
150	0xb66bf477	-3.5160026e-06
151	0xb62cd0c9	-2.5751526e-06
152	0x3803167d	3.1253778e-05
153	0x37457a29	1.1770558e-05
154	0x34a704f6	3.1109784e-07
155	0x362e1933	2.5942688e-06
156	0x35a56bba	1.232481e-06
157	0x379a9002	1.842529e-05
158	0xb756fb35	-1.2813883e-05
159	0x3676980c	3.674536e-06
160	0xb7d82262	-2.5765217e-05
161	0x373a62be	1.1109454e-05
162	0xb65f67e2	-3.3290057e-06
163	0xb85525e7	-5.0818457e-05
164	0x35c9797b	1.5011022e-06
165	0xb738ece5	-1.1022411e-05
166	0xb651bc60	-3.1253076e-06
167	0xb78f8016	-1.7106573e-05
168	0xb80d50ee	-3.369239e-05
169	0xb849786c	-4.8034286e-05
170	0x36fb40c9	7.487925e-06
171	0xb6cc0d60	-6.081231e-06
172	0x383ece3b	4.5491597e-05
173	0xb6eef71a	-7.121719e-06
174	0x3583e59e	9.827088e-07
175	0xb6efd862	-7.1479453e-06
176	0xb58da053	-1.0551979e-06
177	0x38246bff	3.9201226e-05
178	0x3795d2ff	1.7860437e-05
179	0x369a9187	4.6064993e-06
180	0xb87f6a13	-6.0895527e-05
181	0x37b8541a	2.1973672e-05
182	0x36ec9bff	7.0515084e-06
183	0xb922fb72	-0.00015543195
184	0x36d19d19	6.246974e-06
185	0xb7c222b4	-2.3142762e-05
186	0xb6db82c1	-6.5419304e-06
187	0xb7531167	-1.2580632e-05
188	0xb8d43cb0	-0.00010120252
189	0xb9024d62	-0.00012426593
190	0x36428b77	2.8989432e-06
191	0xb78078b2	-1.5314992e-05
192	0x38e09490	0.00010708824
193	0x378883be	1.627381e-05
194	0x3598e820	1.139244e-06
195	0xb6e2e597	-6.7620526e-06
196	0x34bc8cf5	3.5120289e-07
197	0x38eb4061	0.00011217665
198	0xb7d66f87	-2.5562722e-05
199	0x370dc5ec	8.450337e-06
200	0x3701499f	7.70614e-06
201	0xb693a6a1	-4.4003395e-06
202	0x3709c6b1	8.212098e-06
203	0xb59f5f67	-1.1874189e-06
204	0x349130ad	2.704377e-07
205	0x363c1800	2.8028153e-06
206	0x35dbfae8	1.6389795e-06
207	0x37a136a4	1.921814e-05
208	0x35210139	5.9978953e-07
209	0x374bb75b	1.2142434e-05
210	0xb7106d11	-8.608463e-06
211	0xb4170b23	-1.4067022e-07
212	0xb748b9bc	-1.1964174e-05
213	0x3793c146	1.7613766e-05
214	0xb5a48b4b	-1.2259492e-06
215	0x369c2d57	4.6544405e-06
216	0x360dab2f	2.111028e-06
217	0xb40fc731	-1.3390378e-07
218	0xb8083a45	-3.2479194e-05
219	0xb4d6703c	-3.9942267e-07
220	0xb4e5dcf1	-4.281533e-07
221	0x34657b39	2.1372115e-07
222	0x34018913	1.2063929e-07
223	0xb578fc80	-9.2754635e-07
224	0x32ea7b9c	2.7297396e-08
225	0xb49c6f58	-2.9138278e-07
226	0xb395c892	-6.974837e-08
227	0x33020d8a	3.0280297e-08
228	0xb5356d26	-6.7586586e-07
229	0xb517503a	-5.636863e-07
230	0x3300716a	2.9905472e-08
231	0xb4155ce1	-1.3910496e-07
232	0x352ca527	6.431532e-07
233	0x343151d7	1.6514183e-07
234	0xb2203762	-9.325818e-09
235	0xb4194257	-1.427337e-07
236	0xb21413ef	-8.619266e-09
237	0x354db582	7.663258e-07
238	0xb400669e	-1.1958261e-07
239	0x34264ff2	1.5489039e-07
240	0xb87e07cf	-6.056559e-05
241	0x379a040f	1.836012e-05
242	0x36d4fcba	6.3475136e-06
243	0xb90f8178	-0.00013685774
244	0x36bd9597	5.6500535e-06
245	0xb7981bac	-1.8132698e-05
246	0xb69651ae	-4.479857e-06
247	0xb7a39f1a	-1.9505202e-05
248	0xb8bbcf4c	-8.955467e-05
249	0xb9030b6e	-0.00012497391
250	0x361556d8	2.225328e-06
251	0xb759f4a3	-1.2991167e-05
252	0x38ec3662	0.000112634865
253	0x3773e948	1.4538244e-05
254	0x35dd6232	1.6494362e-06
255	0xb67e8449	-3.792595e-06
